runs/lstm_camels_us_0312_020042/model_epoch004.pt (torch, 80974 bytes, 5 tensors)

cell.w_hh f4 [256, 64]
0.18073799 0.15847406 0.13781887 -0.02551284 0.14619106 0.12168955 0.055126797 -0.14261436
-0.101739325 -0.079558715 0.1305978 -0.123877294 -0.2542475 -0.24465823 0.12452032 0.015530734
-0.18900698 -0.24244247 0.090079024 -0.14707604 -0.083831705 -0.08644837 -0.12893987 0.1270403
-0.24510337 0.070427924 -0.010159311 -0.057109762 -0.2316251 -0.030997634 0.20199497 0.21260498
0.19335265 -0.053728975 -0.23073423 -0.26891887 -0.21994728 0.010371647 -0.031604733 0.034681436
-0.0255936 0.16842462 -0.1687053 0.29129362 0.31280524 -0.11907742 -0.03811705 0.20483588
-0.054582782 0.08848515 -0.003971026 -0.1168846 -0.0499687 0.22209409 -0.059907373 -0.2435256
-0.050240424 0.15649754 0.03683657 0.006031461 0.19829975 -0.119718425 0.17266798 -0.08023161
-0.119419016 -0.07623334 0.071205564 0.27832118 0.38301775 -0.108409695 -0.14057034 0.029733626
-0.13295348 0.007729082 0.12181071 0.22704166 0.095168255 -0.085989706 -0.06679667 -0.1289088
-0.26236182 -0.15932366 0.03880949 -0.24032195 -0.030553455 0.17756617 -0.14437288 -0.08283946
-0.24942651 -0.1552953 -0.054672703 -0.087124534 -0.071333855 0.11563254 0.16291772 0.32042584
0.10970416 0.08707467 0.10852705 0.030083146 -0.11787767 -0.1389153 0.048832487 0.04684861
0.019953128 0.13925312 -0.11047563 -0.0726247 0.29357338 -0.14998311 0.15100858 -0.2129226
0.24714603 0.109264724 0.12521122 -0.088541955 -0.23731731 -0.09020115 -0.13796638 -0.16593009
0.004957143 0.011730931 0.014430556 0.048946142 0.041580286 -0.09126636 -0.18298012 0.06439305
-0.0992374 0.15781099 0.00814219 0.15236668 0.15095882 0.1118556 -0.06575236 -0.1445464
-0.22711763 0.0015204031 0.13857603 -0.14109848 0.14038835 0.10772406 0.14081196 -0.16321704
0.13545889 -0.21095958 -0.07883905 -0.23290221 -0.06457232 0.07778053 -0.046852596 0.02632563
0.05177691 -0.023726087 0.081035554 -0.025602607 -0.092816226 0.14544946 -0.049970876 -0.105550244
-0.16812266 -0.09861356 -0.018409232 0.20124315 0.09103369 0.124353625 0.09036086 0.04016887
-0.028710043 0.05989454 0.12784958 -0.018236466 0.057672165 -0.152901 -0.027710114 -0.0127609065
0.11631131 -0.1291308 0.1506916 -0.06281032 0.0955341 0.01514275 -0.13693683 -0.15042046
0.12943125 -0.16571276 0.12082575 0.10670829 0.16965227 0.055479445 -0.12991193 -0.04570308
0.036406185 0.15066406 -0.09195275 0.10820048 -0.18826562 -0.21745017 -0.21937269 0.13610047
0.11290139 0.12111024 -0.11012007 0.035237003 -0.020138135 -0.2400222 0.17359853 -0.19301008
-0.015286392 0.08693784 0.1565802 -0.1030667 -0.16764534 -0.20720983 0.16853465 -0.164211
-0.085105486 -0.14739749 -0.1441556 -0.010688254 -0.16326661 0.18170437 0.028556125 -0.0033728448
0.0014039271 -0.187876 -0.059553154 -0.2859431 -0.22876136 0.1500348 0.05458976 -0.15309475
0.04380415 0.1510738 0.0809517 0.17317532 0.28545186 -0.0391029 0.31895423 0.068861194
0.099982515 0.041984126 0.086567335 0.17459181 0.041152727 0.21238229 0.060560446 -0.17973426
-0.25466377 -0.032816846 0.20123284 -0.06438549 -0.058136333 0.24147993 -0.25791734 -0.16636339
00000000: 6113 393e 0647 223e 6420 0d3e 4e00 d1bc
00000010: 1cb3 153e 5f38 f93d a3cc 613d 8009 12be
00000020: b55c d0bd aeef a2bd 6ebb 053e 61b3 fdbd
00000030: ba2c 82be b087 7abe 8204 ff3d 9f74 7e3c
00000040: 0c8b 41be d742 78be 5a7b b83d 1a9b 16be
00000050: f5af abbd d80b b1bd d008 04be da16 023e
00000060: 61fc 7abe 843c 903d 3d73 26bc edeb 69bd
00000070: 212f 6dbe c0ee fdbc c5d7 4e3e 1fb5 593e
00000080: 3dfe 453e ea12 5cbd 9845 6cbe bcaf 89be
00000090: dc39 61be d7ed 293c f773 01bd 1f0e 0e3d
000000a0: aba9 d1bc 8177 2c3e 15c1 2cbe 7024 953e
000000b0: 0228 a03e ddde f3bd a020 1cbd 7fc0 513e
000000c0: 3292 5fbd b437 b53d 611f 82bb 3161 efbd
000000d0: fbab 4cbd a26c 633e 6f61 75bd c65e 79be
000000e0: e7c8 4dbd e440 203e f1e1 163d 90a3 c53b
000000f0: 170f 4b3e ef2e f5bd e0cf 303e 7850 a4bd
00000100: f591 f4bd 3a20 9cbd 39d4 913d 1d80 8e3e
00000110: e71a c43e e705 debd acf1 0fbe ef93 f33c
00000120: f524 08be 3d44 fd3b e577 f93d 9c7d 683e
00000130: 93e7 c23d 5f1b b0bd b1cc 88bd ab00 04be
00000140: 4a54 86be be25 23be b3f6 1e3d f516 76be
00000150: 3d4b fabc e8d3 353e 7cd6 13be bca7 a9bd
00000160: aa69 7fbe bb05 1fbe 7cf0 5fbd 596e b2bd
00000170: 7c17 92bd c1d0 ec3d e7d3 263e db0e a43e
00000180: 93ac e03d 3454 b23d 6e43 de3d ee70 f63c
00000190: d969 f1bd d03f 0ebe 9304 483d 54e4 3f3d
000001a0: be74 a33c 5f98 0e3e 0c41 e2bd 42bc 94bd
000001b0: 404f 963e 2c95 19be fea1 1a3e 6208 5abe
000001c0: d913 7d3e 2fc6 df3d 5f37 003e 7c55 b5bd
000001d0: 4f03 73be 61bb b8bd 0f47 0dbe 94e9 29be
000001e0: 886f a23b 1733 403c 246e 6c3c c07b 483d
000001f0: 1750 2a3d dbe9 babd 245f 3bbe 81e0 833d
00000200: fa3c cbbd 3499 213e d266 053c 0306 1c3e
00000210: f394 1a3e 8c14 e53d 2ca9 86bd f903 14be
00000220: 8691 68be 4348 c73a e0e6 0d3e 1f7c 10be
00000230: f7c1 0f3e 6f9e dc3d 0331 103e 5e22 27be
00000240: bcb5 0a3e ca05 58be 5e76 a1bd eb7d 6ebe
00000250: 7e3e 84bd 664b 9f3d 82e8 3fbd d9a8 d73c
00000260: 0614 543d 365d c2bc f8f5 a53d 8fbc d1bc
00000270: 6f16 bebd b4f0 143e 43ae 4cbd ba2a d8bd
00000280: 5928 2cbe e8f5 c9bd f5ce 96bc af12 4e3e
00000290: df6f ba3d 1dad fe3d 1d0f b93d 1d88 243d
000002a0: 5331 ebbc fa53 753d 00eb 023e a464 95bc
000002b0: a639 6c3d 1492 1cbe 5200 e3bc 1f13 51bc
000002c0: a034 ee3d dd3a 04be e64e 1a3e b2a2 80bd
000002d0: 62a7 c33d 4c19 783c 2b39 0cbe d207 1abe
000002e0: a089 043e 9bb0 29be 7e73 f73d e089 da3d
000002f0: 53b9 2d3e 6a3e 633d a207 05be 2733 3bbd
00000300: a71e 153d ae47 1a3e b951 bcbd 3798 dd3d
00000310: b4c8 40be 42ab 5ebe 3ca3 60be ec5d 0b3e
00000320: d838 e73d a508 f83d a286 e1bd ad54 103d
00000330: bbf8 a4bc 61c8 75be d0c3 313e 6fa4 45be
00000340: c673 7abc 770c b23d 8f56 203e a214 d3bd
00000350: 38ab 2bbe d02e 54be 5994 2c3e ee26 28be
00000360: c94b aebd 5eef 16be 879d 13be c91d 2fbc
00000370: 5d2f 27be b610 3a3e 89ee e93c f20a 5dbb
00000380: fa03 b83a 9162 40be 02ee 73bd 2267 92be
00000390: 6b40 6abe b9a2 193e 8399 5f3d dfc4 1cbe
000003a0: fb6b 333d 17b3 1a3e 01ca a53d df54 313e
000003b0: bf26 923e 5d2a 20bd f84d a33e 1907 8d3d
000003c0: a2c3 cc3d 8cf7 2b3d 374a b13d 32c8 323e
000003d0: c38f 283d be7a 593e 3b0e 783d 420c 38be
000003e0: 4a63 82be f56a 06bd fb0f 4e3e 8adc 83bd
000003f0: 5d20 6ebd 8446 773e be0d 84be 2a5b 2abe

cell.w_ih f4 [256, 10]
0.084989585 -0.19678031 0.17735977 0.27095494 0.18718274 0.19677512 -0.10590238 -0.12983944
-0.06580523 -0.04100836 0.1273691 -0.20389289 0.24261533 0.20332563 0.21725747 0.13729416
0.19783506 0.07783379 -0.066909194 0.20969665 -0.24720463 0.20580864 -0.22082287 -0.09483932
-0.09787514 0.11912243 -0.13817412 -0.09503185 -0.1094974 -0.1815759 0.09865793 -0.09117612
0.39745632 0.20823818 0.2058375 -0.09736852 0.18804012 -0.13917921 0.09021413 0.17096648
0.19913062 -0.11485544 -0.24071695 -0.1365336 0.045663588 0.13556606 0.14502962 0.096034996
0.23183283 0.08958671 -0.027910737 0.23990317 0.18382727 0.20742382 0.25323793 -0.14896832
0.19251342 -0.15874939 0.13357444 -0.003214829 -0.1331777 -0.09684462 0.11155269 -0.012589882
-0.06457677 -0.109658994 0.14580265 -0.031882655 0.21048412 0.0029114864 -0.045555435 -0.22192726
-0.17128937 0.19846718 -0.1245701 0.07511981 -0.237138 0.11303371 0.26828462 0.040754575
-0.27011076 -0.27383393 0.121647075 -0.081934124 0.14782898 0.07255533 -0.0493775 -0.14232932
0.030114949 0.106241725 0.18716206 0.14663813 0.12434765 -0.093034394 0.20890637 0.13506395
-0.02100194 -0.1561335 0.11798066 0.023314737 0.20223941 0.06168358 0.1819305 0.05680245
-0.006504965 0.074521296 -0.057340447 0.07097016 0.0058779586 0.18186267 -0.025444003 -0.07645629
0.0012574065 0.22708867 -0.0065725255 0.14796656 0.12778848 -0.087690175 0.0062827864 -0.17475024
0.36012816 0.08580793 0.2849419 0.2183833 0.3248325 -0.14561024 -0.14541698 0.004718297
0.29699588 0.049538065 0.16271324 -0.2432186 0.048017655 0.10354834 0.16209346 -0.2301582
0.19557129 0.0992018 -0.06911259 0.16486788 0.08091508 -0.19327505 0.102905884 0.034055226
0.12802394 0.16657059 -0.19075094 -0.082676664 -0.1769087 0.00092166266 0.2033883 -0.21853623
0.13762471 0.06835895 0.06639812 -0.02084028 0.20036598 0.11937069 -0.07851812 0.18971421
0.22456446 0.07957484 -0.13265795 -0.12278757 0.1029259 -0.2528495 0.18029998 -0.053217333
-0.009031544 0.19104593 -0.00919633 -0.19220416 0.085947506 0.22730592 0.022683388 -0.01965399
0.051380254 0.14711015 -0.02286551 0.1313375 0.08652478 0.0060868803 0.12574966 0.009794498
0.1544023 -0.013432959 -0.15216587 0.16262285 -0.049254593 -0.21186773 -0.106336735 -0.07018377
-0.1856443 -0.19612029 0.088032626 -0.022366257 0.0787084 -0.02498089 0.012959298 -0.20689318
0.29869804 0.075968415 0.31425405 0.36150923 0.27487314 0.1032171 -0.20960851 -0.010051094
-0.2790397 -0.05757282 0.2115897 0.23027672 0.022502854 0.09076667 0.023561612 -0.07812152
0.0058472496 0.14419815 -0.0682138 0.056989234 -0.09172811 -0.23081042 0.1943202 -0.19841602
-0.17547776 -0.088773794 0.02736584 -0.12549666 -0.12255973 -0.24987118 0.2721009 -0.06430084
0.25765508 0.28551048 0.14095294 -0.2725633 0.10308329 -0.029026242 0.29106924 -0.1348723
0.07134179 0.1266044 0.2227726 0.25411502 0.16254756 0.074835345 -0.14685628 -0.17145833
0.15265696 0.10299399 -0.0789436 0.07555935 0.21343659 0.22827162 -0.02492095 0.18987438
00000000: 050f ae3d c780 49be cd9d 353e 9bba 8a3e
00000010: d5ac 3f3e 6b7f 493e 59e3 d8bd a1f4 04be
00000020: e4c4 86bd 62f8 27bd 0c6d 023e 4cc9 50be
00000030: 2770 783e 9834 503e be78 5e3e d796 0c3e
00000040: 4695 4a3e 5267 9f3d b007 89bd b8ba 563e
00000050: 3623 7dbe 80bf 523e 641f 62be 1e3b c2bd
00000060: c372 c8bd 76f6 f33d 847d 0dbe 0fa0 c2bd
00000070: 2c40 e0bd 08ef 39be 2b0d ca3d 8cba babd
00000080: 657f cb3e 643c 553e 11c7 523e 2669 c7bd
00000090: 978d 403e ff84 0ebe 30c2 b83d d611 2f3e
000000a0: e6e8 4b3e 5439 ebbd 817e 76be 77cf 0bbe
000000b0: be09 3b3d d4d1 0a3e a582 143e ffad c43d
000000c0: 9665 6d3e 3d79 b73d 0fa5 e4bc 2da9 753e
000000d0: 373d 3c3e e966 543e 67a8 813e 278b 18be
000000e0: 3d22 453e 338f 22be bdc7 083e e1af 52bb
000000f0: bc5f 08be 7956 c6bd bd75 e43d cb45 4ebc
00000100: d340 84bd e594 e0bd 4a4d 153e 6397 02bd
00000110: 2689 573e a3ce 3e3b 5698 3abd e640 63be
00000120: 7b66 2fbe fb3a 4b3e 9c1e ffbd 6ad8 993d
00000130: 4ed4 72be 387e e73d 9a5c 893e 45ee 263d
00000140: f54b 8abe f633 8cbe 1a22 f93d 14cd a7bd
00000150: 7b60 173e e497 943d 1040 4abd c7be 11be
00000160: a0b3 f63c 4395 d93d 69a7 3f3e 4e28 163e
00000170: fba9 fe3d d188 bebd 8deb 553e 344e 0a3e
00000180: 430c acbc 76e1 1fbe d89f f13d 8cfe be3c
00000190: d917 4f3e eca7 7c3d fd4b 3a3e b0a9 683d
000001a0: 9a27 d5bb 9f9e 983d d1dd 6abd ce58 913d
000001b0: e49b c03b 353a 3a3e f16f d0bc 1e95 9cbd
000001c0: 90cf a43a ef89 683e 575e d7bb 8c84 173e
000001d0: fcda 023e e896 b3bd d5df cd3b baf1 32be
000001e0: b862 b83e 11bc af3d e8e3 913e df9f 5f3e
000001f0: 7250 a63e da1a 15be 30e8 14be f29b 9a3b
00000200: d80f 983e 6de8 4a3d 4d9e 263e 4c0e 79be
00000210: 29ae 443d 2711 d43d d4fb 253e 97ae 6bbe
00000220: d743 483e 502a cb3d e78a 8dbd 20d3 283e
00000230: ceb6 a53d e5e9 45be 52c0 d23d 7e7d 0b3d
00000240: b518 033e 7b91 2a3e 3754 43be 6252 a9bd
00000250: 8e27 35be bc9b 713a 0645 503e f6c7 5fbe
00000260: 7eed 0c3e c7ff 8b3d bdfb 873d 3cb9 aabc
00000270: bd2c 4d3e 9f78 f43d 1cce a0bd 7144 423e
00000280: 3af4 653e 22f8 a23d 7cd7 07be 0d78 fbbd
00000290: d0ca d23d 7d75 81be 8fa0 383e 6bfa 59bd
000002a0: 0bf9 13bc 8ba1 433e 34ac 16bc 2bd1 44be
000002b0: 3f05 b03d e2c2 683e 83d2 b93c 6801 a1bc
000002c0: 1a74 523d 0ba4 163e 7350 bbbc 567d 063e
000002d0: e733 b13d 7474 c73b 85c4 003e 1a79 203c
000002e0: a31b 1e3e ea15 5cbc 5fd1 1bbe 9b86 263e
000002f0: 2fbf 49bd dbf3 58be 13c7 d9bd 82bc 8fbd
00000300: 8a19 3ebe c2d3 48be 734a b43d 7139 b7bc
00000310: df31 a13d b9a4 ccbc 3c53 543c cedb 53be
00000320: f3ee 983e 5495 9b3d e8e5 a03e bd17 b93e
00000330: 2cbc 8c3e 7d63 d33d 9da3 56be 58ad 24bc
00000340: 4bde 8ebe 7ad1 6bbd f8aa 583e a9cd 6b3e
00000350: e857 b83c e0e3 b93d 4804 c13c 2dfe 9fbd
00000360: 499a bf3b aea8 133e adb3 8bbd 8b6d 693d
00000370: f3db bbbd 9159 6cbe e0fb 463e 922d 4bbe
00000380: 71b0 33be 09cf b5bd 532e e03c 3282 00be
00000390: 9900 fbbd 3bde 7fbe cf50 8b3e 29b0 83bd
000003a0: 5eeb 833e 6e2e 923e f855 103e 6b8d 8bbe
000003b0: 551d d33d 71c8 edbc 0707 953e f71b 0abe
000003c0: a51b 923d 95a4 013e 801e 643e 5d1b 823e
000003d0: de72 263e 4643 993d 7e61 16be c692 2fbe
000003e0: 1b52 1c3e 83ee d23d 2fad a1bd dcbe 9a3d
000003f0: 1f8f 5a3e 09c0 693e 0527 ccbc 6e6e 423e

cell.b_hh f4 [256]
-0.076840915 -0.04541051 -0.0057827807 -0.034498088 -0.012394861 -0.10455655 0.0059451116 -0.092675045
-0.038769204 -0.019835694 -0.041275863 -0.022629661 -0.079133436 0.02381595 -0.1248021 -0.16077417
-0.04060755 0.049248252 -0.03739347 -0.066668436 -0.109191015 -0.05315866 -0.091712266 -0.0673698
0.08259423 -0.04528223 -0.062142782 -0.015214769 -0.063163206 0.012878216 -0.042449895 -0.045459025
-0.07614985 -0.0043815416 -0.023695705 -0.06654804 -0.081086114 -0.04979201 -0.019088458 -0.056727607
-0.06546402 -0.12374704 -0.007706336 -0.083558366 0.03518141 -0.028166795 -0.100417994 -0.006482164
-0.11612311 -0.042189147 -0.048857044 -0.05580618 0.04256477 -0.0377781 -0.033796612 0.009619947
-0.017297165 -0.041284412 -0.050364744 -0.01947284 0.006212477 -0.004464899 -0.108382225 0.048570152
2.8921351 2.771386 2.9721935 2.7413461 2.8513608 2.8779066 2.97002 2.9000375
3.0083632 2.8875775 2.9861743 2.9677932 2.7640905 2.8982427 2.919799 2.9047666
2.7630262 2.9051797 2.9242284 2.9614816 2.827625 2.9585948 2.9375982 2.939797
2.8699327 2.9107385 2.804777 2.8514183 2.8456984 2.8211393 3.004039 2.882331
2.9716315 2.8669643 2.9739385 2.9291363 2.8227136 2.8998363 3.0233307 3.0109067
2.821385 2.8509412 2.988834 2.8372846 2.7337697 3.009131 2.7946007 2.952678
2.9788818 3.0184572 2.9296072 2.8998268 2.9045749 2.9720402 2.9932806 2.7354152
2.8676188 2.931804 2.8870835 2.941184 2.9341164 2.9579473 2.94784 2.9584765
0.013545364 0.017762043 -0.0027065617 0.03467283 0.0072720842 0.02827224 -0.0053622816 0.019412668
0.014692801 -0.016966645 -0.025750315 0.013672643 0.0038897097 0.020760223 0.026049826 -0.02047659
0.0041157985 -0.011924879 -0.014557996 -0.014121476 0.015621345 -0.033230867 0.006747197 0.04717522
-0.057036698 -0.035024524 0.022954881 0.0525815 0.0035076633 0.016881907 0.036846366 0.018631577
0.020531423 0.051555745 -0.03912026 -0.027443806 -0.0042951796 0.018440073 -0.0029614756 0.025035845
0.019235846 -0.00019046589 0.079403974 -0.0053090733 0.02284444 0.04892643 -0.0034312848 -0.06787208
0.025617626 0.00784165 -0.055451494 -0.02612764 -0.081837304 -0.008813764 0.007567667 -0.0010893923
-0.030731892 0.013697905 -0.014135333 -0.030263705 -0.047136586 0.0043886555 -0.010605525 -0.004053425
-0.13611282 -0.1312999 -0.031989984 -0.058176797 -0.08125337 -0.05768907 -0.09358559 -0.052836757
-0.068265505 -0.04461339 0.013643105 -0.08282194 -0.021124864 -0.075174086 -0.095188074 -0.110429876
-0.054353397 0.013408087 -0.049694017 -0.10613595 -0.068417855 -0.06538777 -0.023142641 -0.048225634
-0.030996105 -0.00382133 0.008215442 -0.075636044 -0.0405939 -0.1206465 -0.18354765 -0.05905779
-0.027531449 -0.017798634 -0.023730082 -0.06438391 -0.058076847 -0.040630218 0.014725361 -0.030673914
-0.033472706 -0.05750848 0.01590957 -0.06687908 0.008479755 -0.011475605 0.012002635 -0.025130056
-0.14672485 -0.050526746 -0.02983358 0.013116317 0.0029343562 0.021669809 -0.09768732 -0.06300196
-0.0611498 -0.0017459816 -0.083215766 0.0026157238 0.0071404246 -0.040790122 -0.09626232 0.03127962
00000000: c55e 9dbd 5f00 3abd 7b7d bdbb de4d 0dbd
00000010: d113 4bbc bf21 d6bd 36cf c23b 6acc bdbd
00000020: 75cc 1ebd 777e a2bc e110 29bd d761 b9bc
00000030: b610 a2bd ab19 c33c 3e98 ffbd fca1 24be
00000040: 1a54 26bd 89b8 493d e529 19bd 7689 88bd
00000050: 8a9f dfbd e5bc 59bd a4d3 bbbd 2df9 89bd
00000060: 2a27 a93d dc79 39bd 6e89 7ebd 5e47 79bc
00000070: b65b 81bd 27ff 523c f1df 2dbd 3e33 3abd
00000080: 74f4 9bbd 0993 8fbb 7f1d c2bc 574a 88bd
00000090: 7a10 a6bd b5f2 4bbd 665f 9cbc 355b 68bd
000000a0: 0012 86bd 176f fdbd 6f85 fcbb a620 abbd
000000b0: 621a 103d 0dbe e6bc f3a7 cdbd 5568 d4bb
000000c0: f4d1 edbd 87ce 2cbd 531e 48bd 0595 64bd
000000d0: 6558 2e3d 36bd 1abd 516e 0abd fb9c 1d3c
000000e0: c9b2 8dbc d819 29bd 434b 4ebd 8185 9fbc
000000f0: 0992 cb3b 4a4e 92bb 80f7 ddbd 7ff1 463d
00000100: be18 3940 635e 3140 6b38 3e40 3772 2f40
00000110: b27c 3640 9f2f 3840 cf14 3e40 379a 3940
00000120: 0689 4040 12ce 3840 7b1d 3f40 53f0 3d40
00000130: dce6 3040 cf7c 3940 fddd 3a40 b2e7 3940
00000140: 6cd5 3040 77ee 3940 8f26 3b40 ea88 3d40
00000150: cff7 3440 9e59 3d40 9c01 3c40 a225 3c40
00000160: faac 3740 8a49 3a40 7781 3340 a37d 3640
00000170: ec1f 3640 8c8d 3440 2d42 4040 1c78 3840
00000180: 362f 3e40 587c 3740 0255 3e40 f876 3b40
00000190: 57a7 3440 eb96 3940 407e 4140 b2b2 4040
000001a0: 9291 3440 d275 3640 0e49 3f40 1296 3540
000001b0: 15f6 2e40 9a95 4040 bdda 3240 adf8 3c40
000001c0: 00a6 3e40 672e 4140 af7e 3b40 c396 3940
000001d0: 8ee4 3940 e835 3e40 e991 3f40 0b11 2f40
000001e0: 1187 3740 ada2 3b40 fac5 3840 5c3c 3c40
000001f0: 90c8 3b40 024f 3d40 69a9 3c40 ae57 3d40
00000200: 60ed 5d3c b481 913c 9260 31bb 1905 0e3d
00000210: aa4a ee3b 2f9b e73c 14b6 afbb 5107 9f3c
00000220: 13ba 703c a2fd 8abc 53f2 d2bc 3903 603c
00000230: 80ea 7e3b 5811 aa3c 7266 d53c 86be a7bc
00000240: d2dd 863b 9160 43bc a984 6ebc c35d 67bc
00000250: abf0 7f3c 171d 08bd 9717 dd3b ce3a 413d
00000260: 509f 69bd e075 0fbd e00b bc3c b35f 573d
00000270: d3e0 653b ed4b 8a3c 37ec 163d 40a1 983c
00000280: 8431 a83c 1e2c 533d 913c 20bd d5d1 e0bc
00000290: 94be 8cbb a30f 973c 5115 42bb f917 cd3c
000002a0: 7e94 9d3c ccb7 47b9 8d9e a23d bcf7 adbb
000002b0: 4324 bb3c 1567 483d 68df 60bb 8400 8bbd
000002c0: 0edc d13c 447a 003c 1b21 63bd a209 d6bc
000002d0: 519a a7bd 9b67 10bc 31fa f73b f1c9 8eba
000002e0: 73c1 fbbc 2d6d 603c e297 67bc 97eb f7bc
000002f0: 4b12 41bd b6ce 8f3b ccc2 2dbc 98d2 84bb
00000300: 2961 0bbe 7b73 06be ee07 03bd cb4a 6ebd
00000310: 2b68 a6bd 604b 6cbd cda9 bfbd 5b6b 58bd
00000320: c9ce 8bbd 88bc 36bd 5487 5f3c 8d9e a9bd
00000330: 0d0e adbc dff4 99bd f7f1 c2bd 0f29 e2bd
00000340: aba1 5ebd 98ad 5b3c f48b 4bbd ce5d d9bd
00000350: a91e 8cbd 06ea 85bd a395 bdbc 3e88 45bd
00000360: 8beb fdbc 476f 7abb 109a 063c 12e7 9abd
00000370: ca45 26bd 8315 f7bd eaf3 3bbe 95e6 71bd
00000380: a289 e1bc 71ce 91bc 9765 c2bc b6db 83bd
00000390: fde1 6dbd df6b 26bd a442 713c dc47 fbbc
000003a0: ad1a 09bd 038e 6bbd c954 823c e6f7 88bd
000003b0: acee 0a3c 2d04 3cbc b3a6 443c 8cdd cdbc
000003c0: 0a3f 16be 22f5 4ebd 8d65 f4bc d2e5 563c
000003d0: 544e 403b e284 b13c 4a10 c8bd 2c07 81bd
000003e0: 3678 7abd 6cd9 e4ba 076d aabd 906c 2b3b
000003f0: 39fa e93b 8b13 27bd 2e25 c5bd 0f1f 003d

cell.b_ih f4 [256]
-0.076840915 -0.04541051 -0.0057827807 -0.034498088 -0.012394861 -0.10455655 0.0059451116 -0.092675045
-0.038769204 -0.019835694 -0.041275863 -0.022629661 -0.079133436 0.02381595 -0.1248021 -0.16077417
-0.04060755 0.049248252 -0.03739347 -0.066668436 -0.109191015 -0.05315866 -0.091712266 -0.0673698
0.08259423 -0.04528223 -0.062142782 -0.015214769 -0.063163206 0.012878216 -0.042449895 -0.045459025
-0.07614985 -0.0043815416 -0.023695705 -0.06654804 -0.081086114 -0.04979201 -0.019088458 -0.056727607
-0.06546402 -0.12374704 -0.007706336 -0.083558366 0.03518141 -0.028166795 -0.100417994 -0.006482164
-0.11612311 -0.042189147 -0.048857044 -0.05580618 0.04256477 -0.0377781 -0.033796612 0.009619947
-0.017297165 -0.041284412 -0.050364744 -0.01947284 0.006212477 -0.004464899 -0.108382225 0.048570152
-0.10786582 -0.22861192 -0.027805638 -0.25865403 -0.14863774 -0.12209638 -0.029977942 -0.0999643
0.008362336 -0.11242102 -0.013824357 -0.03220581 -0.2359064 -0.10175778 -0.0801987 -0.095232755
-0.23697248 -0.09481939 -0.07577289 -0.038518284 -0.17237718 -0.041405436 -0.062398884 -0.060202636
-0.13006493 -0.0892613 -0.19522396 -0.1485839 -0.15430464 -0.17886622 0.004035248 -0.117671035
-0.028368084 -0.13303508 -0.026059745 -0.070862435 -0.17728758 -0.10016229 0.02333114 0.010906713
-0.17860983 -0.14905746 -0.011168588 -0.16271204 -0.26623124 0.009127677 -0.20539941 -0.047323737
-0.02111938 0.018456602 -0.0703952 -0.10017688 -0.09542725 -0.027961537 -0.0067186384 -0.26458395
-0.1323852 -0.068192564 -0.11291608 -0.058816284 -0.06588128 -0.042053286 -0.05215847 -0.04152521
0.013545364 0.017762043 -0.0027065617 0.03467283 0.0072720842 0.02827224 -0.0053622816 0.019412668
0.014692801 -0.016966645 -0.025750315 0.013672643 0.0038897097 0.020760223 0.026049826 -0.02047659
0.0041157985 -0.011924879 -0.014557996 -0.014121476 0.015621345 -0.033230867 0.006747197 0.04717522
-0.057036698 -0.035024524 0.022954881 0.0525815 0.0035076633 0.016881907 0.036846366 0.018631577
0.020531423 0.051555745 -0.03912026 -0.027443806 -0.0042951796 0.018440073 -0.0029614756 0.025035845
0.019235846 -0.00019046589 0.079403974 -0.0053090733 0.02284444 0.04892643 -0.0034312848 -0.06787208
0.025617626 0.00784165 -0.055451494 -0.02612764 -0.081837304 -0.008813764 0.007567667 -0.0010893923
-0.030731892 0.013697905 -0.014135333 -0.030263705 -0.047136586 0.0043886555 -0.010605525 -0.004053425
-0.13611282 -0.1312999 -0.031989984 -0.058176797 -0.08125337 -0.05768907 -0.09358559 -0.052836757
-0.068265505 -0.04461339 0.013643105 -0.08282194 -0.021124864 -0.075174086 -0.095188074 -0.110429876
-0.054353397 0.013408087 -0.049694017 -0.10613595 -0.068417855 -0.06538777 -0.023142641 -0.048225634
-0.030996105 -0.00382133 0.008215442 -0.075636044 -0.0405939 -0.1206465 -0.18354765 -0.05905779
-0.027531449 -0.017798634 -0.023730082 -0.06438391 -0.058076847 -0.040630218 0.014725361 -0.030673914
-0.033472706 -0.05750848 0.01590957 -0.06687908 0.008479755 -0.011475605 0.012002635 -0.025130056
-0.14672485 -0.050526746 -0.02983358 0.013116317 0.0029343562 0.021669809 -0.09768732 -0.06300196
-0.0611498 -0.0017459816 -0.083215766 0.0026157238 0.0071404246 -0.040790122 -0.09626232 0.03127962
00000000: c55e 9dbd 5f00 3abd 7b7d bdbb de4d 0dbd
00000010: d113 4bbc bf21 d6bd 36cf c23b 6acc bdbd
00000020: 75cc 1ebd 777e a2bc e110 29bd d761 b9bc
00000030: b610 a2bd ab19 c33c 3e98 ffbd fca1 24be
00000040: 1a54 26bd 89b8 493d e529 19bd 7689 88bd
00000050: 8a9f dfbd e5bc 59bd a4d3 bbbd 2df9 89bd
00000060: 2a27 a93d dc79 39bd 6e89 7ebd 5e47 79bc
00000070: b65b 81bd 27ff 523c f1df 2dbd 3e33 3abd
00000080: 74f4 9bbd 0993 8fbb 7f1d c2bc 574a 88bd
00000090: 7a10 a6bd b5f2 4bbd 665f 9cbc 355b 68bd
000000a0: 0012 86bd 176f fdbd 6f85 fcbb a620 abbd
000000b0: 621a 103d 0dbe e6bc f3a7 cdbd 5568 d4bb
000000c0: f4d1 edbd 87ce 2cbd 531e 48bd 0595 64bd
000000d0: 6558 2e3d 36bd 1abd 516e 0abd fb9c 1d3c
000000e0: c9b2 8dbc d819 29bd 434b 4ebd 8185 9fbc
000000f0: 0992 cb3b 4a4e 92bb 80f7 ddbd 7ff1 463d
00000100: c1e8 dcbd 3e19 6abe a6c8 e3bc 4d6e 84be
00000110: 7e34 18be ab0d fabd 4d94 f5bc 15ba ccbd
00000120: 2e02 093c fe3c e6bd 8e7f 62bc 3dea 03bd
00000130: 7391 71be 6266 d0bd 373f a4bd 6409 c3bd
00000140: eaa8 72be ab30 c2bd d12e 9bbd 59c5 1dbd
00000150: a583 30be bf98 29bd f995 7fbd 0a97 76bd
00000160: be2f 05be a1ce b6bd cae8 47be 6126 18be
00000170: 0902 1ebe b528 37be 1d3a 843b 83fd f0bd
00000180: 2f64 e8bc 593a 08be 3f7b d5bc 5320 91bd
00000190: e08a 35be e321 cdbd f220 bf3c 12b2 323c
000001a0: 7fe5 36be 85a2 18be 74fc 36bc fc9d 26be
000001b0: 764f 88be 418c 153c 3954 52be 89d6 41bd
000001c0: 8d02 adbc 4d32 973c 5c2b 90bd 8929 cdbd
000001d0: 5d6f c3bd 980f e5bc 0628 dcbb 8c77 87be
000001e0: fc8f 07be 8ba8 8bbd 8c40 e7bd 58e9 70bd
000001f0: c4ec 86bd 1140 2cbd 1fa4 55bd 5716 2abd
00000200: 60ed 5d3c b481 913c 9260 31bb 1905 0e3d
00000210: aa4a ee3b 2f9b e73c 14b6 afbb 5107 9f3c
00000220: 13ba 703c a2fd 8abc 53f2 d2bc 3903 603c
00000230: 80ea 7e3b 5811 aa3c 7266 d53c 86be a7bc
00000240: d2dd 863b 9160 43bc a984 6ebc c35d 67bc
00000250: abf0 7f3c 171d 08bd 9717 dd3b ce3a 413d
00000260: 509f 69bd e075 0fbd e00b bc3c b35f 573d
00000270: d3e0 653b ed4b 8a3c 37ec 163d 40a1 983c
00000280: 8431 a83c 1e2c 533d 913c 20bd d5d1 e0bc
00000290: 94be 8cbb a30f 973c 5115 42bb f917 cd3c
000002a0: 7e94 9d3c ccb7 47b9 8d9e a23d bcf7 adbb
000002b0: 4324 bb3c 1567 483d 68df 60bb 8400 8bbd
000002c0: 0edc d13c 447a 003c 1b21 63bd a209 d6bc
000002d0: 519a a7bd 9b67 10bc 31fa f73b f1c9 8eba
000002e0: 73c1 fbbc 2d6d 603c e297 67bc 97eb f7bc
000002f0: 4b12 41bd b6ce 8f3b ccc2 2dbc 98d2 84bb
00000300: 2961 0bbe 7b73 06be ee07 03bd cb4a 6ebd
00000310: 2b68 a6bd 604b 6cbd cda9 bfbd 5b6b 58bd
00000320: c9ce 8bbd 88bc 36bd 5487 5f3c 8d9e a9bd
00000330: 0d0e adbc dff4 99bd f7f1 c2bd 0f29 e2bd
00000340: aba1 5ebd 98ad 5b3c f48b 4bbd ce5d d9bd
00000350: a91e 8cbd 06ea 85bd a395 bdbc 3e88 45bd
00000360: 8beb fdbc 476f 7abb 109a 063c 12e7 9abd
00000370: ca45 26bd 8315 f7bd eaf3 3bbe 95e6 71bd
00000380: a289 e1bc 71ce 91bc 9765 c2bc b6db 83bd
00000390: fde1 6dbd df6b 26bd a442 713c dc47 fbbc
000003a0: ad1a 09bd 038e 6bbd c954 823c e6f7 88bd
000003b0: acee 0a3c 2d04 3cbc b3a6 443c 8cdd cdbc
000003c0: 0a3f 16be 22f5 4ebd 8d65 f4bc d2e5 563c
000003d0: 544e 403b e284 b13c 4a10 c8bd 2c07 81bd
000003e0: 3678 7abd 6cd9 e4ba 076d aabd 906c 2b3b
000003f0: 39fa e93b 8b13 27bd 2e25 c5bd 0f1f 003d

head.net.0.weight f4 [1, 64]
0.22423238 0.20454447 0.01874158 0.25568476 0.14222337 0.003517827 -0.08513135 0.060084637
0.01568322 0.03083829 0.004052226 0.030894436 -0.3786229 -0.07661685 -0.013628332 -0.23219402
-0.2591758 -0.10326287 -0.0057621463 -0.09309679 -0.24879362 -0.06924278 0.014130398 -0.02431295
-0.13261078 -0.0060488763 -0.27987367 0.14085259 -0.11028275 0.21869187 0.09700978 0.10960869
-0.029077567 -0.089962125 -0.046991166 -0.08362849 -0.07653045 0.07818284 -0.034790527 -0.043380458
0.2659136 0.21731333 0.011176491 0.20122436 0.31175002 -0.009147947 0.28135097 -0.035277992
0.1042338 0.04714893 -0.036021966 -0.0060032285 -0.10321975 0.0009975636 -0.017721865 -0.30512306
-0.089927845 0.066992 0.113064334 0.0077837333 0.025257664 0.031923264 -0.02795388 0.017461892
00000000: 2c9d 653e 1b74 513e f187 993c 1de9 823e
00000010: 01a3 113e 588b 663b 5859 aebd 4f1b 763d
00000020: 197a 803c 95a0 fc3c 89c8 843b 5416 fd3c
00000030: dcda c1be 4ce9 9cbd 5e49 5fbc 45c4 6dbe
00000040: b1b2 84be 7c7b d3bd 63d0 bcbb 88a9 bebd
00000050: c1c3 7ebe 29cf 8dbd 2f83 673c f42b c7bc
00000060: 1fcb 07be a735 c6bb 9a4b 8fbe a93b 103e
00000070: ecdb e1bd c3f0 5f3e 10ad c63d 857a e03d
00000080: 1434 eebc 103e b8bd cf79 40bd 6a45 abbd
00000090: ffbb 9cbd 531e a03d 8380 0ebd b5af 31bd
000000a0: d425 883e 6387 5e3e 9a1d 373c c20d 4e3e
000000b0: b39d 9f3e 45e1 15bc 3c0d 903e a87f 10bd
000000c0: 8878 d53d 3d1f 413d c58b 13bd bbb6 c4bb
000000d0: e064 d3bd aec0 823a 722d 91bc 1739 9cbe
000000e0: 172c b8bd 1a33 893d 468e e73d b00e ff3b
000000f0: 29e9 ce3c f8c1 023d 89ff e4bc 3e0c 8f3c
