runs/lstm_camels_us_0312_020042/model_epoch005.pt (torch, 80974 bytes, 5 tensors)

cell.w_hh f4 [256, 64]
0.1696031 0.15232451 0.145127 -0.030658182 0.14862448 0.12052709 0.052785575 -0.14225158
-0.1008612 -0.08475878 0.13713484 -0.116316274 -0.2673444 -0.24363591 0.115773216 0.0063880803
-0.19888423 -0.2505697 0.09652695 -0.15623018 -0.078381985 -0.08978262 -0.12312284 0.14044462
-0.2554287 0.06913209 -0.0067675267 -0.074557 -0.22758153 -0.01753951 0.20753022 0.2127978
0.1800077 -0.059997227 -0.24130085 -0.28027678 -0.24078362 0.011655363 -0.025429908 0.033671733
-0.031266794 0.16322443 -0.18683438 0.29641184 0.33391052 -0.11294021 -0.0145053305 0.21850464
-0.04512163 0.083742075 0.0022816816 -0.114845335 -0.063603334 0.2343601 -0.08005964 -0.27482048
-0.05434108 0.15868595 0.023528537 -0.013066518 0.21076247 -0.11178693 0.16931318 -0.076594934
-0.11385753 -0.059084315 0.055192545 0.27222216 0.39657244 -0.11953619 -0.15452477 0.012929079
-0.13836983 0.027121663 0.122987986 0.23405838 0.08088317 -0.100214 -0.07368721 -0.15580554
-0.27710596 -0.15870607 0.02676387 -0.26326507 -0.020748306 0.18491119 -0.1490997 -0.06920801
-0.2840709 -0.15814236 -0.05175166 -0.119503535 -0.056716252 0.13279945 0.18356737 0.34365737
0.118312486 0.051205046 0.10869647 0.032202724 -0.12148518 -0.17243332 0.047559444 0.044146094
0.02387171 0.15790047 -0.12633583 -0.07662661 0.3199428 -0.14300428 0.18553041 -0.19751446
0.26040003 0.099587284 0.13424022 -0.06771006 -0.25140986 -0.06288024 -0.12354923 -0.20386331
0.02824469 -0.0072465674 0.016231949 0.058108255 0.041832417 -0.068965904 -0.19520794 0.03945068
-0.07956843 0.18684858 -0.0122956205 0.1619654 0.15916084 0.113397546 -0.07676432 -0.14824909
-0.23512353 0.008725916 0.12140515 -0.14540885 0.13502227 0.10168766 0.13332252 -0.16516416
0.117603876 -0.21428525 -0.08022514 -0.23115803 -0.07518774 0.08642191 -0.045087963 0.010187864
0.044603202 -0.02629883 0.08121669 -0.0211164 -0.110502474 0.16753447 -0.042053767 -0.09954107
-0.15904738 -0.11403475 -0.013063501 0.208976 0.0915196 0.14513065 0.08712525 0.036272727
-0.026199091 0.074618354 0.13146362 0.021538083 0.06348102 -0.15380268 -0.020469692 0.00054130756
0.11799642 -0.116492845 0.14915584 -0.052685358 0.0949136 0.0291012 -0.13279903 -0.13886492
0.12634154 -0.15410772 0.14022622 0.10945328 0.17660306 0.06081964 -0.12851767 -0.033463933
0.02204614 0.15469158 -0.08946694 0.096652836 -0.19036041 -0.23036072 -0.21740997 0.112728275
0.115230545 0.1112804 -0.09897867 0.058371153 -0.026458036 -0.25929794 0.16759035 -0.19285636
-0.023655051 0.09329581 0.16252644 -0.097595006 -0.16706559 -0.19953312 0.1754142 -0.14233838
-0.09548592 -0.13522984 -0.14497663 -0.024367327 -0.15322645 0.17064922 0.029554168 -0.010376756
0.010362878 -0.20408201 -0.07538288 -0.29500118 -0.22587909 0.13496193 0.05237095 -0.15140295
0.04559539 0.1668623 0.053573057 0.16524637 0.29421026 -0.0316943 0.3536918 0.10038223
0.11559773 0.04741838 0.09476392 0.18853872 0.035413675 0.22711408 0.055022348 -0.20834382
-0.27019554 -0.051405333 0.19438961 -0.08291395 -0.039965875 0.2232186 -0.25981227 -0.19451252
00000000: 6fac 2d3e f5fa 1b3e 2c9c 143e de26 fbbc
00000010: 0431 183e e8d6 f63d b035 583d 66aa 11be
00000020: 5190 cebd 0396 adbd 136d 0c3e 3a37 eebd
00000030: 5de1 88be b17b 79be 821a ed3d 1a53 d13b
00000040: 4fa8 4bbe ac4a 80be ecaf c53d cefa 1fbe
00000050: bc86 a0bd f3df b7bd d427 fcbd b7d0 0f3e
00000060: 8dc7 82be 2095 8d3d 21c2 ddbb 57b1 98bd
00000070: 220b 69be 05af 8fbc cd82 543e abe7 593e
00000080: f053 383e a7bf 75bd 9217 77be 7080 8fbe
00000090: fb8f 76be 23f6 3e3c 6252 d0bc 5feb 093d
000000a0: 9c11 00bd 4e24 273e 8351 3fbe 4bc3 973e
000000b0: 52f6 aa3e 324d e7bd c4a7 6dbc aebf 5f3e
000000c0: 75d1 38bd f780 ab3d 4488 153b 0834 ebbd
000000d0: 7742 82bd 18fc 6f3e 4ff6 a3bd 45b5 8cbe
000000e0: c194 5ebd 927e 223e ebbe c03c f314 56bc
000000f0: 1ed2 573e 8cf0 e4bd 6f60 2d3e cedd 9cbd
00000100: 232e e9bd 6502 72bd 9411 623d b460 8b3e
00000110: 8b0b cb3e 64cf f4bd be3b 1ebe 7dd4 533c
00000120: d2b0 0dbe 402e de3c 20e1 fb3d 00ad 6f3e
00000130: 13a6 a53d ff3c cdbd 52e9 96bd 7d8b 1fbe
00000140: d5e0 8dbe d883 22be e73f db3c aeca 86be
00000150: 5af8 a9bc 5c59 3d3e 97ad 18be eebc 8dbd
00000160: be71 91be 12f0 21be 8cf9 53bd 45be f4bd
00000170: 4d4f 68bd 94fc 073e 16f9 3b3e dcf3 af3e
00000180: d14d f23d 62bc 513d 419c de3d 01e7 033d
00000190: 39cd f8bd 5c92 30be b1cd 423d 89d2 343d
000001a0: 9b8e c33c a9b0 213e 2e5e 01be 69ee 9cbd
000001b0: 8bcf a33e b76f 12be affb 3d3e 3b41 4abe
000001c0: 2753 853e 6bf4 cb3d 4576 093e 92ab 8abd
000001d0: cbb8 80be 5bc7 80bd 6107 fdbd 8bc1 50be
000001e0: 6861 e73c 9d74 edbb ddf8 843c ec02 6e3d
000001f0: 7858 2b3d ff3d 8dbd 97e4 47be 0997 213d
00000200: c6f4 a2bd 3c55 3f3e 9273 49bc 42da 253e
00000210: 0ffb 223e f93c e83d 9d36 9dbd 9cce 17be
00000220: 39c4 70be 25f7 0e3c 43a3 f83d 0fe6 14be
00000230: 4743 0a3e 9f41 d03d b385 083e cb20 29be
00000240: 4dda f03d 986d 5bbe 144d a4bd b1b4 6cbe
00000250: 08fc 99bd f8fd b03d 28ae 38bd 00eb 263c
00000260: d9b1 363d a570 d7bc f054 a63d 4dfc acbc
00000270: 1f4f e2bd 288e 2b3e 9240 2cbd 30dc cbbd
00000280: 51dd 22be 0d8b e9bd 4b08 56bc cefd 553e
00000290: a16e bb3d 219d 143e b96e b23d b692 143d
000002a0: 7a9f d6bc 82d1 983d 669e 063e a270 b03c
000002b0: 5602 823d 737e 1dbe 0eb0 a7bc 89e6 0d3a
000002c0: 1ba8 f13d cd93 eebd 4fbc 183e 9acc 57bd
000002d0: 1062 c23d a465 ee3c 78fc 07be 9b32 0ebe
000002e0: ad5f 013e 6ace 1dbe 7697 0f3e 0b29 e03d
000002f0: 6fd7 343e 041e 793d 239a 03be 7a11 09bd
00000300: 1b9a b43c 7867 1e3e 713a b7bd ecf1 c53d
00000310: d7ed 42be aee3 6bbe b8a0 5ebe 15de e63d
00000320: fefd eb3d fae6 e33d 54b5 cabd 9716 6f3d
00000330: 86be d8bc b3c2 84be ce9c 2b3e 237c 45be
00000340: 3dc8 c1bc e011 bf3d 556d 263e e4df c7bd
00000350: 3e13 2bbe 6952 4cbe c89f 333e 27c1 11be
00000360: 1f8e c3bd b179 0abe c174 14be fd9d c7bc
00000370: 65e7 1cbe abbe 2e3e 951b f23c 4503 2abc
00000380: 10c9 293c e0fa 50be 5762 9abd 650a 97be
00000390: d94c 67be 7633 0a3e ec82 563d 6009 1bbe
000003a0: 3bc2 3a3d f3dd 2a3e 6c6f 5b3d 5836 293e
000003b0: baa2 963e e2d1 01bd 1717 b53e 3395 cd3d
000003c0: 81be ec3d c639 423d 9613 c23d 4b10 413e
000003d0: ee0d 113d 9890 683e 1d5f 613d 1558 55be
000003e0: 1257 8abe 668e 52bd 120e 473e cace a9bd
000003f0: 42b3 23bd 6b93 643e 1d06 85be 4a2e 47be

cell.w_ih f4 [256, 10]
0.08540075 -0.17816193 0.20152028 0.29511553 0.20223235 0.1916831 -0.088369235 -0.11828446
-0.07007231 -0.033120085 0.1322582 -0.17605385 0.2845248 0.24523519 0.24877998 0.11546453
0.19147007 0.08735144 -0.026294826 0.20548056 -0.23636387 0.20220956 -0.22547205 -0.09948852
-0.10508673 0.11090943 -0.13805836 -0.08160394 -0.10620975 -0.18841648 0.09956446 -0.057890072
0.4478612 0.25864306 0.24610393 -0.10226212 0.20837758 -0.12886743 0.08999539 0.20284201
0.19641268 -0.1271604 -0.24776982 -0.14358647 0.03964119 0.116443075 0.14285341 0.102618665
0.23625313 0.098188765 -0.02316919 0.27388865 0.20079699 0.22439355 0.26478964 -0.1355775
0.17172714 -0.17202543 0.12981762 -0.008629828 -0.11196565 -0.093963474 0.11368318 -0.010459366
-0.06799178 -0.109702915 0.14898255 -0.020983377 0.23031388 0.0069081318 -0.04196954 -0.23132484
-0.16780573 0.20195082 -0.11948147 0.06986646 -0.22454399 0.12866285 0.27471763 0.03863209
-0.28075626 -0.297057 0.113423854 -0.090157345 0.14593859 0.07903528 -0.06289597 -0.14378193
0.024527809 0.10348754 0.18928519 0.14591248 0.11392278 -0.10345919 0.19942416 0.16502847
-0.015805803 -0.15805885 0.106136546 0.022639116 0.21171558 0.06504462 0.18632865 0.06120072
0.0007138001 0.05142431 -0.054077912 0.12491012 0.03377798 0.19327512 -0.03128521 -0.07455144
0.009031773 0.23486307 -0.009012946 0.13403277 0.12896198 -0.089804426 0.0053151255 -0.17834157
0.35723954 0.10858261 0.34532958 0.27877143 0.3710879 -0.15023795 -0.15080652 0.014260842
0.32630187 0.05589344 0.17283663 -0.23550382 0.066126004 0.12165666 0.17127231 -0.25703827
0.20161727 0.10977691 -0.048228946 0.16884723 0.12126668 -0.2199052 0.104306646 0.035455916
0.13106647 0.17613816 -0.21713336 -0.09191569 -0.17450945 -0.032950614 0.17729707 -0.1915181
0.122653864 0.053388067 0.034323342 -0.027833937 0.19425729 0.12238173 -0.06221064 0.17779937
0.21994297 0.073962316 -0.17124787 -0.16137749 0.051425952 -0.26903296 0.17360073 -0.03426047
0.015916796 0.19347033 -0.0053119105 -0.19530612 0.09256794 0.23392633 0.031506773 -0.027658233
0.08661834 0.16277409 -0.0331187 0.1679271 0.064288676 -0.013050363 0.13842611 0.022470932
0.1684676 -0.028689431 -0.15297024 0.18697369 -0.020047996 -0.20368102 -0.10646698 -0.061619297
-0.18533018 -0.19580618 0.0926612 -0.031485576 0.08751701 -0.021518588 0.007152573 -0.19171749
0.29924518 0.1017784 0.37356594 0.42082113 0.30945778 0.091498345 -0.2065314 -0.0034736716
-0.28309095 -0.054342017 0.24315675 0.20720333 0.02518389 0.093447655 0.02511659 -0.08403538
-0.0022398434 0.14874572 -0.049962178 0.048120875 -0.10531628 -0.253421 0.1946849 -0.19805133
-0.17189279 -0.09781106 0.034180347 -0.098416194 -0.1051874 -0.2253772 0.2850426 -0.08687271
0.2617525 0.28960788 0.15634482 -0.27016446 0.07926415 -0.048328385 0.3030523 -0.1545983
0.10988282 0.13823476 0.27172804 0.30307022 0.2044713 0.08044769 -0.1416817 -0.16811922
0.15800944 0.1101096 -0.07565751 0.06537577 0.24058126 0.25541624 -0.010698155 0.1963839
00000000: 97e6 ae3d 1570 36be 555b 4e3e 6219 973e
00000010: ff15 4f3e 9348 443e eefa b4bd 1f3f f2bd
00000020: 1282 8fbd eda8 07bd b26e 073e 7647 34be
00000030: 3cad 913e ef1e 7b3e 2ec0 7e3e ab78 ec3d
00000040: bb10 443e 50e5 b23d 3f68 d7bc 7f69 523e
00000050: 5f09 72be 0610 4f3e 25e2 66be a3c0 cbbd
00000060: b637 d7bd 7c24 e33d 2c5f 0dbe f71f a7bd
00000070: 7f84 d9bd 40f0 40be 74e8 cb3d 241e 6dbd
00000080: 104e e53e dd6c 843e ab02 7c3e cd6e d1bd
00000090: ef60 553e d3f5 03be 814f b83d d1b5 4f3e
000000a0: 6820 493e 5636 02be 5fb7 7dbe 5508 13be
000000b0: cd5e 223d b579 ee3d 2a48 123e bc29 d23d
000000c0: 57ec 713e 3117 c93d 50cd bdbc 223b 8c3e
000000d0: ba9d 4d3e 6cc7 653e 8292 873e d4d4 0abe
000000e0: 3dd9 2f3e 6f27 30be e9ee 043e 1f64 0dbc
000000f0: 3f4e e5bd ec6f c0bd bad2 e83d c35d 2bbc
00000100: 463f 8bbd ecab e0bd e28e 183e 55e5 abbc
00000110: 67d7 6b3e 9c5d e23b 41e8 2bbd 6be0 6cbe
00000120: 44d5 2bbe 32cc 4e3e b3b2 f4bd 2616 8f3d
00000130: dcee 65be 32c0 033e caa7 8c3e af3c 1e3d
00000140: 49bf 8fbe db17 98be c44a e83d 6aa4 b8bd
00000150: ed70 153e 40dd a13d 9acf 80bd 923b 13be
00000160: 8bee c83c 46f1 d33d fad3 413e 156a 153e
00000170: 5950 e93d 69e2 d3bd d935 4c3e 39fd 283e
00000180: 2c7b 81bc 2eda 21be 1e5e d93d ab75 b93c
00000190: f8cb 583e 1d36 853d f0cc 3e3e 9bad 7a3d
000001a0: 501e 3b3a 4ca2 523d cd80 5dbd e1d0 ff3d
000001b0: c75a 0a3d eae9 453e ec24 00bd 6dae 98bd
000001c0: 00fa 133c f27f 703e 09ab 13bc e33f 093e
000001d0: 9c0e 043e 62eb b7bd 812a ae3b 2c9f 36be
000001e0: 1ae8 b63e 8f60 de3d 0acf b03e 21bb 8e3e
000001f0: 3cff bd3e fad7 19be 066d 1abe 4fa6 693c
00000200: 0a11 a73e 85f0 643d 16fc 303e ea27 71be
00000210: 126d 873d 2127 f93d 0262 2f3e 859a 83be
00000220: c274 4e3e b7d2 e03d b78b 45bd 4ae6 2c3e
00000230: aa5a f83d d42e 61be b99e d53d 393a 113d
00000240: 4a36 063e 905d 343e 3558 5ebe 4b3e bcbd
00000250: 9bb2 32be 39f7 06bd 5d8d 353e 521d 44be
00000260: f331 fb3d 72ad 5a3d a296 0c3d ff03 e4bc
00000270: 62eb 463e 46a3 fa3d 96d0 7ebd 0a11 363e
00000280: bb38 613e 8e79 973d 9a5b 2fbe 2440 25be
00000290: 05a4 523d b0be 89be 64c4 313e b554 0cbd
000002a0: f163 823c 161d 463e 890f aebb 54fe 47be
000002b0: 4394 bd3d 628a 6f3e 3f0d 013d 8593 e2bc
000002c0: f564 b13d 40ae 263e 79a7 07bd 15f5 2b3e
000002d0: c8a9 833d 31d1 55bc 93bf 0d3e f614 b83c
000002e0: c582 2c3e 1906 ebbc 3ba4 1cbe 0876 3f3e
000002f0: b23b a4bc c291 50be 5c0b dabd 8464 7cbd
00000300: 32c7 3dbe 6a81 48be 28c5 bd3d 05f7 00bd
00000310: 1e3c b33d c047 b0bc 2260 ea3b 9751 44be
00000320: aa36 993e 3271 d03d 0944 bf3e de75 d73e
00000330: 4071 9e3e 7c63 bb3d f87c 53be 8aa6 63bb
00000340: 4cf1 90be bc95 5ebd 15fe 783e 1c2d 543e
00000350: 724e ce3c 7c61 bf3d 4fc1 cd3c be1a acbd
00000360: 56ca 12bb cc50 183e 24a5 4cbd 651a 453d
00000370: 10b0 d7bd 66c0 81be 7a5b 473e f8cd 4abe
00000380: aa04 30be 2a51 c8bd b100 0c3d 6e8e c9bd
00000390: 7e6c d7bd 48c9 66be 1bf1 913e 52ea b1bd
000003a0: 6c04 863e 7c47 943e db18 203e ff52 8abe
000003b0: 3e55 a23d fcf3 45bd ac29 9b3e 044f 1ebe
000003c0: 3e0a e13d 6a8d 0d3e f01f 8b3e 052c 9b3e
000003d0: ed60 513e c2c1 a43d 0215 11be 7227 2cbe
000003e0: 3acd 213e 2481 e13d 53f2 9abd bbe3 853d
000003f0: ef5a 763e ebc5 823e 5047 2fbc dc18 493e

cell.b_hh f4 [256]
-0.0872267 -0.063840866 -0.008317987 -0.045357756 -0.022658408 -0.116325766 0.021444084 -0.08404004
-0.048048645 -0.0080966335 -0.049106292 -0.0009992187 -0.09002836 0.035464883 -0.13345815 -0.16776611
-0.073011234 0.05020689 -0.048007 -0.062118284 -0.11655986 -0.054233097 -0.09831031 -0.08824795
0.087301806 -0.053383723 -0.08724613 -0.026407255 -0.061453704 0.0011778257 -0.050118934 -0.04896845
-0.08097278 0.0071466477 -0.030028898 -0.067341216 -0.068090595 -0.063856184 -0.014834999 -0.06492445
-0.1000739 -0.14753756 -0.015609249 -0.09800296 0.025947284 -0.04152606 -0.11789328 -0.012279275
-0.12220958 -0.03812761 -0.041137867 -0.054708295 0.061075043 -0.052778374 -0.030260043 -0.009334131
-0.022409493 -0.050241996 -0.053189624 -0.011160132 0.012638904 0.005124433 -0.124519974 0.055099797
2.880077 2.755699 2.9599588 2.7406924 2.8301203 2.8639174 2.9671333 2.9100235
2.9959521 2.8801522 2.9719417 2.9801073 2.7727866 2.8858304 2.9093652 2.9072037
2.738922 2.8934274 2.8998382 2.9754927 2.8274658 2.9473114 2.935829 2.927425
2.857152 2.9124708 2.788204 2.8118966 2.829741 2.8033655 2.995627 2.8719666
2.9692273 2.8583698 2.96258 2.9182062 2.8128006 2.8880458 3.0313687 3.0135036
2.7887015 2.8409832 2.9856305 2.8330626 2.7303882 3.0088036 2.7926855 2.9548607
2.97549 3.0254881 2.9273438 2.9089534 2.8868773 2.9764428 3.0065427 2.7189136
2.8432329 2.9241567 2.8801434 2.9483662 2.9369857 2.9624767 2.9424565 2.9471817
0.0067137093 0.012472748 -0.0022815992 0.030307056 -0.000736785 0.03189726 -0.001630119 0.032885406
0.017099975 -0.01967276 -0.022702364 0.011042306 -0.0091144275 0.024059199 0.03416239 -0.01773911
0.0065350295 -0.0056329737 -0.016302465 -0.01826214 0.013846741 -0.04360019 0.01721045 0.053900138
-0.04628692 -0.042959195 0.013775295 0.052019645 0.0006288465 0.0144519685 0.031528126 0.016386587
0.026879197 0.054562557 -0.046288498 -0.034578495 -0.0040216087 0.017008193 -0.0070008216 0.02151877
0.024574196 -0.0017869027 0.083718985 -0.003688225 0.024760423 0.053832673 -0.005187943 -0.071856774
0.027471738 0.000752118 -0.0606407 -0.04120431 -0.08748421 0.0020138624 0.024264764 0.002666457
-0.034603402 0.012849014 -0.016061075 -0.03510612 -0.054569613 0.0025688536 -0.009700121 -0.000856612
-0.16600926 -0.16673173 -0.02186886 -0.07607319 -0.109011166 -0.048712205 -0.11378794 -0.053900857
-0.06869022 -0.0433473 0.021678312 -0.07034058 -0.036960647 -0.083292976 -0.10050255 -0.12941979
-0.068050504 0.007997862 -0.05249643 -0.14523998 -0.0870178 -0.06994762 -0.03430009 -0.049457107
-0.04877184 0.003822248 -0.010434 -0.08667597 -0.05052306 -0.1653521 -0.21553442 -0.09084822
-0.019849654 -0.014041415 -0.030708896 -0.0673481 -0.060405288 -0.049996294 0.014769937 -0.030139118
-0.061659165 -0.07814735 0.01590692 -0.07109032 -0.011085787 -0.002809299 0.0025654896 -0.025904272
-0.17285976 -0.061998613 -0.01888534 0.020046255 -0.016689643 0.026291085 -0.0950099 -0.095320575
-0.08225726 -0.02039287 -0.095590614 0.011531237 0.018365156 -0.048140425 -0.10934772 0.034663126
00000000: e9a3 b2bd 00bf 82bd 2b48 08bc 0ec9 39bd
00000010: 209e b9bc 343c eebd 81ab af3c 2f1d acbd
00000020: a8ce 44bd bea7 04bc ae23 49bd 37f8 82ba
00000030: ca60 b8bd a043 113d 41a9 08be e1ca 2bbe
00000040: ea86 95bd bda5 4d3d fda2 44bd be6f 7ebd
00000050: f0b6 eebd 8623 5ebd ea56 c9bd 57bb b4bd
00000060: 4acb b23d e4a8 5abd 19ae b2bd 0754 d8bc
00000070: e1b6 7bbd 4661 9a3a 8349 4dbd 2493 48bd
00000080: 0fd5 a5bd 6d2e ea3b 2aff f5bc 31ea 89bd
00000090: 1573 8bbd 08c7 82bd 7f0e 73bc 1cf7 84bd
000000a0: 8bf3 ccbd 1614 17be efbd 7fbc c7b5 c8bd
000000b0: 668f d43c 3b17 2abd 0872 f1bd 032f 49bc
000000c0: 0449 fabd b22b 1cbd 2e80 28bd ce15 60bd
000000d0: d329 7a3d 232e 58bd e9e3 f7bc 2fee 18bc
000000e0: 1d94 b7bc 8dca 4dbd 5ddd 59bd fcd8 36bc
000000f0: 6813 4f3c dcea a73b 5404 ffbd 53b0 613d
00000100: 2e53 3840 5f5d 3040 f76f 3d40 8167 2f40
00000110: b120 3540 6c4a 3740 83e5 3d40 d33d 3a40
00000120: aebd 3f40 6a54 3840 4b34 3e40 14ba 3e40
00000130: 5675 3140 72b1 3840 0a33 3a40 a00f 3a40
00000140: 804a 2f40 ea2d 3940 f396 3940 796e 3e40
00000150: 33f5 3440 c0a0 3c40 9fe4 3b40 ee5a 3b40
00000160: 94db 3640 ec65 3a40 ef71 3240 1df6 3340
00000170: 7a1a 3540 576a 3340 5ab8 3f40 4dce 3740
00000180: d207 3e40 88ef 3640 e99a 3d40 e4c3 3a40
00000190: ed04 3440 bed5 3840 f201 4240 3edd 4040
000001a0: 167a 3240 abd2 3540 9214 3f40 e650 3540
000001b0: aebe 2e40 3d90 4040 5cbb 3240 701c 3d40
000001c0: 6e6e 3e40 99a1 4140 9a59 3b40 4b2c 3a40
000001d0: 99c2 3840 0a7e 3e40 326b 4040 ae02 2e40
000001e0: 87f7 3540 6225 3b40 4554 3840 08b2 3c40
000001f0: 93f7 3b40 3899 3d40 3551 3c40 a09e 3c40
00000200: adfe db3b 7f5a 4c3c e286 15bb 8146 f83c
00000210: ce24 41ba b4a6 023d b8a9 d5ba d9b2 063d
00000220: 3f15 8c3c c528 a1bc 4ffa b9bc caea 343c
00000230: ae54 15bc cc17 c53c dded 0b3d 9c51 91bc
00000240: cd23 d63b cf94 b8bb bf8c 85bc 7c9a 95bc
00000250: 71dd 623c 1d96 32bd eefc 8c3c 64c6 5c3d
00000260: 5a97 3dbd fbf5 2fbd c6b1 613c 8d12 553d
00000270: 2dd9 243a f3c7 6c3c a323 013d 2a3d 863c
00000280: c331 dc3c fd7c 5f3d 0299 3dbd 2ea2 0dbd
00000290: b3c7 83bb c454 8b3c 2667 e5bb 2248 b03c
000002a0: d34f c93c 8136 eaba dc74 ab3d 26b6 71bb
000002b0: 5fd6 ca3c a67f 5c3d 9fff a9bb a529 93bd
000002c0: 690c e13c c929 453a 6262 78bd dac5 28bd
000002d0: ec2a b3bd 01fb 033b e6c6 c63c babf 2e3b
000002e0: 4cbc 0dbd ac84 523c 8492 83bc 6fcb 0fbd
000002f0: 6384 5fbd 365a 283b 42ed 1ebc 428e 60ba
00000300: 55fe 29be b9bb 2abe 5326 b3bc 43cc 9bbd
00000310: 3f41 dfbd 7386 47bd a709 e9bd 25c7 5cbd
00000320: 75ad 8cbd f08c 31bd b796 b13c b90e 90bd
00000330: 0c64 17bd 8295 aabd 48d4 cdbd 9f86 04be
00000340: 105e 8bbd 7709 033c 7f06 57bd cab9 14be
00000350: 6336 b2bd b340 8fbd 407e 0cbd 8993 4abd
00000360: fbc4 47bd ae7e 7a3b 5ef3 2abc 2c83 b1bd
00000370: 45f1 4ebd 1052 29be 0eb5 5cbe a20e babd
00000380: be9b a2bc f70d 66bc 3991 fbbc cded 89bd
00000390: 896b 77bd eac8 4cbd 9bfd 713c 50e6 f6bc
000003a0: 528e 7cbd b80b a0bd 3b4f 823c cd97 91bd
000003b0: 29a1 35bc 371c 38bb c621 283b 3235 d4bc
000003c0: 2602 31be 42f2 7dbd 6eb5 9abc 0b38 a43c
000003d0: b8b8 88bc 6760 d73c 8d94 c2bd 6f37 c3bd
000003e0: 7f76 a8bd f30e a7bc 03c5 c3bd 83ed 3c3c
000003f0: 8672 963c e52e 45bd b3f1 dfbd ecfa 0d3d

cell.b_ih f4 [256]
-0.0872267 -0.063840866 -0.008317987 -0.045357756 -0.022658408 -0.116325766 0.021444084 -0.08404004
-0.048048645 -0.0080966335 -0.049106292 -0.0009992187 -0.09002836 0.035464883 -0.13345815 -0.16776611
-0.073011234 0.05020689 -0.048007 -0.062118284 -0.11655986 -0.054233097 -0.09831031 -0.08824795
0.087301806 -0.053383723 -0.08724613 -0.026407255 -0.061453704 0.0011778257 -0.050118934 -0.04896845
-0.08097278 0.0071466477 -0.030028898 -0.067341216 -0.068090595 -0.063856184 -0.014834999 -0.06492445
-0.1000739 -0.14753756 -0.015609249 -0.09800296 0.025947284 -0.04152606 -0.11789328 -0.012279275
-0.12220958 -0.03812761 -0.041137867 -0.054708295 0.061075043 -0.052778374 -0.030260043 -0.009334131
-0.022409493 -0.050241996 -0.053189624 -0.011160132 0.012638904 0.005124433 -0.124519974 0.055099797
-0.11992693 -0.2442997 -0.040042035 -0.2593086 -0.16987841 -0.13608491 -0.03286426 -0.08997651
-0.004049587 -0.11984725 -0.028056964 -0.019892344 -0.22721015 -0.114170924 -0.09063084 -0.092794105
-0.26107764 -0.10657306 -0.10016385 -0.024506005 -0.1725366 -0.052690934 -0.06416907 -0.07257632
-0.14284478 -0.08752835 -0.21179673 -0.18810572 -0.17025995 -0.19664034 -0.0043781074 -0.12803875
-0.030772153 -0.14162885 -0.037418462 -0.08179398 -0.18720211 -0.111952536 0.031369243 0.0135030085
-0.21129325 -0.15901673 -0.014373517 -0.16693413 -0.26961154 0.008800698 -0.2073159 -0.04514229
-0.02451186 0.025486289 -0.07265926 -0.09105106 -0.11312495 -0.023557998 0.0065408265 -0.28108573
-0.15677117 -0.07584059 -0.11985428 -0.051632654 -0.063009925 -0.03752497 -0.057541408 -0.052821055
0.0067137093 0.012472748 -0.0022815992 0.030307056 -0.000736785 0.03189726 -0.001630119 0.032885406
0.017099975 -0.01967276 -0.022702364 0.011042306 -0.0091144275 0.024059199 0.03416239 -0.01773911
0.0065350295 -0.0056329737 -0.016302465 -0.01826214 0.013846741 -0.04360019 0.01721045 0.053900138
-0.04628692 -0.042959195 0.013775295 0.052019645 0.0006288465 0.0144519685 0.031528126 0.016386587
0.026879197 0.054562557 -0.046288498 -0.034578495 -0.0040216087 0.017008193 -0.0070008216 0.02151877
0.024574196 -0.0017869027 0.083718985 -0.003688225 0.024760423 0.053832673 -0.005187943 -0.071856774
0.027471738 0.000752118 -0.0606407 -0.04120431 -0.08748421 0.0020138624 0.024264764 0.002666457
-0.034603402 0.012849014 -0.016061075 -0.03510612 -0.054569613 0.0025688536 -0.009700121 -0.000856612
-0.16600926 -0.16673173 -0.02186886 -0.07607319 -0.109011166 -0.048712205 -0.11378794 -0.053900857
-0.06869022 -0.0433473 0.021678312 -0.07034058 -0.036960647 -0.083292976 -0.10050255 -0.12941979
-0.068050504 0.007997862 -0.05249643 -0.14523998 -0.0870178 -0.06994762 -0.03430009 -0.049457107
-0.04877184 0.003822248 -0.010434 -0.08667597 -0.05052306 -0.1653521 -0.21553442 -0.09084822
-0.019849654 -0.014041415 -0.030708896 -0.0673481 -0.060405288 -0.049996294 0.014769937 -0.030139118
-0.061659165 -0.07814735 0.01590692 -0.07109032 -0.011085787 -0.002809299 0.0025654896 -0.025904272
-0.17285976 -0.061998613 -0.01888534 0.020046255 -0.016689643 0.026291085 -0.0950099 -0.095320575
-0.08225726 -0.02039287 -0.095590614 0.011531237 0.018365156 -0.048140425 -0.10934772 0.034663126
00000000: e9a3 b2bd 00bf 82bd 2b48 08bc 0ec9 39bd
00000010: 209e b9bc 343c eebd 81ab af3c 2f1d acbd
00000020: a8ce 44bd bea7 04bc ae23 49bd 37f8 82ba
00000030: ca60 b8bd a043 113d 41a9 08be e1ca 2bbe
00000040: ea86 95bd bda5 4d3d fda2 44bd be6f 7ebd
00000050: f0b6 eebd 8623 5ebd ea56 c9bd 57bb b4bd
00000060: 4acb b23d e4a8 5abd 19ae b2bd 0754 d8bc
00000070: e1b6 7bbd 4661 9a3a 8349 4dbd 2493 48bd
00000080: 0fd5 a5bd 6d2e ea3b 2aff f5bc 31ea 89bd
00000090: 1573 8bbd 08c7 82bd 7f0e 73bc 1cf7 84bd
000000a0: 8bf3 ccbd 1614 17be efbd 7fbc c7b5 c8bd
000000b0: 668f d43c 3b17 2abd 0872 f1bd 032f 49bc
000000c0: 0449 fabd b22b 1cbd 2e80 28bd ce15 60bd
000000d0: d329 7a3d 232e 58bd e9e3 f7bc 2fee 18bc
000000e0: 1d94 b7bc 8dca 4dbd 5ddd 59bd fcd8 36bc
000000f0: 6813 4f3c dcea a73b 5404 ffbd 53b0 613d
00000100: 409c f5bd b329 7abe 1e03 24bd 19c4 84be
00000110: 9bf4 2dbe d859 0bbe ad9c 06bd 9b45 b8bd
00000120: 66b2 84bb 7a72 f5bd b8d7 e5bc 45f5 a2bc
00000130: c7a9 68be 72d2 e9bd a99c b9bd d60a bebd
00000140: f8ab 85be fa42 dabd b422 cdbd d1c0 c8bc
00000150: 6fad 30be 73d2 57bd 136b 83bd e5a2 94bd
00000160: e745 12be 1042 b3bd 3ee1 58be c99e 40be
00000170: a058 2ebe 165c 49be 3a76 8fbb 971c 03be
00000180: e215 fcbc 2707 11be 1a44 19bd 9a83 a7bd
00000190: e9b1 3fbe 5f47 e5bd 097d 003d b93b 5d3c
000001a0: 425d 58be 48d5 22be e67e 6bbc c8f0 2abe
000001b0: 860a 8abe ce30 103c 9f4a 54be 1fe7 38bd
000001c0: 19cd c8bc 9fc8 d03c 61ce 94bd fa78 babd
000001d0: 0eae e7bd b4fc c0bc 6e54 d63b 78ea 8fbe
000001e0: 9f88 20be 5052 9bbd 2976 f5bd c37c 53bd
000001f0: 590b 81bd c8b3 19bd 8ab0 6bbd e45a 58bd
00000200: adfe db3b 7f5a 4c3c e286 15bb 8146 f83c
00000210: ce24 41ba b4a6 023d b8a9 d5ba d9b2 063d
00000220: 3f15 8c3c c528 a1bc 4ffa b9bc caea 343c
00000230: ae54 15bc cc17 c53c dded 0b3d 9c51 91bc
00000240: cd23 d63b cf94 b8bb bf8c 85bc 7c9a 95bc
00000250: 71dd 623c 1d96 32bd eefc 8c3c 64c6 5c3d
00000260: 5a97 3dbd fbf5 2fbd c6b1 613c 8d12 553d
00000270: 2dd9 243a f3c7 6c3c a323 013d 2a3d 863c
00000280: c331 dc3c fd7c 5f3d 0299 3dbd 2ea2 0dbd
00000290: b3c7 83bb c454 8b3c 2667 e5bb 2248 b03c
000002a0: d34f c93c 8136 eaba dc74 ab3d 26b6 71bb
000002b0: 5fd6 ca3c a67f 5c3d 9fff a9bb a529 93bd
000002c0: 690c e13c c929 453a 6262 78bd dac5 28bd
000002d0: ec2a b3bd 01fb 033b e6c6 c63c babf 2e3b
000002e0: 4cbc 0dbd ac84 523c 8492 83bc 6fcb 0fbd
000002f0: 6384 5fbd 365a 283b 42ed 1ebc 428e 60ba
00000300: 55fe 29be b9bb 2abe 5326 b3bc 43cc 9bbd
00000310: 3f41 dfbd 7386 47bd a709 e9bd 25c7 5cbd
00000320: 75ad 8cbd f08c 31bd b796 b13c b90e 90bd
00000330: 0c64 17bd 8295 aabd 48d4 cdbd 9f86 04be
00000340: 105e 8bbd 7709 033c 7f06 57bd cab9 14be
00000350: 6336 b2bd b340 8fbd 407e 0cbd 8993 4abd
00000360: fbc4 47bd ae7e 7a3b 5ef3 2abc 2c83 b1bd
00000370: 45f1 4ebd 1052 29be 0eb5 5cbe a20e babd
00000380: be9b a2bc f70d 66bc 3991 fbbc cded 89bd
00000390: 896b 77bd eac8 4cbd 9bfd 713c 50e6 f6bc
000003a0: 528e 7cbd b80b a0bd 3b4f 823c cd97 91bd
000003b0: 29a1 35bc 371c 38bb c621 283b 3235 d4bc
000003c0: 2602 31be 42f2 7dbd 6eb5 9abc 0b38 a43c
000003d0: b8b8 88bc 6760 d73c 8d94 c2bd 6f37 c3bd
000003e0: 7f76 a8bd f30e a7bc 03c5 c3bd 83ed 3c3c
000003f0: 8672 963c e52e 45bd b3f1 dfbd ecfa 0d3d

head.net.0.weight f4 [1, 64]
0.24788475 0.23324095 0.020614114 0.29105595 0.15266646 0.020770883 -0.07573064 0.0705353
0.018249553 0.035308536 0.0052774837 0.037586674 -0.43052247 -0.06642312 -0.03333824 -0.24848643
-0.3015136 -0.13050501 0.00020521393 -0.12561299 -0.28922 -0.07258806 0.0051488113 -0.028399598
-0.15559937 -0.0035078768 -0.33087656 0.19687544 -0.1590281 0.25775468 0.095601045 0.12899828
-0.0172691 -0.0707421 -0.06105087 -0.097178794 -0.07442378 0.099898525 -0.021888712 -0.041708462
0.2894515 0.2426688 0.008002911 0.23887412 0.35704145 -0.0043403963 0.30470484 -0.048877742
0.10499366 0.042182777 -0.03366024 0.0026678317 -0.13813677 -0.0037575606 -0.009656272 -0.33440283
-0.09589328 0.08541643 0.12513734 0.009605342 0.015897099 0.036285195 -0.03186723 0.023896152
00000000: 80d5 7d3e b7d6 6e3e eede a83c 4905 953e
00000010: 9954 1c3e b327 aa3c aa18 9bbd d074 903d
00000020: 1680 953c af9f 103d beee ac3b 7cf4 193d
00000030: 716d dcbe d808 88bd ae8d 08bd 3a73 7ebe
00000040: fe5f 9abe 1ba3 05be b22e 5739 b1a0 00be
00000050: a514 94be 0ca9 94bd 5cb7 a83b 46a6 e8bc
00000060: 7155 1fbe 68e4 65bb a768 a9be b799 493e
00000070: 43d8 22be 6cf8 833e 7bca c33d 2018 043e
00000080: ed77 8dbc 3ce1 90bd 7a10 7abd ad05 c7bd
00000090: 7f6b 98bd 9997 cc3d f54f b3bc 7ed6 2abd
000000a0: fd32 943e 2b7e 783e a41e 033c 6b9b 743e
000000b0: 23ce b63e e239 8ebb 4602 9c3e 0734 48bd
000000c0: ea06 d73d d9c7 2c3d 52df 09bd cad6 2e3b
000000d0: ba73 0dbe 6841 76bb 5735 1ebc d936 abbe
000000e0: b263 c4bd cfee ae3d 0124 003e b95f 1d3c
000000f0: a23a 823c c99f 143d 3687 02bd ddc1 c33c
