runs/lstm_camels_us_0312_020042/model_epoch002.pt (torch, 80974 bytes, 5 tensors)

cell.w_hh f4 [256, 64]
00000000: edba 3d3e d354 103e 1e29 053e af44 0fbd
00000010: 1249 f23d 576b f43d d8af ad3d 3af1 1cbe
00000020: 31ac e0bd cd9a 9abd 812c e83d f0c3 febd
00000030: 630e 64be ffad 6bbe 3b75 313e 9aa1 c63c
00000040: 6190 32be 49ad 54be e0eb 863d 307e 0bbe
00000050: c9a9 aabd 9eef c1bd 31b1 16be 00dc b73d
00000060: 6fc7 53be 89d7 6f3d f2f1 fc3b 23a6 54bd
00000070: 387b 5abe 00d3 7abd 327e 303e f37d 4a3e
00000080: 4e0a 393e 72b0 aebc bb54 53be 9607 6fbe
00000090: 6db2 2abe 85bd a5bc 23e0 4cbd 33f1 673c
000000a0: 87aa 22bd c608 1f3e 6524 04be db02 843e
000000b0: fae2 863e 9ebf 03be 7eda c0bd ae43 163e
000000c0: fe6d aebd 9ba8 bd3d 61c1 ce3b ddef f5bd
000000d0: 34f1 efbc 8b7a 303e 8009 28bd 6a0e 36be
000000e0: 8db1 98bc 9f8a 213e 60bb 7c3d ff4e 803d
000000f0: 3c6c 323e 7462 18be f7fb 503e 414b b2bd
00000100: 36e7 17be 4db9 00be b867 9b3d 753a 823e
00000110: ddfd 9c3e a680 e0bd 606d 08be e1f0 9e3c
00000120: f414 11be d68e 063a 70d9 b83d c596 5e3e
00000130: e289 073e 1c9f 9bbc ebd6 92bd 147e 25bd
00000140: bdae 4dbe 96fe 06be 5159 ed3c 7773 16be
00000150: 6b9a 87bc a22a 3d3e 1f38 26be 5179 94bd
00000160: 7e39 28be f0fe 18be 2234 fabc 0f7e 98bd
00000170: 469a 53bd 23f5 243d e5d8 d33d 787a 7e3e
00000180: b972 093e 9dd7 153e fcc0 013e 714a 843d
00000190: 2f25 ebbd 4e56 0bbe e9c8 643d b964 a03d
000001a0: b4c8 b23a 148b a23d 9d4c c3bd 912b 9dbd
000001b0: 9e8e 7c3e f563 29be 91fd a63d ff5d 55be
000001c0: e9a4 3c3e 16d9 fc3d 2926 da3d 9779 e4bd
000001d0: 43e7 52be fd48 fcbd 9197 34be 02ba c6bd
000001e0: ad5f 983b 37dc de3c c85f 5cbc 5810 943d
000001f0: f760 513d f28a 0ebe 0e66 21be 51fe b63d
00000200: 0f44 0dbe e8bd f53d 445b 053d 6655 0b3e
00000210: 8d51 103e c719 d93d 4330 4fbd 90ab 06be
00000220: 5d93 62be 325c 35bd 2532 133e 2241 fbbd
00000230: a8f2 153e e916 0e3e 94f6 053e 2d65 1bbe
00000240: 33de 1d3e 1182 62be e9f0 8fbd 3c9c 71be
00000250: c335 07bd 6032 a83d c705 14bd bbed 9d3d
00000260: 9e7f ee3c 3f01 50bd ac9d 9e3d d04a 09bd
00000270: 520b 99bd 35f7 123e f3ba 1bbd 5db7 ccbd
00000280: 52b2 20be d4cc 2cbd 7491 22bd 88da 423e
00000290: a2b8 bc3d 4277 ee3d 5700 0a3e cff7 933d
000002a0: c99e 4bbd 4063 ff3c dc9c de3d 64a2 33bd
000002b0: 66cc 633d 7e79 09be bf76 84bc 06a0 9e3b
000002c0: 674c 0c3e 7038 fabd 2810 033e 457b b8bd
000002d0: fab3 943d 7b36 b33c 3627 2ebe 8e26 18be
000002e0: ade3 003e 79ce 12be 3435 bd3d 19d9 963d
000002f0: e7a4 113e fa4f 9c3d 1e7f 1dbe e154 22bd
00000300: 8c8d 463d f909 0b3e 7322 e8bd fb18 d53d
00000310: 21c0 47be 410c 5dbe 89d7 5bbe c1f2 043e
00000320: 2774 8a3d 8dec 283e 32b9 14be 973d 32bd
00000330: bc3c b73c 7a1d 38be c245 3b3e 2a49 07be
00000340: e970 bb3c 0956 ce3d 789a 1d3e 37b6 c8bd
00000350: 9fc5 1cbe 841b 39be 591c 113e f97d 3abe
00000360: 5527 a0bc 6de3 14be 617a efbd 7ca0 78bb
00000370: 821f 1abe b9d5 0c3e b48e 8f3c d0c4 5abc
00000380: ce80 ba3c 8d56 38be ebad 10bc e928 67be
00000390: 947f 6abe 8090 0f3e 3292 ca3d b183 f5bd
000003a0: b2c2 783c 6c1a ad3d ab1f ef3d dd8f 453e
000003b0: 4822 883e b972 1bbd 683b 753e d1c9 603d
000003c0: b6d5 ea3c 6d57 163d c430 b73d 37b6 313e
000003d0: 5dd8 8f3d f61d 3c3e 3ecd c13d 0683 cebd
000003e0: c207 5abe c81b 72bd 8b49 393e a830 0fbd
000003f0: e413 b6bd cd2b 803e c72a 77be 1945 27be
0.18528338 0.14094858 0.13003966 -0.03497761 0.11830343 0.11934536 0.08480805 -0.15326396
-0.10970343 -0.07549057 0.113366134 -0.12439716 -0.22271113 -0.23015593 0.17329876 0.02424698
-0.17437889 -0.20769228 0.06587958 -0.13622355 -0.08333165 -0.094695315 -0.1471603 0.089775085
-0.20681547 0.05855516 0.007719272 -0.051916253 -0.21336067 -0.06123638 0.1723564 0.19774608
0.18070337 -0.02132437 -0.20637791 -0.23342738 -0.16669627 -0.020231972 -0.05001844 0.0141566275
-0.03971341 0.1553069 -0.12904508 0.2578343 0.26345044 -0.12866065 -0.09416674 0.14674255
-0.08517073 0.092606746 0.0063096737 -0.12008641 -0.02928982 0.17234246 -0.041024685 -0.17778936
-0.01863935 0.15775536 0.061702132 0.06265067 0.174241 -0.14881307 0.20408617 -0.0870576
-0.14834294 -0.12570687 0.07588142 0.25435224 0.30662432 -0.10962038 -0.13322973 0.01940197
-0.14168149 0.00051329785 0.09025848 0.21737202 0.13236192 -0.018996768 -0.071698986 -0.04040344
-0.20086189 -0.13183054 0.028973253 -0.14692484 -0.016553124 0.18473294 -0.16232346 -0.07249702
-0.16428182 -0.14941001 -0.030542437 -0.07445919 -0.0516608 0.040272843 0.10344104 0.24851406
0.1342267 0.14633031 0.12671274 0.06459511 -0.114817016 -0.13607141 0.055855665 0.07831711
0.0013640136 0.07936683 -0.09536097 -0.07674325 0.24663779 -0.16542037 0.08153833 -0.20836638
0.18422283 0.12346093 0.1065181 -0.11156004 -0.20596032 -0.12318609 -0.17635943 -0.09703447
0.0046500773 0.027204616 -0.01345057 0.0722968 0.051117864 -0.13920191 -0.15761587 0.08935226
-0.13795494 0.11999112 0.03255774 0.13606796 0.14093609 0.1060062 -0.050583135 -0.13151383
-0.22126527 -0.044277377 0.14374597 -0.122682825 0.14643347 0.13875927 0.13082343 -0.15175314
0.15416794 -0.22119929 -0.07028372 -0.23594755 -0.033010256 0.08212733 -0.036138322 0.07711359
0.029113587 -0.05078244 0.07744917 -0.033518612 -0.07472862 0.14352114 -0.038020086 -0.09995911
-0.15693024 -0.042187527 -0.039689496 0.19028676 0.092149034 0.116438404 0.13476692 0.07225
-0.049711976 0.031175256 0.10869762 -0.04385604 0.05561485 -0.13425252 -0.016169904 0.0048408536
0.1370102 -0.12217796 0.12799132 -0.09007887 0.0726089 0.021876564 -0.17007145 -0.14858457
0.12586851 -0.14336576 0.09238663 0.07365627 0.14223062 0.07632442 -0.15380523 -0.039631728
0.048474833 0.13578023 -0.11334696 0.10405155 -0.19506885 -0.21586706 -0.21468939 0.12983228
0.067604356 0.16496487 -0.14523771 -0.043515768 0.022367828 -0.17979994 0.18288329 -0.13211504
0.022880988 0.10075004 0.15390956 -0.0980038 -0.15309761 -0.18076903 0.1417097 -0.18212117
-0.019550005 -0.14539881 -0.11693264 -0.0037937453 -0.15051082 0.13753404 0.0175241 -0.013352588
0.022766497 -0.18001767 -0.008830528 -0.225742 -0.2290023 0.14019966 0.09891166 -0.11988009
0.015183138 0.08452305 0.11675962 0.1929316 0.26588655 -0.037951205 0.23948443 0.054879967
0.028666358 0.03670447 0.08944848 0.17354666 0.0702369 0.18370804 0.09462975 -0.100835845
-0.21292022 -0.059108526 0.1809446 -0.03495851 -0.088905126 0.25033417 -0.24137412 -0.16334952

cell.w_ih f4 [256, 10]
00000000: 654b 4a3c 065e 41be f118 f83d d4e3 5b3e
00000010: 54fc 123e 0184 653e b35f 07be d04f 19be
00000020: 75f8 8bbd 4de3 8dbd 9b49 9a3d e4f4 76be
00000030: 196b 3e3e 8a2f 163e 3040 3e3e a046 2c3e
00000040: 0706 4b3e 6b5c 9c3d 9778 f7bd 8b72 503e
00000050: 8df4 66be 5265 523e 9bae 3fbe 0eb3 7abd
00000060: 9fb1 9ebd 3819 e93d 0740 d6bd 0828 a8bd
00000070: 1552 f8bd 6a96 23be 87d5 103d f4c0 10be
00000080: 2541 843e ce7f 8d3d 4174 d83d 7cd3 a9bd
00000090: 2c1a 153e 9d7d 2bbe 4492 dc3d f361 dd3d
000000a0: 5ed4 0e3e 792f cbbd a5e3 66be 3b69 f8bd
000000b0: 0330 883d 339f 293e ea66 363e b6ad be3d
000000c0: 99a9 4b3e 129c dd3d 49de fabc 9379 403e
000000d0: fba4 1d3e adce 353e 133f 5e3e 351a 0abe
000000e0: 1f59 5a3e cacc 37be 0dd5 003e 9f45 923b
000000f0: 83c7 08be d990 0bbe 85ed c73d e743 d9bc
00000100: b055 9bbd 6bef a5bd 25b9 e13d 0b54 80bd
00000110: 883e 3b3e 100f f8bc 2a87 6cbd 7d0d 3bbe
00000120: 5bd7 31be 1bca 483e ec94 0bbe b98d eb3d
00000130: 68aa 57be dadd ac3d 4dae 553e 1951 393d
00000140: 1abe 7fbe d498 7cbe 304f 003e d050 a0bd
00000150: aba1 1a3e 4435 aa3d c58c 3fbd 9948 1bbe
00000160: 53f1 0c3d 21bd d73d 668d 343e ef71 133e
00000170: fa7d 0a3e e836 a8bd 5d64 5e3e 7cba d03d
00000180: af23 6c3c db8f 1dbe 0c9e fd3d 51fe 2f3d
00000190: 4063 5f3e ebfb 543d 52ee 303e 1533 433d
000001a0: 2540 1cbc e7c2 ad3d bebb 04bc 0652 4b3d
000001b0: 10b3 c6bc 96b4 5d3e d19c a4ba 6f9f b4bd
000001c0: 2dc1 c5bc 2d88 4e3e e34a b6bc 536b 2a3e
000001d0: e75a 113e be90 c4bd 964f 97bc 22a9 25be
000001e0: 5f3a b93e 6413 c13c 76f8 c43d 72a2 f23c
000001f0: 4b42 403e 2e9b fbbd 6589 e8bd d9d6 e0bc
00000200: de8f 6d3e 0e6c 7b3d 9360 c83d 8a67 66be
00000210: 6cf1 7d3b 1d53 733d e054 033e 8c3c 3abe
00000220: ddfb 223e 0f60 b23d 234d dbbd 2592 063e
00000230: c2a3 c83c 1e62 34be 09a7 d93d e04a 193d
00000240: a45f fb3d 68ea 2f3e 093a 27be 7113 d7bd
00000250: 8d3e 4dbe 088d a63c 3878 433e 1ab3 64be
00000260: ddfb 183e 6d1c a43d f375 d93d 202f 89bc
00000270: a48a 543e 2de3 c73d adf4 f6bd 887d 583e
00000280: 44da 473e 5687 9f3d 0d6c a6bd 1935 92bd
00000290: a5de 4c3e 9a76 50be e77a 2b3e 1fe1 d9bd
000002a0: 3306 74bd e712 273e dcf4 d5bd 17c5 49be
000002b0: 13f3 113d 193d 353e 7467 96bc e0c9 96bb
000002c0: 158e 913c 50a2 013e f76a 5abd 91a6 ad3d
000002d0: 4f50 df3d 3bd0 733c fc23 df3d d75e e5bb
000002e0: 9466 103e 7761 993b 0423 efbd c92b 203e
000002f0: 6eb0 a8bd 6ae5 43be 86fa cabd e1bb bfbd
00000300: f8ab 4abe 3066 55be 1f12 923d e98e 0c3c
00000310: 7d06 8f3d e79e a4bd 48cf 63bd 083e 7cbe
00000320: ce24 903e abd6 833d 5f93 493e 01f7 793e
00000330: 0cac 4b3e a2a2 c63d 7ca0 56be f9f9 1d3c
00000340: 6de6 84be 39b2 73bd bb40 2f3e 6c91 703e
00000350: 45a9 133d 82a2 d53d fdc8 483d c44d bcbd
00000360: 7cdb 6abc d54e 203e 4b9b bbbc 272e 103d
00000370: f96d b5bd 9100 4fbe e42f 6f3e 8df9 22be
00000380: e8e8 13be 6bc6 cebd 3b8f fb3c aff4 0ebe
00000390: 409d e9bd 68e2 79be 9a4f 733e 4ce9 a3bd
000003a0: f749 803e 068d 8e3e fe97 073e 2b22 80be
000003b0: 5782 c93d fbae d8bc 2a39 883e 6a52 19be
000003c0: 1391 0cbd 51b3 f73d a4ba f43d 8a75 1a3e
000003d0: 9769 ae3d b0cc 973d 013c 36be 80e1 45be
000003e0: 48d9 1a3e 9c49 5c3d d678 b8bd e6f9 d23d
000003f0: 732c 3a3e 5d5d 493e e94f 19bd eef5 353e
0.012347077 -0.18883523 0.12114132 0.21473628 0.14354068 0.22413637 -0.132201 -0.14971852
-0.06834499 -0.0692812 0.075335704 -0.24116856 0.18595542 0.14666572 0.18579173 0.16823816
0.19826518 0.07634815 -0.120835476 0.20356195 -0.22554226 0.20546463 -0.1871895 -0.061205916
-0.07748722 0.11381763 -0.10461431 -0.0821076 -0.12125031 -0.15975347 0.035359886 -0.14136106
0.2583095 0.069091424 0.10569049 -0.082922906 0.14560765 -0.16747136 0.107700855 0.10809698
0.13948199 -0.09921164 -0.22547777 -0.12129446 0.066497825 0.16564636 0.17812696 0.093104765
0.19888915 0.10820784 -0.030623572 0.18796377 0.15394966 0.17754622 0.21703748 -0.1348656
0.2132306 -0.17949215 0.12581272 0.004463866 -0.13357358 -0.13629474 0.097621 -0.026521636
-0.07584703 -0.08102306 0.11021642 -0.0626603 0.18285573 -0.03028062 -0.05774609 -0.18266864
-0.17367308 0.19608347 -0.13631028 0.11501641 -0.21061099 0.08440752 0.20867272 0.045243356
-0.24974862 -0.24667674 0.12530208 -0.07827914 0.15100734 0.08310941 -0.046765108 -0.15164413
0.034409832 0.1053412 0.17632064 0.14398931 0.13524619 -0.082135975 0.21717973 0.10191819
0.0144128045 -0.15386908 0.12383661 0.042967144 0.21815205 0.05199806 0.17278412 0.047656137
-0.009536778 0.0848444 -0.008101402 0.04963877 -0.024255306 0.2165092 -0.0012558942 -0.08819472
-0.024139965 0.20169134 -0.022252506 0.16642503 0.14194833 -0.0959792 -0.018470567 -0.161778
0.36177346 0.023568816 0.09617703 0.029618476 0.18775289 -0.122854576 -0.11354331 -0.027446197
0.23199412 0.061382346 0.09784045 -0.22500435 0.0038748635 0.059405435 0.12825346 -0.1818716
0.1591639 0.08709728 -0.10708072 0.13141687 0.024492148 -0.17615554 0.106275626 0.037424922
0.122741014 0.17179263 -0.16330732 -0.10501755 -0.20043392 0.02033092 0.19088829 -0.22333947
0.14939828 0.08013234 0.106182 -0.016746104 0.20756012 0.09760127 -0.12058387 0.21141636
0.19516855 0.07789485 -0.08126078 -0.07139034 0.20006807 -0.20357743 0.16746102 -0.106386416
-0.059576225 0.16315804 -0.10447094 -0.1970409 0.035632204 0.17699088 -0.018359877 -0.004601702
0.017767945 0.12659574 -0.053324666 0.08479036 0.109039895 0.014881189 0.10895535 -0.006999831
0.1410163 0.004680808 -0.116766006 0.15641703 -0.08236776 -0.19130483 -0.09911065 -0.09362007
-0.19792163 -0.20839763 0.071323626 0.008578994 0.069836594 -0.08038121 -0.0556176 -0.24633038
0.2815308 0.06437429 0.19685124 0.24410631 0.1988985 0.096989885 -0.20959657 0.009642118
-0.2595705 -0.05949614 0.17114536 0.23492974 0.0360501 0.104313865 0.049019802 -0.0919452
-0.014334556 0.15655072 -0.022901198 0.035200264 -0.08858866 -0.2021506 0.23358113 -0.15915509
-0.14444315 -0.10096439 0.030707946 -0.13960527 -0.11406946 -0.24402773 0.23760834 -0.08003482
0.2505643 0.27841967 0.13241574 -0.25026068 0.098393135 -0.026450625 0.26606113 -0.14972845
-0.03431804 0.12094749 0.119496614 0.150839 0.085162334 0.07412088 -0.17796327 -0.19324303
0.15121949 0.053781137 -0.090074226 0.103015706 0.18181019 0.19664522 -0.037429724 0.17769596

cell.b_hh f4 [256]
00000000: de61 58bd aea7 17bd 2c59 433c dadd 0bbd
00000010: 1db6 72bc fc6b 70bd d8a6 42bc aca2 51bd
00000020: 1c33 27bd 61de 08bd 0e79 cfbc 84fa 94bc
00000030: 36ce 48bc e114 173a d89a fcbd 237b f3bd
00000040: 5d36 8ebb 59a0 ec3c 705e cdbc 23d2 8ebd
00000050: 9c14 9cbd 3968 31bd 58d5 9cbd 955b 5dbd
00000060: 10dc 143d c3cf 26bd 0131 ba3b 401d d9bc
00000070: dbea 71bd 1e24 9c3b d845 c4bb 03e6 0cbd
00000080: 9b3c 8cbd 8d1f 1dbc 8617 8bbc b3a9 91bc
00000090: f13a 4ebd e3a6 cbbc 96c1 d3ba d499 14bd
000000a0: 6e97 643b 229c 81bd 345b cb3b 8a82 73bd
000000b0: 6c9b 7e3d 7fce d4bb 0cf3 22bd a5f2 6d3b
000000c0: 0dda c7bd 6355 08bd 6f54 21bd 2c5a 41bd
000000d0: bf1c 413c 23c0 55bc c0c0 0dbd a448 4a3d
000000e0: 9bba 05bd 7bb8 a7bc 066d 12bd 9639 8cbc
000000f0: 5a8e d4ba 2490 98bc 75f8 32bd 95d2 523c
00000100: c871 3a40 df27 3540 96a7 3f40 ddc9 3340
00000110: c9f6 3940 bee2 3b40 55d1 3d40 7154 3b40
00000120: abf0 3f40 fcea 3b40 fb72 4040 8849 3e40
00000130: 6eaf 3340 ca7a 3b40 f60c 3b40 e85e 3b40
00000140: 2dc3 3540 c166 3e40 5c63 3d40 ea68 3f40
00000150: 8bcf 3540 9b28 3e40 ca36 3b40 320f 3c40
00000160: 4a9f 3940 61fb 3940 dfaf 3540 3bec 3740
00000170: 89d5 3940 41b3 3840 98b1 4340 dc82 3a40
00000180: ce77 3d40 462e 3940 ad83 3e40 04cb 3d40
00000190: 2fab 3840 1070 3c40 df13 4040 222e 4140
000001a0: 4e0f 3740 ba41 3840 df27 3f40 1e05 3940
000001b0: a606 3440 f652 4140 2ec4 3540 774a 3d40
000001c0: 2f3d 3f40 575f 4040 7c6d 3c40 6711 3a40
000001d0: 3c63 3c40 5782 3d40 6a35 3f40 73ad 3340
000001e0: 64e5 3940 aacb 3d40 af01 3b40 0d32 3c40
000001f0: 0860 3c40 4b76 3d40 3545 3f40 31c9 3d40
00000200: 01c5 643c 1d8e a73c 5a0c 4a3b bf27 0b3d
00000210: e875 0f3c 418c 8b3c 79c2 5f3b 3318 033c
00000220: 0a84 963b a1ce 04bc b008 bebc 6086 1c3c
00000230: 6e9d 1f3c a1bc c03c 9ce1 7e3c a91d aebc
00000240: 26fc 41bb 0892 333a 385b 3bbc 034d 77bb
00000250: 66e6 703c 8339 99bc a732 c639 209a 393d
00000260: 88c9 91bd 0803 76bc 0f87 c23c ee6c 233d
00000270: 074b 923b 3110 1e3c 7b84 243d fc8e aa3c
00000280: 04de d43c fb5a f83c 60a4 eebc 5f4a a8bc
00000290: 841e bdbb b71b a83c 4de0 37bb 6b48 223d
000002a0: 7676 df3b f27d bd3b 58b9 8c3d a210 b13b
000002b0: 8a49 b03c 18f0 573d f0de 133b bf54 69bd
000002c0: 5424 f03c 70d2 bc3b 4fc8 20bd 514b b0bc
000002d0: 2705 9bbd 81d2 93bb e648 32bb 15b7 5fbc
000002e0: 76a3 97bc 8380 323c fc9c 4bbc 92ba b5bc
000002f0: 8566 cfbc 2815 973b c67a 99bc bae5 0a3c
00000300: 2303 9ebd 1c00 84bd ded4 22bd 5e2f e7bc
00000310: eefc 2cbd a2bd 5abd 219f 81bd 9065 dfbc
00000320: 6764 81bd d794 31bd 1558 bd3b 8783 5fbd
00000330: b8c7 413d c585 1dbd 3982 aebd 6841 19bd
00000340: a84f 61bc 831f 323c 37df 02bd 2f0d 7abd
00000350: aa62 dfbb 6c30 64bd c548 a3bc 06b2 2ebd
00000360: d827 6e3c 352c 86bc f177 8c3d 836a 43bd
00000370: a4cc c0bc 9036 08bd 7d12 e7bd 8727 c7bb
00000380: 37e6 ecbc fd77 83bb e6fc b8bb 812a c4bc
00000390: 27a4 f9bc c721 9fbc b969 3c3c 06c7 ddbc
000003a0: d213 f13b bba4 88bc 4238 323c 4e9c e3bc
000003b0: b40c 463d 4797 0ebd 1810 e43c aba7 7d3a
000003c0: 1ded bbbd 99bb 00bd b91a a8bc e226 bcbb
000003d0: 6f3b aa3c 323e 2e3c b3a7 9bbd f097 0e3d
000003e0: 8877 25bd 6b08 193c 00b4 71bd b043 6b3c
000003f0: 9634 bebc 50bc 08bd 9136 43bd e845 b03c
-0.05282771 -0.037025146 0.011923116 -0.03414712 -0.014813927 -0.058696732 -0.011880599 -0.051180527
-0.040820226 -0.033415202 -0.025326278 -0.018185861 -0.012256196 0.0005763304 -0.123342216 -0.11888721
-0.0043399767 0.028885053 -0.025069445 -0.06973674 -0.076211184 -0.043312285 -0.076578796 -0.054042418
0.03634268 -0.04072548 0.0056821113 -0.026503205 -0.059061866 0.0047650477 -0.0059897713 -0.034399044
-0.06847497 -0.009590042 -0.01697899 -0.017781114 -0.05034918 -0.024859851 -0.0016155716 -0.036279514
0.0034880298 -0.06328608 0.0062059406 -0.059450664 0.06215994 -0.006494343 -0.03978257 0.0036307957
-0.09758387 -0.033284556 -0.039387163 -0.047205135 0.011786639 -0.013046297 -0.03460765 0.04938568
-0.032648664 -0.02047371 -0.035748504 -0.017117303 -0.001621674 -0.01862342 -0.04369398 0.0128675895
2.9131947 2.8305585 2.9946036 2.8091958 2.9056876 2.9357142 2.9659016 2.927029
2.9990642 2.9362173 3.0070179 2.973238 2.8075824 2.9293694 2.922666 2.9276676
2.8400376 2.9750216 2.9591894 2.9907784 2.8407924 2.9712284 2.925219 2.9384274
2.9003472 2.905968 2.8388593 2.8737934 2.9036582 2.8859408 3.0577145 2.914237
2.9604373 2.8934493 2.9767869 2.965516 2.8854482 2.9443398 3.0012128 3.0184407
2.8603091 2.8790116 2.9868085 2.8909373 2.8129058 3.0206885 2.8400989 2.95767
2.9881094 3.005819 2.9441824 2.9073122 2.9435568 2.9610803 2.9876351 2.8074615
2.904626 2.9655557 2.9219778 2.9405549 2.9433613 2.960345 2.988599 2.9654047
0.013962985 0.020453507 0.0030830116 0.03397345 0.008756138 0.017034652 0.0034143014 0.008001375
0.004593377 -0.008105905 -0.023197502 0.009553522 0.009742124 0.023527445 0.015556719 -0.021254377
-0.0029599755 0.00068500685 -0.011435322 -0.0037735112 0.014703369 -0.018704182 0.00037803242 0.045313
-0.07118517 -0.015015371 0.023746042 0.039898805 0.0044645104 0.009647415 0.040165406 0.020820133
0.025984772 0.03031682 -0.029131114 -0.020543275 -0.00577146 0.020521028 -0.0028057278 0.039619844
0.0068195416 0.005782836 0.06871289 0.005403594 0.021519441 0.052719206 0.00225633 -0.056965586
0.029314198 0.005762391 -0.03925353 -0.021520289 -0.07569342 -0.004511178 -0.0027204095 -0.01365449
-0.018510561 0.010894897 -0.012427565 -0.02218369 -0.02531744 0.0046106763 -0.0187353 0.008477623
-0.07715442 -0.06445333 -0.039753787 -0.028220829 -0.0422334 -0.053403504 -0.063291796 -0.027270108
-0.06317978 -0.043354835 0.0057783225 -0.054568794 0.047309607 -0.03845765 -0.08520932 -0.037415892
-0.013751902 0.010871771 -0.031951156 -0.06104773 -0.0068171816 -0.05571024 -0.01993216 -0.042650245
0.014535867 -0.016378501 0.068588145 -0.047709 -0.02353508 -0.03325516 -0.11282823 -0.00607771
-0.028918369 -0.0040121065 -0.005645382 -0.023946049 -0.030473782 -0.019425286 0.011499816 -0.02707244
0.007357099 -0.016680112 0.010877671 -0.027784493 0.04835196 -0.034812238 0.027839705 0.00096761686
-0.09176085 -0.031428907 -0.020520555 -0.00574194 0.020780293 0.010634946 -0.076003455 0.034812868
-0.040397197 0.009340386 -0.059009552 0.0143594 -0.023218434 -0.033382714 -0.04765946 0.021517709

cell.b_ih f4 [256]
00000000: de61 58bd aea7 17bd 2c59 433c dadd 0bbd
00000010: 1db6 72bc fc6b 70bd d8a6 42bc aca2 51bd
00000020: 1c33 27bd 61de 08bd 0e79 cfbc 84fa 94bc
00000030: 36ce 48bc e114 173a d89a fcbd 237b f3bd
00000040: 5d36 8ebb 59a0 ec3c 705e cdbc 23d2 8ebd
00000050: 9c14 9cbd 3968 31bd 58d5 9cbd 955b 5dbd
00000060: 10dc 143d c3cf 26bd 0131 ba3b 401d d9bc
00000070: dbea 71bd 1e24 9c3b d845 c4bb 03e6 0cbd
00000080: 9b3c 8cbd 8d1f 1dbc 8617 8bbc b3a9 91bc
00000090: f13a 4ebd e3a6 cbbc 96c1 d3ba d499 14bd
000000a0: 6e97 643b 229c 81bd 345b cb3b 8a82 73bd
000000b0: 6c9b 7e3d 7fce d4bb 0cf3 22bd a5f2 6d3b
000000c0: 0dda c7bd 6355 08bd 6f54 21bd 2c5a 41bd
000000d0: bf1c 413c 23c0 55bc c0c0 0dbd a448 4a3d
000000e0: 9bba 05bd 7bb8 a7bc 066d 12bd 9639 8cbc
000000f0: 5a8e d4ba 2490 98bc 75f8 32bd 95d2 523c
00000100: 19c7 b1bd ec81 2dbe 53cb b0bb 3562 43be
00000110: 6527 c1bd 13a8 83bd 49ab 0bbd 0072 95bd
00000120: 6e87 75ba 5fa0 82bd d2fd e53b 4c39 dbbc
00000130: 2109 45be 7fa6 90bd 9a60 9ebd 2923 94bd
00000140: bfcc 23be 6f9b ccbc d52b 27bd 0013 17bc
00000150: 4d08 23be 2db3 ebbc 4e25 99bd 2933 7cbd
00000160: d015 ccbd 5593 c0bd fd01 25be 643c 01be
00000170: f74f c5bd 7b99 e9bd f462 6c3d cca5 afbd
00000180: aa0a 22bd 0537 dabd 5d28 bebc 473f 0dbd
00000190: 1d9b eabd adfa 63bd 4e08 9f3a f50e 973c
000001a0: d909 0fbe 7ac7 f7bd 8923 58bc 8c5c dfbd
000001b0: 2896 3fbe 3777 a93c 4cbd 23be d561 2dbd
000001c0: e4d6 42bc c8c1 be3b 91a1 64bd b0d3 bdbd
000001d0: f630 67bd 516b 1fbd bf98 4abc 4428 45be
000001e0: 7754 c3bd ec12 0dbd 21ca 9fbd d97b 73bd
000001f0: b2ff 67bd 6b6f 22bd 38c2 3abc f8b4 0dbd
00000200: 01c5 643c 1d8e a73c 5a0c 4a3b bf27 0b3d
00000210: e875 0f3c 418c 8b3c 79c2 5f3b 3318 033c
00000220: 0a84 963b a1ce 04bc b008 bebc 6086 1c3c
00000230: 6e9d 1f3c a1bc c03c 9ce1 7e3c a91d aebc
00000240: 26fc 41bb 0892 333a 385b 3bbc 034d 77bb
00000250: 66e6 703c 8339 99bc a732 c639 209a 393d
00000260: 88c9 91bd 0803 76bc 0f87 c23c ee6c 233d
00000270: 074b 923b 3110 1e3c 7b84 243d fc8e aa3c
00000280: 04de d43c fb5a f83c 60a4 eebc 5f4a a8bc
00000290: 841e bdbb b71b a83c 4de0 37bb 6b48 223d
000002a0: 7676 df3b f27d bd3b 58b9 8c3d a210 b13b
000002b0: 8a49 b03c 18f0 573d f0de 133b bf54 69bd
000002c0: 5424 f03c 70d2 bc3b 4fc8 20bd 514b b0bc
000002d0: 2705 9bbd 81d2 93bb e648 32bb 15b7 5fbc
000002e0: 76a3 97bc 8380 323c fc9c 4bbc 92ba b5bc
000002f0: 8566 cfbc 2815 973b c67a 99bc bae5 0a3c
00000300: 2303 9ebd 1c00 84bd ded4 22bd 5e2f e7bc
00000310: eefc 2cbd a2bd 5abd 219f 81bd 9065 dfbc
00000320: 6764 81bd d794 31bd 1558 bd3b 8783 5fbd
00000330: b8c7 413d c585 1dbd 3982 aebd 6841 19bd
00000340: a84f 61bc 831f 323c 37df 02bd 2f0d 7abd
00000350: aa62 dfbb 6c30 64bd c548 a3bc 06b2 2ebd
00000360: d827 6e3c 352c 86bc f177 8c3d 836a 43bd
00000370: a4cc c0bc 9036 08bd 7d12 e7bd 8727 c7bb
00000380: 37e6 ecbc fd77 83bb e6fc b8bb 812a c4bc
00000390: 27a4 f9bc c721 9fbc b969 3c3c 06c7 ddbc
000003a0: d213 f13b bba4 88bc 4238 323c 4e9c e3bc
000003b0: b40c 463d 4797 0ebd 1810 e43c aba7 7d3a
000003c0: 1ded bbbd 99bb 00bd b91a a8bc e226 bcbb
000003d0: 6f3b aa3c 323e 2e3c b3a7 9bbd f097 0e3d
000003e0: 8877 25bd 6b08 193c 00b4 71bd b043 6b3c
000003f0: 9634 bebc 50bc 08bd 9136 43bd e845 b03c
-0.05282771 -0.037025146 0.011923116 -0.03414712 -0.014813927 -0.058696732 -0.011880599 -0.051180527
-0.040820226 -0.033415202 -0.025326278 -0.018185861 -0.012256196 0.0005763304 -0.123342216 -0.11888721
-0.0043399767 0.028885053 -0.025069445 -0.06973674 -0.076211184 -0.043312285 -0.076578796 -0.054042418
0.03634268 -0.04072548 0.0056821113 -0.026503205 -0.059061866 0.0047650477 -0.0059897713 -0.034399044
-0.06847497 -0.009590042 -0.01697899 -0.017781114 -0.05034918 -0.024859851 -0.0016155716 -0.036279514
0.0034880298 -0.06328608 0.0062059406 -0.059450664 0.06215994 -0.006494343 -0.03978257 0.0036307957
-0.09758387 -0.033284556 -0.039387163 -0.047205135 0.011786639 -0.013046297 -0.03460765 0.04938568
-0.032648664 -0.02047371 -0.035748504 -0.017117303 -0.001621674 -0.01862342 -0.04369398 0.0128675895
-0.08680553 -0.16944093 -0.005395332 -0.19080432 -0.09431342 -0.06428542 -0.034098897 -0.072971344
-0.0009366189 -0.063782446 0.007018783 -0.02676072 -0.19241764 -0.070630066 -0.07733269 -0.07233269
-0.15996073 -0.02497646 -0.040813286 -0.009220839 -0.15921135 -0.028771961 -0.074778184 -0.061572228
-0.09965098 -0.09403101 -0.1611404 -0.12620693 -0.09634393 -0.11406227 0.057711557 -0.08576545
-0.03956095 -0.106550254 -0.023212606 -0.034484174 -0.11455367 -0.055658985 0.0012133212 0.01843975
-0.139686 -0.12098594 -0.013192066 -0.10906324 -0.18709624 0.020686729 -0.1599018 -0.042329628
-0.011892054 0.0058214404 -0.055818144 -0.09268892 -0.056443177 -0.038920704 -0.012365519 -0.19253641
-0.09537595 -0.034441873 -0.07802225 -0.059444282 -0.056640334 -0.039657038 -0.011398844 -0.034596413
0.013962985 0.020453507 0.0030830116 0.03397345 0.008756138 0.017034652 0.0034143014 0.008001375
0.004593377 -0.008105905 -0.023197502 0.009553522 0.009742124 0.023527445 0.015556719 -0.021254377
-0.0029599755 0.00068500685 -0.011435322 -0.0037735112 0.014703369 -0.018704182 0.00037803242 0.045313
-0.07118517 -0.015015371 0.023746042 0.039898805 0.0044645104 0.009647415 0.040165406 0.020820133
0.025984772 0.03031682 -0.029131114 -0.020543275 -0.00577146 0.020521028 -0.0028057278 0.039619844
0.0068195416 0.005782836 0.06871289 0.005403594 0.021519441 0.052719206 0.00225633 -0.056965586
0.029314198 0.005762391 -0.03925353 -0.021520289 -0.07569342 -0.004511178 -0.0027204095 -0.01365449
-0.018510561 0.010894897 -0.012427565 -0.02218369 -0.02531744 0.0046106763 -0.0187353 0.008477623
-0.07715442 -0.06445333 -0.039753787 -0.028220829 -0.0422334 -0.053403504 -0.063291796 -0.027270108
-0.06317978 -0.043354835 0.0057783225 -0.054568794 0.047309607 -0.03845765 -0.08520932 -0.037415892
-0.013751902 0.010871771 -0.031951156 -0.06104773 -0.0068171816 -0.05571024 -0.01993216 -0.042650245
0.014535867 -0.016378501 0.068588145 -0.047709 -0.02353508 -0.03325516 -0.11282823 -0.00607771
-0.028918369 -0.0040121065 -0.005645382 -0.023946049 -0.030473782 -0.019425286 0.011499816 -0.02707244
0.007357099 -0.016680112 0.010877671 -0.027784493 0.04835196 -0.034812238 0.027839705 0.00096761686
-0.09176085 -0.031428907 -0.020520555 -0.00574194 0.020780293 0.010634946 -0.076003455 0.034812868
-0.040397197 0.009340386 -0.059009552 0.0143594 -0.023218434 -0.033382714 -0.04765946 0.021517709

head.net.0.weight f4 [1, 64]
00000000: c18d 173e ce4b 093e fae4 46bc 3829 2b3e
00000010: ce46 e23d ff35 22bc 7fa4 a0bd b0e6 473d
00000020: f1d0 bf3c d262 813c dbad 1abc cd09 603d
00000030: 202e 93be 2832 babd 7e3c 2b3c 9aec 39be
00000040: 291c 3cbe a125 49bd a19d 8fbc 51b3 98bd
00000050: 1982 3bbe d996 37bd 7435 2a3c 1f1b 04bd
00000060: 19f1 b2bd aace 863c c0a9 44be b964 893d
00000070: c450 98bd 8b04 0f3e 5944 9a3d 8a3b 9d3d
00000080: 8868 14bd d09e a2bd ec25 f7bc c5bd 86bd
00000090: a0f9 81bd f02f 3a3d e0dd 5bbd 44e9 91bd
000000a0: 9154 443e 761c 2e3e 6bf4 1c3d beaa 0b3e
000000b0: 7182 4b3e 7630 77bc 22bb 5a3e cf2d bcbc
000000c0: 8cc4 c53d f79f e63c b955 24bd 0fa9 953c
000000d0: 3fe9 60bd 15f7 853b c42d cfbc 5d87 83be
000000e0: 2720 78bd 1438 0f3d 2201 d23d 9e44 ea3b
000000f0: cb71 893d 01ad 153d 9bb0 c1bc c783 a23c
0.14800169 0.13407823 -0.012139553 0.16714942 0.11048661 -0.009900569 -0.07843875 0.048803985
0.02341506 0.015794192 -0.009440864 0.054696847 -0.28746128 -0.09091598 0.010451434 -0.18156663
-0.18370117 -0.04910815 -0.017531218 -0.07456077 -0.18311347 -0.044821594 0.010388721 -0.032252427
-0.08737392 0.016455967 -0.1920538 0.067086644 -0.0743728 0.13966577 0.075325675 0.07677372
-0.0362325 -0.07940447 -0.03016945 -0.065791644 -0.0634644 0.045455873 -0.053678393 -0.0712457
0.19172885 0.17003044 0.038319033 0.13639352 0.19873978 -0.015087238 0.21360448 -0.022971062
0.09656629 0.028152449 -0.040120814 0.01826909 -0.05490994 0.0040882924 -0.025290377 -0.2568921
-0.060577538 0.03496559 0.10254122 0.007149293 0.067111574 0.036541943 -0.023643782 0.019838227
