runs/02_lstm_10basin_huc01_best/model_epoch005.pt (torch, 80974 bytes, 5 tensors)

cell.w_hh f4 [256, 64]
00000000: cdc9 36bc cf6e 303e 92ce d43d 16ea 40be
00000010: f9a5 debd 1935 81bd 49a8 75be 3ee2 b53e
00000020: a66a 053e 6dd9 63be 7d3d e93d 8b8a b0ba
00000030: f9d9 373e eb09 96bc ce7b 92bd 8257 7d3d
00000040: 1b87 723e c1ff 4c3d 111e 4fbd b232 52be
00000050: bff5 89bd 0df6 ab3d ea6d 343d 0aea 013e
00000060: cd16 9ebc 9b07 94bd 6b1c 0c3e de72 e63d
00000070: 8ff3 40bd 2966 083e 24ba 493d 8f2b 573e
00000080: 96cb 3dbd 769e d9be d0c1 1c3d d5a5 2ebc
00000090: 36bd ec3d 3b28 35bd 02f6 8abd 370d 193e
000000a0: 6e98 3ebd fa41 0cbe 7a5f d23c 20ae 99be
000000b0: 465d 81be c42a 933c a796 553d 0c94 323d
000000c0: 7a87 343e 7aaa 17bd c571 163e 19a8 553e
000000d0: eb94 8dbd e289 4d3e 1546 a63d 6e6c 9ebd
000000e0: f18c 10be 01ad e0bd 234a 98bd 334a b63e
000000f0: 9806 563d beae b93d 8691 f9bd aa6d dabd
00000100: 39aa 7dbe b063 12be 408c 283e 00f4 87be
00000110: 5d04 933d f217 0a3d b3f7 50bd 4211 2f3c
00000120: 24ea 373c 3adc 83bd 795a 11be c353 be3d
00000130: 711b 68be 9b65 6abe 8f14 31bd 77ba 383d
00000140: 82d0 433e 6418 08bd 561b 07bd 60c0 c2bc
00000150: 1070 5dbd 330f 613d 888b faba 8791 583e
00000160: 31d4 b2bd 9ff0 f2bd f404 20bc 233e 783e
00000170: aee8 573e dac6 8abe 8f79 9bbd bce0 3ebe
00000180: 61a8 48be ea8c c9be 6a6f 49be 93ee aabc
00000190: 8a06 bfbb a186 e9bd db1e 21be b1f1 be3d
000001a0: 49e1 4ebd 91d5 5bbc 444a e63e caef 5abc
000001b0: 4f1a 0dbe 5f5f a2bd ac67 8dbd f4da 183d
000001c0: 372c 9d3e 88d5 a63e 8b45 dabd 8dc9 f1bb
000001d0: 5457 b9be d926 cbbd 3008 8dbd 0b5e 423d
000001e0: 5bc6 60be a81e 9ebe 48e2 763e c519 883e
000001f0: 3287 fc3e 6206 63be 63b8 3cbe 364d 723e
00000200: d2de 57be bf40 013e 7c42 a5bd 26ac 6a3c
00000210: 5b46 5bbd 8ec0 aebb 72f0 6bbe 1704 e7bd
00000220: a9d4 b6be 8f5b a1bc 06d2 56be 3aee 71bd
00000230: 7cb6 003d 8f4c a13d df00 843d 1536 15bd
00000240: 677a 1fbd 324d 81bd 42d2 003e 7665 493e
00000250: 8378 96be 9c3f 893d 91e0 f0bd e5ff 883e
00000260: e1fc a93e 9bf1 edbd 089c 2c3d fa71 28be
00000270: a8ae acbe 8a95 fb3d d46c 3a3d 8ae6 ae3d
00000280: 1354 08be 0871 743d 2854 6dbd f10c 793d
00000290: 533d 52be c9e3 223e 777c 4f3e 6350 71be
000002a0: 2039 2bbe 330d 5dbe 5960 863e 8f0c 4bbd
000002b0: 0cd1 c2bd 0119 b6bd 8af8 09be 52b9 b0bc
000002c0: af46 44bc c82d 833d 6be5 89bc aeec 04bd
000002d0: a838 f0bd d3d3 8a3d dbfa d0bc 5d02 6cbd
000002e0: 936f 8bbe b806 c2bc 5078 53be 1e5e 233e
000002f0: b745 07be 0c84 6e3e 9af1 e338 9ce7 133e
00000300: c6d6 713e 88dc c13d dfe3 7ebd be6f 21be
00000310: f67b 8a3d e2dc 123e ea6d a13c 7b6e 643d
00000320: 7bff e7bb 1f9b 063e 154d dc3c a870 3fbe
00000330: 17a6 693d 6e1c 8fbb f9c4 91be 8514 c7bd
00000340: df4a 063e 5a53 acbe 3b2b 8c3d 74cb 263e
00000350: 30e0 43bd c003 703d 5044 9a3c 4506 823d
00000360: 39cd 183e 7996 f0bd e997 16be b54a 133e
00000370: 8129 dc3d 42e0 933e dcf7 86be 7d23 4ebd
00000380: 5939 12be 9987 a9be aeb8 84be 6de2 163e
00000390: 4fdc 8cbc 8d19 c73d d080 863e 6fad c63e
000003a0: cb7f 453e 5e11 753d 38bf 9b3e 0771 4c3d
000003b0: b7e7 77bd 528a e93d b7e4 283e 5d4e f63c
000003c0: 3269 793e 3024 ac3e 6201 af3c 1d24 74be
000003d0: c47f f2bd d520 a83d f3bc cabd 3788 0c3e
000003e0: b101 cd3d 3bab 05be 0c3f 9f3d 5751 6b3e
000003f0: de51 433d 8e1b 1e3e 2965 2abd fb52 8e3c
-0.0111565115 0.1722977 0.10390963 -0.18839297 -0.108715005 -0.06308956 -0.23989977 0.35524172
0.13028964 -0.2225091 0.11388681 -0.0013469023 0.17954244 -0.018315276 -0.0715252 0.061851032
0.23684351 0.050048593 -0.050565783 -0.20527151 -0.067363255 0.0839654 0.044050135 0.12686935
-0.019297982 -0.07228013 0.13682716 0.11252378 -0.047107276 0.13320221 0.049249783 0.2101271
-0.046336733 -0.4250371 0.03827077 -0.010659655 0.115595266 -0.04422782 -0.067852035 0.14946447
-0.046532087 -0.13697043 0.025680292 -0.3001566 -0.25266474 0.017964728 0.052145626 0.04359822
0.17629805 -0.037027813 0.14691837 0.20864905 -0.069131695 0.2007213 0.08118836 -0.07735525
-0.14116265 -0.10970498 -0.074360155 0.35603485 0.052252382 0.090665326 -0.121859595 -0.10665448
-0.24771966 -0.1429584 0.16459751 -0.26553345 0.071785666 0.033714242 -0.051017474 0.010685267
0.011225257 -0.06438489 -0.14194669 0.0929332 -0.22666718 -0.22890322 -0.043232497 0.0450997
0.19122508 -0.033226386 -0.032985054 -0.023773372 -0.05406195 0.054946136 -0.001911507 0.21149264
-0.087318785 -0.11862301 -0.009766806 0.24242453 0.21084854 -0.27104837 -0.07591545 -0.18640417
-0.19595481 -0.3936532 -0.19671407 -0.020865714 -0.005829637 -0.114026316 -0.15734427 0.09323443
-0.050507817 -0.013417617 0.44978535 -0.013362834 -0.13779567 -0.07928347 -0.069045395 0.037318185
0.30697796 0.32584786 -0.106577955 -0.007378763 -0.3619944 -0.09919519 -0.06886327 0.047452968
-0.21950667 -0.30882764 0.24109757 0.2658216 0.49321896 -0.22170404 -0.18429713 0.23662266
-0.21081093 0.12622355 -0.080693215 0.01432327 -0.053533893 -0.005333013 -0.23040941 -0.11280077
-0.35709122 -0.019696979 -0.20978555 -0.05906508 0.03142403 0.078759305 0.06445479 -0.03642853
-0.03893509 -0.06313552 0.12580207 0.1966761 -0.29388818 0.06701586 -0.11761583 0.26757732
0.33200744 -0.11618348 0.04214099 -0.16449729 -0.33727002 0.12284382 0.045513943 0.085400656
-0.13313322 0.059678108 -0.057941586 0.060803358 -0.20531206 0.15907206 0.20262323 -0.23565821
-0.1672101 -0.21587066 0.26245382 -0.049572524 -0.09512529 -0.08891488 -0.13473716 -0.021572743
-0.011979743 0.064052165 -0.016833028 -0.032452278 -0.11729556 0.067786835 -0.025510242 -0.05761944
-0.27233562 -0.023684844 -0.20651364 0.15953872 -0.13210188 0.2329256 0.00010869205 0.1444382
0.23617086 0.09465891 -0.062229034 -0.15765283 0.06761925 0.14342073 0.019705731 0.055769425
-0.007080016 0.13145112 0.026892224 -0.18695319 0.05704316 -0.0043674028 -0.2847059 -0.09720711
0.13114499 -0.33657342 0.06844183 0.16288549 -0.047821224 0.058597326 0.018831402 0.06348852
0.14922036 -0.117474504 -0.14706387 0.14383967 0.10750104 0.28882033 -0.26360977 -0.050326813
-0.14279689 -0.33111265 -0.2592215 0.14734812 -0.017194895 0.0972167 0.2627015 0.38804194
0.1928703 0.059831016 0.30419326 0.04991248 -0.060523715 0.11403336 0.16493498 0.030066663
0.24356535 0.3362136 0.021362964 -0.23841901 -0.118407756 0.08209387 -0.098993205 0.13723837
0.10010088 -0.130536 0.07775697 0.22980247 0.047685497 0.15440199 -0.04160038 0.017373553

cell.w_ih f4 [256, 10]
00000000: e36b a43d 3d98 01be e4b5 6abd 1cf7 b3bd
00000010: 9dec c63b bcd7 d2bd 87d7 00be 3709 33bd
00000020: d9f0 573c bbc7 84bd 6e70 63bd 9be6 54be
00000030: 79f3 52bd 498d 913e 5892 dc3d 60c2 033d
00000040: e38b 013e ba58 903e 3b79 503e 44c4 783e
00000050: 83ea 0f3e 335c 993d d018 93be 1bc3 e53c
00000060: 81bd 8bbe d554 aabc 454a d1bc a416 08be
00000070: eb3e 80be a52b 1bbe 5457 b23e d6cc 9a3e
00000080: 7013 873e a455 683e 74c7 693e 5967 fd3d
00000090: 07be 92bd 8743 393d ea57 c0bd f904 20be
000000a0: d2c1 913e a938 91be 2dea ba3b 866a 403e
000000b0: cd95 873c 7058 763e 8e43 35be e748 c8bd
000000c0: c50c 36be e7f6 3b3e 5465 23bd 1748 733e
000000d0: cdd1 f43d 417d 893e 3623 0a3e 2781 d53d
000000e0: da76 d13d 5d33 d73d 892e 6d3c e5e2 d9bd
000000f0: 5534 203e 3d9b 96be 7372 efbd 10d0 61be
00000100: 1bda dcbd 1172 01be a46b c63d 4216 843d
00000110: b4bb 58bd d936 2d3e 7f9a 623e b0ca dbbd
00000120: 4630 193f 1c56 103f 7876 883e 07e5 ab3c
00000130: 22c7 a53e 5189 0ebc b824 85be 59b3 213e
00000140: aafe 363e 4bf6 75be 9857 a53a d9ec 563c
00000150: 6545 b6bc 5929 0dbc f06f 4ebe 3114 893e
00000160: eda6 23b9 a78a 793b 7405 4b3e 5e01 8c3e
00000170: 318e 303f 09b4 143f b3e0 9c3e fe31 243d
00000180: b883 f9bc 889c 4cbd 75e4 373e aedb 7a3e
00000190: baff 883d 4d86 8bbd 8719 6b3e 1c2f 933e
000001a0: ca06 103e 463f 53bd 9d98 34be 9906 40bc
000001b0: d3ac 2c3c 2f32 12bd c43a 2bbe 75d1 39be
000001c0: 6cc0 8d3e d8c3 ab3e 0b87 a83e 68a4 303e
000001d0: fa90 d2bd 3bcf c23d dbad 3b3e e188 e23d
000001e0: 37b3 823c c02d 893e c627 f7bd c0fb e43d
000001f0: 22ce 85bd 379f b7bd 067d dcbd e940 9bbd
00000200: a0f8 fa3d 6180 913e 3f91 8a3e 9cf4 373e
00000210: fb5c 323e 2917 88ba 5f3b e83d 4019 4bbe
00000220: 978a cebd 9ce2 b53c 3b93 bcbd 0a45 3c3e
00000230: 76a1 9b3d b1c7 87be ed00 89be 3e65 373d
00000240: ae41 26be adb4 ef3d 38b3 3a3e c601 fbbd
00000250: f5d5 e2bd 795d 013e 33ac 013f c39d 40be
00000260: 12f5 2a3e 4e7a d93e c2cd b93e 3e5b 9d3d
00000270: 5e4a de3d aa05 2d3e 28af 7f3e a439 8cbd
00000280: 250b 973e 45d3 ae3e 5cff 023f e00a 253e
00000290: 46d3 c8bc dfcd 6e3e f67c afbd 0d30 02be
000002a0: e783 3abe ffe5 403e 3898 4fbd c492 2ebe
000002b0: 44f9 243e 5be7 dabd 6c6a 583e b104 30bd
000002c0: 114c efbd 1806 c63c 431b 803e 0a3f c7bd
000002d0: 93b2 37be d5a4 843d eebe a9bd ccb7 433e
000002e0: 4c5a 843e 627d 3cbe f75a e8bd 2021 d03a
000002f0: c0ea 03bd 6b3a 1bbe 4330 c03c 93bc f0bd
00000300: 1287 15be a39b fbbd d9f1 95bd ee14 783e
00000310: 2ba1 803c 9460 943d 8b27 e8bd 6446 58be
00000320: 5942 a1bd 6a48 11be 190c 2ebe fc5a a0be
00000330: 9804 e1bd 5294 c53d de10 d3bd 68d3 093e
00000340: 466e 103e 6144 e9bd ab27 bb3d 3388 e83c
00000350: 2629 963e 0682 fc3c 5c46 7f3e 3575 69be
00000360: 8467 34be b664 453c b109 d23d c463 653e
00000370: 3bd2 dbbc f7db 4fbe e4e1 b93d 34ce b93e
00000380: 0381 b33e bea3 233e dafd cf3d 79d8 553e
00000390: 29c3 6c3c 9763 ecba d631 1e3d fb31 6e3e
000003a0: a603 78be fbfb 56be 46d0 c8bc 9a4f bd3c
000003b0: cab4 aabc dafb a4bd add5 e73d 2c7d b63c
000003c0: b618 b83c fbcf d0bd df88 f2bc 6e61 283d
000003d0: 9cc6 5e3e ada5 35be e361 1ebe 8320 47be
000003e0: 8d2c be3c f373 9c3d fcc2 b93e 505b 063e
000003f0: ee59 0c3f 3da7 ff3e 16fd 7a3e f898 13be
0.0802839 -0.1265573 -0.05730237 -0.08787367 0.006070687 -0.10295054 -0.12582217 -0.04370996
0.013179981 -0.06483408 -0.055527143 -0.20791094 -0.051501725 0.28428105 0.107701 0.032167792
0.12651019 0.28192693 0.20358746 0.2429362 0.14054303 0.07488289 -0.28729868 0.028047135
-0.27293018 -0.020792404 -0.02554811 -0.13289887 -0.25048003 -0.15153368 0.3483225 0.30234402
0.26382017 0.2268892 0.22829992 0.123732276 -0.07165151 0.045230415 -0.09391768 -0.15626897
0.28468186 -0.2836354 0.0057041855 0.18790635 0.016550923 0.24057174 -0.17701551 -0.0977953
-0.17778309 0.18355905 -0.039891556 0.23757969 0.11954079 0.26853374 0.13489994 0.104250245
0.10227747 0.10507844 0.014476427 -0.1063898 0.15644963 -0.29415312 -0.11691751 -0.22052026
-0.10783788 -0.12641169 0.096884996 0.06449558 -0.052913383 0.16915454 0.22129248 -0.10732019
0.59839284 0.5638139 0.26652884 0.020983232 0.3237849 -0.008699731 -0.26004577 0.15791072
0.17870584 -0.24019735 0.0012614606 0.013117992 -0.022249887 -0.008615815 -0.20159888 0.26773217
-0.00015607076 0.0038077028 0.19826299 0.27344793 0.68966967 0.5808721 0.30640182 0.04008674
-0.030458316 -0.049953967 0.17958243 0.24497864 0.06689401 -0.06812725 0.22958957 0.2874688
0.1406509 -0.051574014 -0.17636342 -0.011720323 0.010539251 -0.03569239 -0.16721636 -0.18146308
0.2768587 0.33547854 0.3291553 0.17250216 -0.10281558 0.09512182 0.1832804 0.11061264
0.015954597 0.26792717 -0.12068133 0.1118083 -0.06533457 -0.08965915 -0.10766034 -0.0758074
0.12254453 0.28418258 0.2706394 0.17964405 0.17418282 -0.0010382879 0.11339449 -0.19833851
-0.10085028 0.022202782 -0.092077695 0.18385711 0.075991556 -0.2651954 -0.2675852 0.044774286
-0.16235992 0.11704383 0.18232429 -0.12256198 -0.11075965 0.12633313 0.5065338 -0.18810181
0.1669505 0.42476124 0.36289793 0.07683419 0.10854028 0.16896692 0.2496916 -0.068469316
0.2950069 0.3414556 0.511709 0.1611743 -0.024514806 0.23320721 -0.08568756 -0.12713642
-0.18214379 0.18837737 -0.050682276 -0.17048174 0.16110712 -0.10688659 0.21134347 -0.042973224
-0.116844304 0.024172828 0.250208 -0.097288206 -0.17939214 0.06476752 -0.0828837 0.19113082
0.2585014 -0.18407205 -0.11345475 0.0015879013 -0.032206297 -0.15159003 0.023460513 -0.11754718
-0.14602306 -0.12285545 -0.073215194 0.24226734 0.01570185 0.07244983 -0.11335667 -0.21120602
-0.07873983 -0.1418778 -0.16996802 -0.31319416 -0.10987204 0.096474305 -0.103059515 0.13459551
0.14104566 -0.11389995 0.091384254 0.028385257 0.2932827 0.030823719 0.24929184 -0.22798617
-0.17617613 0.012047937 0.10255755 0.22401339 -0.026833644 -0.20298754 0.09076288 0.36290133
0.35059366 0.15980431 0.1015584 0.20883359 0.014450827 -0.0018035051 0.038621746 0.23261254
-0.24220142 -0.2099456 -0.024513375 0.023109246 -0.02083816 -0.080558494 0.11320052 0.022276483
0.02247272 -0.10195919 -0.02960628 0.04110854 0.21755451 -0.17738982 -0.15467028 -0.19445996
0.023214603 0.07639303 0.36281574 0.1312077 0.5482472 0.4993228 0.24510607 -0.14413822

cell.b_hh f4 [256]
00000000: 876b cebd d31e 8ebb 5c3a 96bc 0f97 9bbd
00000010: 49bf 39bd 240b d1bd eb1b 5cbe 6595 2abe
00000020: 0c33 d8bd dad1 60be 96ba 41be 5fd1 4dbc
00000030: babb fcbc 6374 b1bd 68b9 d6bd 9a6c 45bc
00000040: 2d54 5fbe 4472 eabd d974 0fbe ae31 31bd
00000050: 1019 03be ef3c 70bd a8bd 2cbe 4eec 2dbd
00000060: 2986 86bd 0eee 94be 82bf 0bbe eabe c3bd
00000070: f742 9bbd 0c18 53bd 72f0 8e3d 0f8c ddbd
00000080: 179f 88bd cf68 8dbe be8b 18bd 1c3c acbd
00000090: af04 7fbd 8279 d9bd 1e19 a5bd 6186 c5bc
000000a0: 574a 1cbc 47c3 b4bd 1eee 033d 9b67 49bd
000000b0: 4736 15be a269 7dbd 7a03 ddbd 67b4 1e3c
000000c0: 6880 68be 05d4 fcbd f995 93bd 3465 94bd
000000d0: 46ce 3dbe e29c 97bd c5d3 35bd 56cf aebd
000000e0: 2594 09be 7d7b 92bd 1bc3 babb 60f1 52be
000000f0: 7bdc f2bd 3d68 353d a327 0fbd c845 22bd
00000100: 2945 3140 9e1a 2940 0b13 4040 ab12 2e40
00000110: 0bfa 3b40 39df 3940 d4af 3f40 fbfb 2a40
00000120: 6fbf 2f40 49ae 2b40 ac17 3740 d04f 4040
00000130: 7f5a 3840 d7a6 3840 1db1 3a40 b177 3440
00000140: cdfa 2940 834d 3d40 f7b0 3e40 1ddd 3c40
00000150: 8a02 4040 f366 4240 3544 3a40 8f49 3d40
00000160: 3208 3d40 2f6a 2a40 b193 2640 9923 2e40
00000170: 4724 3740 fba8 4340 479a 2b40 ea66 3f40
00000180: b8e8 3240 9056 3340 19b4 3f40 3348 2f40
00000190: 4735 3b40 7ac0 4440 db62 3c40 ee84 2c40
000001a0: 74f1 3040 8857 4140 b659 3e40 dfa6 2f40
000001b0: 0312 3e40 602c 3640 e0d3 2e40 6b1e 3140
000001c0: 90b3 3440 3037 3640 0962 3640 e793 3f40
000001d0: 69f2 3640 1583 4040 4faf 3c40 16f5 4140
000001e0: 2cfc 3940 bd86 4440 b619 3540 7967 3140
000001f0: 30db 2940 e898 4440 07ba 3840 1062 3840
00000200: e727 82bd b0fe 763c 4239 e33d e62c 01bc
00000210: 2345 91bd 6cbd 2d3b b6b2 083a b0b1 2aba
00000220: f5c7 f13c cdd3 893c 3451 2c3d 23dd ee3d
00000230: e827 39bd 9579 073d a715 ab3d bcf7 b5bd
00000240: 8f85 33bd 968c a43c 4df6 9e3c 8917 0e3e
00000250: 100c 75bd bf8b 88bd ac8c 31bc 3695 3bbd
00000260: d1b5 f33c d2c6 32bc af49 8d3c f680 8dba
00000270: 6e8d 103d c445 66bd 50de 603d 97b7 2c3d
00000280: 637d fbba 698b fc3a 5324 9e3c 8dbf 4dbd
00000290: 65f5 543d 8aed 16bc 859a 46bd c3c9 babc
000002a0: 3d0d cc3b d623 903c bd84 9f3c 8169 5b3d
000002b0: ab2c 9e3d 55ea 4d3c b887 513d 8f9f 8f3d
000002c0: 32d5 72bc bae3 abbc f12b 7a3b 64f7 b93c
000002d0: b00a 38bd b84e 57bd e22f f83d 34d5 e73b
000002e0: 673f 5b3d 7366 10bd f8e7 a43d 0fe4 c2bb
000002f0: 9c3a 313d b771 b83c 957c 91bd baa1 303d
00000300: 78b7 71be 2036 eb3a 0bed c1bd 5e4b 5cbe
00000310: 5aad 023c b4f2 e6bd 4753 6fbe 7f3f 0cbe
00000320: 61b8 cabd aaf3 14be 1819 e0bd 3736 fe3c
00000330: be69 60bd 6539 d1bd 79b7 cfbd 43eb b9bc
00000340: 71a7 18be ba2d 4cbd 45f4 7dbe f64f 3dbd
00000350: 42c4 0fbd b836 ebba 7d75 06be 4170 34be
00000360: a379 5dbe 7cbf d33c c8b3 58bd e159 a1bd
00000370: 145d 49bd b846 d9bd 3f23 10be 27c4 39bd
00000380: 1266 d5bd 3acd 64be a878 8abe 4e63 74be
00000390: 2ebf 46bd c7bf fbbd 8e2c 09be b003 8f3c
000003a0: 4866 d5bd 66a8 1abe d527 9bbd 20fc 00bc
000003b0: a604 3fbd 278f d6bd 19b4 24be acf6 82be
000003c0: d945 f0bd f41b 0fbe 3e94 a6bd 5c9f a2bd
000003d0: da13 61be 5380 193d 4657 103d b4cc d3bd
000003e0: 5692 0abd f8a1 c8bc 5348 acbd 5a4f 35be
000003f0: c798 46bc 4ef0 39ba e98d 43be 5b48 48be
-0.10079103 -0.0043371706 -0.018338375 -0.075971715 -0.04534844 -0.10207203 -0.21495025 -0.16658552
-0.105566114 -0.21955052 -0.18918833 -0.012562125 -0.030851234 -0.08664777 -0.10484582 -0.012049818
-0.21809454 -0.11447576 -0.14009418 -0.04326027 -0.1280253 -0.05865186 -0.16869223 -0.042461686
-0.06568558 -0.2908787 -0.13647273 -0.09557898 -0.07581132 -0.051536605 0.06979455 -0.1081773
-0.06670969 -0.27619025 -0.037242644 -0.084099025 -0.062260326 -0.10618879 -0.08061431 -0.024111928
-0.009539208 -0.08826309 0.032209508 -0.04917107 -0.14571486 -0.061868317 -0.10791679 0.009686566
-0.22705233 -0.12345127 -0.072063394 -0.072458655 -0.18535718 -0.0740297 -0.044391412 -0.0853564
-0.13435419 -0.0715246 -0.005699528 -0.2059989 -0.118584596 0.044288862 -0.03494991 -0.03961733
2.7698462 2.6422496 3.0011623 2.7198894 2.9371364 2.9042494 2.9951067 2.6716297
2.7460592 2.6825125 2.8608198 3.0048714 2.8805234 2.885183 2.9170601 2.8198054
2.6559327 2.957856 2.979551 2.9509957 3.000155 3.0375335 2.910413 2.9576147
2.9536252 2.662731 2.6027644 2.7209227 2.8615892 3.0571887 2.6812913 2.9906564
2.795454 2.8021584 2.9953673 2.7387817 2.9251268 3.0742478 2.9435337 2.6956134
2.7647371 3.0209675 2.9742255 2.74456 2.9698493 2.8464584 2.7316818 2.7674816
2.8234596 2.8471184 2.8497336 2.9934022 2.8585455 3.0080006 2.9482 3.0305839
2.9060163 3.0707238 2.8296943 2.7719405 2.6540031 3.0718327 2.8863542 2.8809853
-0.06355267 0.015075371 0.110949054 -0.00788424 -0.07093265 0.002651061 0.0005214618 -0.0006511463
0.029514292 0.016824627 0.04206963 0.11663272 -0.045204073 0.033074934 0.08353739 -0.08885142
-0.043828543 0.020086568 0.019404555 0.13876165 -0.059825957 -0.066672795 -0.010836761 -0.045796596
0.029749783 -0.01091166 0.01724705 -0.001079588 0.035291128 -0.056218877 0.054899514 0.042167272
-0.0019187148 0.0019267622 0.01930443 -0.050231505 0.05199184 -0.009211907 -0.048487205 -0.022801286
0.006227164 0.017595213 0.019472474 0.053567413 0.077233635 0.012568076 0.051154822 0.07012855
-0.014821338 -0.020982612 0.0038173164 0.022700973 -0.044932067 -0.052565306 0.12118508 0.0070749763
0.053527262 -0.035253953 0.08052057 -0.005947597 0.043268785 0.022515161 -0.0710384 0.043122984
-0.23605144 0.0017945208 -0.094690405 -0.21513125 0.007975901 -0.11276761 -0.23371612 -0.13696097
-0.09898449 -0.14546075 -0.10942286 0.031031711 -0.054788344 -0.10216025 -0.101424165 -0.02269519
-0.14907624 -0.049848296 -0.24800213 -0.046218835 -0.035099275 -0.0017945385 -0.13130756 -0.17620946
-0.21628432 0.025848143 -0.052905828 -0.07878471 -0.04916103 -0.10609192 -0.14075945 -0.04535308
-0.10419859 -0.22343913 -0.27045178 -0.23866007 -0.048522167 -0.12292438 -0.13395903 0.017457813
-0.10419899 -0.15103301 -0.07575957 -0.007872611 -0.046635292 -0.10476523 -0.16084327 -0.2557882
-0.117320724 -0.13975507 -0.08133744 -0.07940552 -0.21980229 0.037475895 0.03523948 -0.103417784
-0.033830963 -0.024491295 -0.08412232 -0.17706051 -0.012121386 -0.0007092998 -0.19097103 -0.19558851

cell.b_ih f4 [256]
00000000: 876b cebd d31e 8ebb 5c3a 96bc 0f97 9bbd
00000010: 49bf 39bd 240b d1bd eb1b 5cbe 6595 2abe
00000020: 0c33 d8bd dad1 60be 96ba 41be 5fd1 4dbc
00000030: babb fcbc 6374 b1bd 68b9 d6bd 9a6c 45bc
00000040: 2d54 5fbe 4472 eabd d974 0fbe ae31 31bd
00000050: 1019 03be ef3c 70bd a8bd 2cbe 4eec 2dbd
00000060: 2986 86bd 0eee 94be 82bf 0bbe eabe c3bd
00000070: f742 9bbd 0c18 53bd 72f0 8e3d 0f8c ddbd
00000080: 179f 88bd cf68 8dbe be8b 18bd 1c3c acbd
00000090: af04 7fbd 8279 d9bd 1e19 a5bd 6186 c5bc
000000a0: 574a 1cbc 47c3 b4bd 1eee 033d 9b67 49bd
000000b0: 4736 15be a269 7dbd 7a03 ddbd 67b4 1e3c
000000c0: 6880 68be 05d4 fcbd f995 93bd 3465 94bd
000000d0: 46ce 3dbe e29c 97bd c5d3 35bd 56cf aebd
000000e0: 2594 09be 7d7b 92bd 1bc3 babb 60f1 52be
000000f0: 7bdc f2bd 3d68 353d a327 0fbd c845 22bd
00000100: bbad 6bbe 352a b7be 1e1a 983a 766a 8fbe
00000110: 9bc0 80bd f816 c4bd 279a a0bb 4020 a8be
00000120: d203 82be d28c a2be 8a85 0ebe 0488 9f3b
00000130: 8db4 f4bd 7621 ebbd 29d7 a9bd 3385 38be
00000140: 7629 b0be bb9f 2cbd ef89 a7bc dfc5 48bd
00000150: 94e7 2439 a5b9 193d 1477 b7bd 3b9d 2dbd
00000160: a5f6 3dbd 32ae acbe bf62 cbbe e4e3 8ebe
00000170: 8abf 0dbe 1b41 6a3d a92d a3be 4e25 19bc
00000180: bb74 51be 6194 4abe a08a 97bb f6bd 85be
00000190: 4c57 99bd 1912 983d 5d49 67bd 53d8 9bbe
000001a0: 70e7 70be 80bb ab3c 0b22 d3bc edc9 82be
000001b0: d7f3 f6bc 1d3a 1dbe cf60 89be 091c 6ebe
000001c0: d0c9 34be 628c 1cbe 66e0 19be 3457 d8bb
000001d0: 31da 10be edef 023c 272e 54bd 3597 fa3c
000001e0: 2f77 c0bd f6d5 903d 1564 2ebe 6886 69be
000001f0: d226 b1be 171e 933d 27bf e8bd babe f3bd
00000200: e727 82bd b0fe 763c 4239 e33d e62c 01bc
00000210: 2345 91bd 6cbd 2d3b b6b2 083a b0b1 2aba
00000220: f5c7 f13c cdd3 893c 3451 2c3d 23dd ee3d
00000230: e827 39bd 9579 073d a715 ab3d bcf7 b5bd
00000240: 8f85 33bd 968c a43c 4df6 9e3c 8917 0e3e
00000250: 100c 75bd bf8b 88bd ac8c 31bc 3695 3bbd
00000260: d1b5 f33c d2c6 32bc af49 8d3c f680 8dba
00000270: 6e8d 103d c445 66bd 50de 603d 97b7 2c3d
00000280: 637d fbba 698b fc3a 5324 9e3c 8dbf 4dbd
00000290: 65f5 543d 8aed 16bc 859a 46bd c3c9 babc
000002a0: 3d0d cc3b d623 903c bd84 9f3c 8169 5b3d
000002b0: ab2c 9e3d 55ea 4d3c b887 513d 8f9f 8f3d
000002c0: 32d5 72bc bae3 abbc f12b 7a3b 64f7 b93c
000002d0: b00a 38bd b84e 57bd e22f f83d 34d5 e73b
000002e0: 673f 5b3d 7366 10bd f8e7 a43d 0fe4 c2bb
000002f0: 9c3a 313d b771 b83c 957c 91bd baa1 303d
00000300: 78b7 71be 2036 eb3a 0bed c1bd 5e4b 5cbe
00000310: 5aad 023c b4f2 e6bd 4753 6fbe 7f3f 0cbe
00000320: 61b8 cabd aaf3 14be 1819 e0bd 3736 fe3c
00000330: be69 60bd 6539 d1bd 79b7 cfbd 43eb b9bc
00000340: 71a7 18be ba2d 4cbd 45f4 7dbe f64f 3dbd
00000350: 42c4 0fbd b836 ebba 7d75 06be 4170 34be
00000360: a379 5dbe 7cbf d33c c8b3 58bd e159 a1bd
00000370: 145d 49bd b846 d9bd 3f23 10be 27c4 39bd
00000380: 1266 d5bd 3acd 64be a878 8abe 4e63 74be
00000390: 2ebf 46bd c7bf fbbd 8e2c 09be b003 8f3c
000003a0: 4866 d5bd 66a8 1abe d527 9bbd 20fc 00bc
000003b0: a604 3fbd 278f d6bd 19b4 24be acf6 82be
000003c0: d945 f0bd f41b 0fbe 3e94 a6bd 5c9f a2bd
000003d0: da13 61be 5380 193d 4657 103d b4cc d3bd
000003e0: 5692 0abd f8a1 c8bc 5348 acbd 5a4f 35be
000003f0: c798 46bc 4ef0 39ba e98d 43be 5b48 48be
-0.10079103 -0.0043371706 -0.018338375 -0.075971715 -0.04534844 -0.10207203 -0.21495025 -0.16658552
-0.105566114 -0.21955052 -0.18918833 -0.012562125 -0.030851234 -0.08664777 -0.10484582 -0.012049818
-0.21809454 -0.11447576 -0.14009418 -0.04326027 -0.1280253 -0.05865186 -0.16869223 -0.042461686
-0.06568558 -0.2908787 -0.13647273 -0.09557898 -0.07581132 -0.051536605 0.06979455 -0.1081773
-0.06670969 -0.27619025 -0.037242644 -0.084099025 -0.062260326 -0.10618879 -0.08061431 -0.024111928
-0.009539208 -0.08826309 0.032209508 -0.04917107 -0.14571486 -0.061868317 -0.10791679 0.009686566
-0.22705233 -0.12345127 -0.072063394 -0.072458655 -0.18535718 -0.0740297 -0.044391412 -0.0853564
-0.13435419 -0.0715246 -0.005699528 -0.2059989 -0.118584596 0.044288862 -0.03494991 -0.03961733
-0.23015492 -0.3577439 0.0011604463 -0.2801091 -0.062867366 -0.095746934 -0.004901189 -0.32837105
-0.2539354 -0.31748062 -0.13918129 0.0048685092 -0.119485 -0.114809915 -0.08292992 -0.18019561
-0.34406632 -0.04214452 -0.020451514 -0.04901683 0.00015726528 0.03753056 -0.08958259 -0.042386275
-0.046377797 -0.3372665 -0.39723775 -0.27908242 -0.13842598 0.057190996 -0.31870773 -0.009347273
-0.20454685 -0.19783165 -0.0046246797 -0.2612149 -0.07487354 0.07425327 -0.05646645 -0.3043848
-0.23525786 0.02096343 -0.025773069 -0.25544682 -0.030145569 -0.153542 -0.26831672 -0.23252882
-0.1765511 -0.15287927 -0.15027007 -0.0066021923 -0.14145733 0.007991773 -0.051801827 0.03058968
-0.093977325 0.0707206 -0.17030366 -0.22805178 -0.3459993 0.071834736 -0.113645844 -0.119016126
-0.06355267 0.015075371 0.110949054 -0.00788424 -0.07093265 0.002651061 0.0005214618 -0.0006511463
0.029514292 0.016824627 0.04206963 0.11663272 -0.045204073 0.033074934 0.08353739 -0.08885142
-0.043828543 0.020086568 0.019404555 0.13876165 -0.059825957 -0.066672795 -0.010836761 -0.045796596
0.029749783 -0.01091166 0.01724705 -0.001079588 0.035291128 -0.056218877 0.054899514 0.042167272
-0.0019187148 0.0019267622 0.01930443 -0.050231505 0.05199184 -0.009211907 -0.048487205 -0.022801286
0.006227164 0.017595213 0.019472474 0.053567413 0.077233635 0.012568076 0.051154822 0.07012855
-0.014821338 -0.020982612 0.0038173164 0.022700973 -0.044932067 -0.052565306 0.12118508 0.0070749763
0.053527262 -0.035253953 0.08052057 -0.005947597 0.043268785 0.022515161 -0.0710384 0.043122984
-0.23605144 0.0017945208 -0.094690405 -0.21513125 0.007975901 -0.11276761 -0.23371612 -0.13696097
-0.09898449 -0.14546075 -0.10942286 0.031031711 -0.054788344 -0.10216025 -0.101424165 -0.02269519
-0.14907624 -0.049848296 -0.24800213 -0.046218835 -0.035099275 -0.0017945385 -0.13130756 -0.17620946
-0.21628432 0.025848143 -0.052905828 -0.07878471 -0.04916103 -0.10609192 -0.14075945 -0.04535308
-0.10419859 -0.22343913 -0.27045178 -0.23866007 -0.048522167 -0.12292438 -0.13395903 0.017457813
-0.10419899 -0.15103301 -0.07575957 -0.007872611 -0.046635292 -0.10476523 -0.16084327 -0.2557882
-0.117320724 -0.13975507 -0.08133744 -0.07940552 -0.21980229 0.037475895 0.03523948 -0.103417784
-0.033830963 -0.024491295 -0.08412232 -0.17706051 -0.012121386 -0.0007092998 -0.19097103 -0.19558851

head.net.0.weight f4 [1, 64]
00000000: dbe3 72be 820e 233e de07 c93c e6ad b4be
00000010: 8d18 783c 2224 4abc c29e a6be dba5 0e3f
00000020: 8487 433e fa62 0bbf b1bd 05bd 26a6 8dbb
00000030: 8987 27bd f28f c5bd 8bd9 3b3d c9cb 8abe
00000040: c419 113f 14ca 81bc f4b5 a2bd dbd0 613d
00000050: 4004 cbb6 5c03 623c 926f 05bc bcde e13c
00000060: 48c5 013e efef e6be 286c a53e 9ef1 c23e
00000070: 8884 b2bc 096f 90bc 0950 9b3e 1f44 32bc
00000080: c57f 13be 006f bbbe c6fb 1abe 879d f7be
00000090: 9255 8ebc 7442 523d aaff 09bd 9025 8f3c
000000a0: eac8 debd e3a3 c239 65c5 523d 11d0 d0be
000000b0: a59e 8abc 2389 3bbc 33c8 5b3e c0a5 ba3e
000000c0: 3f9d 243e dded 333e 27fb dc3c 2459 dfbb
000000d0: 6933 a5be ddd1 853c 7436 273c c165 05bc
000000e0: e725 89bc 6555 67bc 01d1 ad3d ae7b 9b3e
000000f0: db34 d93e f604 8a3c a708 5bbe 39a3 a2bd
-0.23719732 0.15923503 0.024539884 -0.35288924 0.015142572 -0.012337716 -0.32542998 0.55721825
0.19094664 -0.544479 -0.032651607 -0.004322785 -0.04090074 -0.09646596 0.045861762 -0.271086
0.5667994 -0.015843429 -0.07944861 0.05513082 -6.050366e-06 0.013794746 -0.008144276 0.027572028
0.12672913 -0.4510493 0.3230908 0.38074964 -0.021791711 -0.01763107 0.303345 -0.010880499
-0.14404209 -0.36608124 -0.15135106 -0.4836237 -0.017374787 0.051332906 -0.033691086 0.017473966
-0.10878165 0.0003712467 0.05145778 -0.40783742 -0.01692135 -0.01144627 0.21463089 0.36454582
0.1607561 0.17571206 0.026975228 -0.0068160463 -0.32265785 0.016335422 0.010205854 -0.008141936
-0.016741706 -0.014119481 0.0848713 0.30367798 0.42423138 0.016848069 -0.2139002 -0.079412885
