runs/_archive/lstm_camels_us_0312_020042/model_epoch001.pt (torch, 80974 bytes, 5 tensors)

cell.w_hh f4 [256, 64]
000000 e9 74 37 3e ec 77 e6 3d 1c 94 f7 3d 39 86 6d bd
       0.17915691 0.11253342 0.120887965 -0.057989333
000010 87 dd c4 3d 8a 39 ff 3d cb 02 bc 3d 61 75 28 be
       0.096125655 0.124621466 0.0918022 -0.16451026
000020 c0 02 f1 bd b8 2a a8 bd 3b 29 b7 3d 69 00 21 be
       -0.11768103 -0.08211273 0.08943411 -0.15722813
000030 2a 1e 4b be 86 ea 4a be f2 30 49 3e e1 8f 28 3d
       -0.19835725 -0.19816026 0.19647577 0.04115284
000040 8d 44 10 be 58 45 37 be b0 87 83 3d 86 a6 fc bd
       -0.1408865 -0.17897546 0.06422365 -0.12336449
000050 8a d0 7a bd 9e f4 a7 bd f3 0a 2d be d8 7e b8 3d
       -0.061234035 -0.08200954 -0.16898708 0.090085685
000060 a6 33 40 be 6c ef 5b 3d 43 60 ef 3c 98 99 99 bd
       -0.18769702 0.053695127 0.029220706 -0.07499999
000070 a4 f0 59 be 1e 34 b3 bd d9 e5 27 3e 5a 24 41 3e
       -0.21283203 -0.08750175 0.16396274 0.18861523
000080 99 82 4b 3e ac 7f 5f bc bd 77 45 be a1 e4 57 be
       0.19874038 -0.013641279 -0.19283958 -0.21083309
000090 eb 85 1e be 7c d0 07 bd de 61 cb bc c1 ac 15 3d
       -0.15480773 -0.03315781 -0.02482694 0.036541704
0000a0 bc a3 8f bd c8 2a f6 3d 99 84 f3 bd fb 07 71 3e
       -0.07013652 0.120198786 -0.11890525 0.235382
0000b0 14 73 75 3e 8b 15 f1 bd d5 72 0d be e5 1f 19 3e
       0.2396968 -0.11771687 -0.13813336 0.14953573
0000c0 8f 23 da bd 4b 8a b6 3d f2 0e af 39 0f 3d f7 bd
       -0.106513135 0.08913096 0.00033389736 -0.12072193
0000d0 eb 37 a6 bc f4 8d 2c 3e 60 00 2a bd ea a6 1b be
       -0.020290336 0.16851026 -0.041504264 -0.15200391
0000e0 9c 69 5b 3c 9c 59 13 3e ac 5a 4e 3d e6 79 7c 3d
       0.013391878 0.14389652 0.05037944 0.06163969
0000f0 e4 58 20 3e 74 5e 1d be 85 9f 58 3e 3f dc ab bd
       0.15658909 -0.15368062 0.21154602 -0.08391618
000100 8b 2b 20 be cc 74 e5 bd 27 d0 c9 3d 26 c7 6a 3e
       -0.1564161 -0.11203918 0.09854155 0.22927532
000110 b8 24 7f 3e cf e6 9e bd 42 fb e6 bd ef 2c 88 3c
       0.24916351 -0.07758867 -0.112783924 0.016622989
000120 13 d5 27 be 24 7c 75 bc ad 27 96 3d 4d 6b 46 3e
       -0.16389875 -0.014983211 0.07331786 0.1937687
000130 3c b7 2d 3e 1e 85 8e 3d 61 23 9c bd 03 bb d6 3c
       0.1696443 0.06958984 -0.076239355 0.026212221
000140 dd 9d 0f be f9 74 f2 bd d4 49 a4 3c 75 1f ef bd
       -0.14025064 -0.11838717 0.020054735 -0.11675922
000150 fd 50 1e 3c b7 e2 4d 3e 44 e1 36 be 1d 58 75 bc
       0.009662864 0.20106016 -0.1785937 -0.014974621
000160 a7 30 e4 bd 8b 48 32 be 32 b2 0f 3c 1b 3b 9c bd
       -0.11142092 -0.17410485 0.008770512 -0.07628461
000170 10 1c 45 bd 7e 6d e9 3a 21 bf 73 3d b7 c1 58 3e
       -0.048122466 0.001780912 0.059508447 0.21167646
000180 53 02 27 3e 99 9f 41 3e 5c bd 02 3e 49 41 e2 3d
       0.1630948 0.18908538 0.12767547 0.110476084
000190 c3 90 c6 bd 35 af 19 be d1 4a c2 3d 44 6d 03 3e
       -0.0969558 -0.15008242 0.09486926 0.1283465
0001a0 1d c6 1d bd dd cc e0 3c 94 b8 6c bd 37 db b2 bd
       -0.038519014 0.027441436 -0.057793215 -0.08733218
0001b0 c6 b8 46 3e 3b bc 10 be b1 62 a0 3c b6 cd 63 be
       0.19406423 -0.14134304 0.01957831 -0.22246441
0001c0 ce 5f 0c 3e a9 1a d3 3d 32 6a c1 3d f6 5e f2 bd
       0.13708422 0.103078194 0.09444083 -0.118345186
0001d0 64 2b 30 be 6a 73 1c be 95 be 24 be 30 1f 1c bc
       -0.17204052 -0.15278402 -0.16088326 -0.00952892
0001e0 02 32 4e 3d 40 a6 67 3c fb 06 78 bd 3b b6 c3 3d
       0.05034066 0.014138758 -0.060553532 0.09556242
0001f0 93 dc 0a 3c b8 46 24 be 37 81 1c be 53 22 97 3d
       0.008475441 -0.16042602 -0.15283667 0.07379594
000200 a4 19 27 be 48 4f d5 3d 27 f4 aa 3c f9 35 e2 3d
       -0.16318375 0.10415512 0.020868374 0.11045451
000210 ce 3a ec 3d 5d a9 9c 3d cc 42 11 bd 62 4e 20 be
       0.115346536 0.07649491 -0.035464093 -0.156549
000220 1b da 5c be 8d 0c 5a bd 04 48 18 3e 14 e4 0c be
       -0.21567576 -0.053234626 0.14871222 -0.1375888
000230 33 52 1a 3e 65 0e 1c 3e c1 e1 0d 3e d5 8a 0d be
       0.15070419 0.15239866 0.1385565 -0.13822491
000240 6f 67 29 3e 3f c3 5a be 7a ad bf bd 16 95 64 be
       0.16543363 -0.21363543 -0.0935926 -0.22322497
000250 d9 ca be bc 80 52 ab 3d 96 bf 59 bd ed 9b 9d 3d
       -0.023290085 0.08365345 -0.053161226 0.07695756
000260 47 2f 81 3d 79 23 03 bd 90 1b 87 3d 2f 86 2f bd
       0.063078456 -0.03201625 0.06597054 -0.042852577
000270 44 27 79 bd 96 7d ef 3d 8c 04 81 bd f4 42 09 be
       -0.060828462 0.116938755 -0.062996954 -0.13404447
000280 91 44 1c be 1c 15 23 bd 00 10 1d bd ce e4 4d 3e
       -0.15260531 -0.039815053 -0.038345337 0.20106813
000290 fd 86 e1 3d 0b 3b b7 3d 9b b5 03 3e 10 25 a9 3d
       0.11012075 0.089468084 0.12862246 0.08259022
0002a0 ce e3 3f bd 14 9a df 3b d2 f9 ea 3d 9a 1d 59 bd
       -0.04684811 0.0068237875 0.11473431 -0.053006746
0002b0 75 23 6c 3d 2a 7c 29 be d6 1e 25 bd 50 0c 72 3b
       0.057651002 -0.16551271 -0.04031261 0.0036933608
0002c0 69 d2 e5 3d 0d e7 18 be 18 4f 15 3e 06 8a 8f bd
       0.11221773 -0.14931889 0.14580953 -0.07008748
0002d0 64 ae ce 3d 3f 02 23 3c 0a 31 28 be d2 50 11 be
       0.10091856 0.009949266 -0.16424957 -0.14190987
0002e0 57 01 0d 3e e5 f5 34 be 27 ef b4 3d 93 63 b4 3d
       0.13770042 -0.17671926 0.08834677 0.08808055
0002f0 4c 05 23 3e 6a a1 47 3d a0 6f 05 be 6d 13 8e bc
       0.1591999 0.04873792 -0.13030863 -0.017343247
000300 d1 4e 4f 3d aa 10 f9 3d 4e 1b e1 bd 16 e2 dd 3d
       0.050612275 0.121613815 -0.10991536 0.10834138
000310 14 fa 78 be f2 66 61 be ec dc 43 be 43 72 d3 3d
       -0.24314147 -0.22011927 -0.19127244 0.10324528
000320 00 e4 41 3d e5 ce 1a 3e ae a1 21 be d7 ca fd bd
       0.04733658 0.15117987 -0.15784332 -0.12392204
000330 36 6e 44 3d c7 58 ed bd 40 52 72 3e d5 1f 98 bd
       0.047956668 -0.115891986 0.23664188 -0.074279465
000340 65 17 aa 3d 5a d5 03 3e 80 c4 10 3e 27 00 93 bd
       0.083052434 0.12874356 0.14137459 -0.071777634
000350 78 16 0c be 65 e2 2f be 03 75 d4 3d 2c e3 1f be
       -0.13680446 -0.17176206 0.10373881 -0.15614003
000360 53 99 8f 3d 63 74 fc bd 0e cb db bd a2 16 3b bc
       0.07011666 -0.123268865 -0.10732089 -0.01141897
000370 ac eb 15 be 2d 48 ba 3d 76 28 fe bc b8 c9 7c bd
       -0.14640683 0.09095798 -0.031025153 -0.06171581
000380 9e b3 58 3d 18 64 38 be 90 c3 70 3c 8b 05 3b be
       0.05290567 -0.18006933 0.014695063 -0.18263833
000390 76 3e 61 be 3a 2e 12 3e 13 06 f0 3d f7 e8 b6 bd
       -0.21996483 0.14275447 0.117199086 -0.08931153
0003a0 76 87 ea bb b4 4a c0 3c c5 6e 47 3e 52 4f 56 3e
       -0.0071572615 0.023473121 0.19475849 0.20928696
0003b0 97 aa 64 3e 07 97 7e bd 20 a3 1a 3e a7 f4 cf 3c
       0.223307 -0.06215575 0.1510129 0.025385214
0003c0 71 11 f5 bc e2 a9 c0 3b 9c ca a4 3d 35 ae 3a 3e
       -0.029915543 0.0058796266 0.08046457 0.18230517
0003d0 dc e2 d8 3d 8f 08 13 3e ef 8a f0 3d 6a 4b 08 bb
       0.10590145 0.14358734 0.117452495 -0.0020796903
0003e0 a9 44 34 be ac 64 a5 bd 50 c3 1d 3e c3 89 3f 3c
       -0.17604317 -0.08075842 0.15406537 0.01169056
0003f0 a3 07 ec bd 82 ef 48 3e b1 a4 49 be d4 bb 21 be
       -0.11524894 0.19622615 -0.19691731 -0.15794307

cell.w_ih f4 [256, 10]
000000 60 91 a7 bd 0c 9c 37 be ca 27 ca 3d 40 eb 44 3e
       -0.08182025 -0.17930621 0.098708704 0.19230366
000010 d2 e8 ff 3d c3 33 63 3e e9 7f 0a be af 47 25 be
       0.12495579 0.22187714 -0.13525356 -0.16140626
000020 dd be 98 bd de 80 a0 bd 3e 32 b9 3c da 0a 6d be
       -0.07458279 -0.078370795 0.022606965 -0.23148671
000030 7c 7a fe 3d 66 03 ae 3d 3b e4 0b 3e f5 95 38 3e
       0.12425706 0.08496742 0.13661282 0.18025954
000040 e5 0f 38 3e 48 8f ac 3d 3b d6 fc bd 6f 7b 38 3e
       0.17974813 0.08425766 -0.12345549 0.18015836
000050 60 47 61 be 7e 5e 54 3e 81 a4 43 be 56 45 85 bd
       -0.21999884 0.20739171 -0.19105722 -0.065073654
000060 86 d2 ac bd 28 58 0d 3e 17 09 ed bd 76 35 e0 bd
       -0.08438592 0.1380316 -0.115739994 -0.10947697
000070 3b dc 11 be 50 02 3a be 39 e3 80 bd 15 c8 0f be
       -0.14244168 -0.18164945 -0.06293339 -0.14041169
000080 94 71 2f 3e 6d 86 92 bc 87 ad 1a 3d 61 89 f0 bc
       0.1713317 -0.017886365 0.037763145 -0.029362382
000090 fa 32 c9 3d 98 bc 5a be 90 a7 90 3d 62 c7 43 3d
       0.09824176 -0.21361005 0.0706321 0.04779757
0000a0 aa ae 57 3d 61 52 8a bd ba f7 6a be b0 48 00 be
       0.052656807 -0.06753994 -0.22946063 -0.12527728
0000b0 e3 4b 81 3d 7c 05 3b 3e ce 82 3a 3e 42 2b b0 3d
       0.06313302 0.18263811 0.1821396 0.08602001
0000c0 3b 0a 36 3e 92 cf e5 3d 36 2c 1c bd 05 dd 41 3e
       0.1777734 0.112212315 -0.0381281 0.18931969
0000d0 aa ab 0b 3e 5c d5 23 3e 0a d5 49 3e 6d e4 eb bd
       0.13639703 0.15999359 0.19710174 -0.11518178
0000e0 eb 58 6a 3e e6 36 47 be 7c cd e2 3d a6 ab 75 3c
       0.22885482 -0.19454536 0.11074349 0.014994537
0000f0 42 cc 1b be bb d2 26 be f0 ae b3 3d 24 1f 15 bd
       -0.15214637 -0.16291325 0.08773601 -0.03640665
000100 8c 25 b3 bd a2 db 91 bd 2b b9 dc 3d a2 4f 7c bd
       -0.08747396 -0.0712197 0.107775055 -0.06159938
000110 e2 d3 2a 3e 6d de e2 bc 06 92 6b bd 11 3c 3f be
       0.1668239 -0.027693952 -0.057512306 -0.18675257
000120 9e f3 36 be d8 ad 43 3e c0 0a 18 be 4b 37 e2 3d
       -0.1786637 0.19109285 -0.14847851 0.110457025
000130 f3 8d 37 be 1e ed a8 3d 9d c7 44 3e 22 ae 88 3d
       -0.17925243 0.082483515 0.19216771 0.06673838
000140 7a 24 82 be 7b 21 5c be 52 b4 09 3e 80 86 8d bd
       -0.25418454 -0.21497147 0.13447693 -0.069104195
000150 d3 9f 21 3e 09 9c d0 3d 7b 48 0f bd c1 45 1b be
       0.15783624 0.10186011 -0.034981232 -0.15163328
000160 1f f2 41 3c 56 69 e6 3d cb 43 2b 3e 9b 21 16 3e
       0.011837511 0.1125056 0.1672508 0.14661257
000170 92 30 09 3e c3 d1 aa bd df e6 56 3e 56 09 b4 3d
       0.13397434 -0.0834079 0.20986508 0.08790843
000180 9f da 1c 3d 49 a2 1a be af 85 03 3e 34 9d 5f 3d
       0.03829443 -0.1510097 0.12843965 0.05459328
000190 9c d2 4f 3e 9f 8f 00 3d d3 16 28 3e 05 d5 1f 3d
       0.20295185 0.031386968 0.16414957 0.03902151
0001a0 54 69 57 bc f8 18 cf 3d af 3d 33 bc 5f c1 b5 3c
       -0.013147671 0.10112184 -0.0109399995 0.022186933
0001b0 f2 76 08 bd 1c e8 4c 3e 5d 8e 35 3c 45 73 02 be
       -0.03331656 0.20010418 0.011081305 -0.12739284
0001c0 1a 14 57 bd 4b 7b 31 3e 44 a5 16 bd a3 ff 36 3e
       -0.052509405 0.17332189 -0.036778703 0.17870955
0001d0 f7 40 0c 3e 92 38 f1 bd ae 0a 38 bd a2 bb 24 be
       0.13696657 -0.11778368 -0.04493206 -0.16087201
0001e0 28 aa aa 3e e4 43 68 bc bd 1c 0b bc 70 b3 99 bd
       0.33332944 -0.014176343 -0.008490738 -0.07504928
0001f0 00 b7 e5 3d e4 fd 68 bd 57 98 27 be 8d dd bd bd
       0.11216545 -0.056882754 -0.16366707 -0.09270773
000200 34 3f 34 3e 5d 26 91 bb 0d ce 0b bc 4f a4 50 be
       0.17602235 -0.004429622 -0.008533013 -0.20375179
000210 2a 16 7f bd 0c 11 dd bb e6 09 6a 3d 22 d8 1d be
       -0.062276997 -0.006746417 0.057138346 -0.1541448
000220 9f 8c fd 3d 87 82 f3 3c 48 85 05 be ee a3 bc 3d
       0.12380337 0.029725326 -0.13039124 0.092109546
000230 95 94 e3 3c 06 40 41 be 3d 76 da 3d 5b e9 1a 3d
       0.02778081 -0.18872079 0.106670834 0.0378202
000240 88 f2 eb 3d a6 d0 13 3e d8 95 06 be 33 63 90 bd
       0.115208685 0.14435062 -0.13143098 -0.07050171
000250 ad e3 3a be 2b a6 49 3d 70 d2 03 3e 8c 46 47 be
       -0.18250914 0.049230736 0.12873244 -0.19460505
000260 68 df 05 3e 06 c7 7b 3d 08 4a b9 3d a2 e6 fe bb
       0.13073504 0.0614691 0.090473235 -0.0077789584
000270 37 0e 25 3e f5 e5 23 3d 21 fd f9 bd b9 61 38 3e
       0.16118704 0.040014226 -0.12206484 0.18006028
000280 bd 78 d4 3d 8c 2a f6 3d 16 cf 8d bd 4e 30 73 bd
       0.103745915 0.12019834 -0.06924264 -0.05937224
000290 f3 20 61 3e 64 2e 32 be f2 31 2a 3e aa 75 0d be
       0.21985225 -0.17400509 0.16620615 -0.13814417
0002a0 78 62 e9 bd 7e bd 1c 3e 79 a6 22 be 75 15 59 be
       -0.113957345 0.1530666 -0.15883817 -0.21199591
0002b0 cd 69 4a 3d c4 5a 43 3e 3b f3 a2 bb 9e 21 c8 3b
       0.049417306 0.19077593 -0.004972843 0.006107523
0002c0 b5 a3 7a 3b dd 5c e3 3d c9 ec 6a bd 07 ca 8b 3d
       0.003824455 0.11101697 -0.057354722 0.06825643
0002d0 63 3a be 3d 3f 65 21 3d 6f 4e e8 3d 80 6e 25 bb
       0.0928848 0.039403196 0.11343085 -0.0025242865
0002e0 61 e6 13 3e 45 19 2b 3c 00 73 c2 bd 88 97 12 3e
       0.14443351 0.010443036 -0.09494591 0.14315617
0002f0 c7 3c d4 bd ae b8 42 be f1 22 9f bd e2 40 f0 bd
       -0.10363155 -0.19015762 -0.077703364 -0.117311254
000300 8e 98 4a be c6 52 55 be cc 4a 92 3d 28 12 20 3b
       -0.19784757 -0.20832357 0.071431726 0.0024424884
000310 d4 d9 87 3d 66 ac b5 bd ca 92 80 bd 2f 25 7d be
       0.06633344 -0.08870773 -0.06277998 -0.24721216
000320 f8 6c 65 3e f0 af a4 3d 56 ca fa 3d ce c8 2d 3e
       0.2240485 0.0804137 0.12245624 0.16971132
000330 6a 84 09 3e ac 42 8f 3d b1 b7 59 be 91 24 32 3c
       0.13429418 0.069951385 -0.21261479 0.010872976
000340 53 63 62 be 37 d4 70 bd af 46 1a 3e 1f 14 74 3e
       -0.22108202 -0.058796134 0.15066026 0.238358
000350 63 e0 b9 3c fe 45 ba 3d c0 b9 25 3d dc 22 bb bd
       0.022690004 0.09095381 0.040460348 -0.09137508
000360 83 60 81 bc af 6c 20 3e 5a 61 42 bc df 27 06 3d
       -0.01579309 0.1566646 -0.011864031 0.032752868
000370 5b 33 c6 bd c3 96 3c be 99 c5 79 3e d8 63 18 be
       -0.09677764 -0.18416886 0.24391784 -0.14881837
000380 2b 7e 13 be 50 96 e3 bd 22 06 31 3d bf 73 04 be
       -0.14403598 -0.11112654 0.04321874 -0.12934779
000390 c0 b6 d3 bd 2a a2 68 be 25 7e 3a 3e 97 67 ad bd
       -0.10337591 -0.2271811 0.18212183 -0.08467024
0003a0 85 ba 77 3e 51 20 8a 3e fe f8 fd 3d 90 c4 6a be
       0.24192245 0.2697778 0.12401007 -0.22926545
0003b0 b3 40 c4 3d 09 56 14 bd 70 7a 7a 3e 2b ff 1e be
       0.09582653 -0.036214862 0.24460769 -0.15527026
0003c0 08 82 00 be 62 58 17 3e 40 2f a6 3d a6 5f e6 3d
       -0.12549603 0.14779809 0.08114481 0.11248712
0003d0 3f 91 70 3d db 11 80 3d d6 7d 28 be 53 7c 31 be
       0.058732267 0.06253406 -0.16454253 -0.17332582
0003e0 9d 55 20 3e 74 78 91 3d 2e 67 fe bd b5 ed 0d 3e
       0.15657659 0.07103053 -0.12422024 0.1386021
0003f0 4b 51 1e 3e 35 82 2d 3e 74 23 80 bd 58 46 30 3e
       0.15460698 0.16944201 -0.06256762 0.17214334

cell.b_hh f4 [256]
000000 74 03 06 bd f4 6a 86 bc 00 3d ed 3b 5f d5 b9 bc
       -0.032718137 -0.016408421 0.007239938 -0.022684751
000010 63 8f 87 bc 0d 56 ea bc 20 83 38 bc ab 61 e1 3b
       -0.016547864 -0.028605485 -0.011261731 0.006878098
000020 e4 90 0e bd e1 5c 8d bc 2d ae 61 bc 50 59 93 bc
       -0.034806147 -0.017256202 -0.013774437 -0.017986923
000030 86 07 12 bc 5a d6 d4 bc 88 9e 99 bd bb 2b 8c bd
       -0.008912927 -0.025981117 -0.075009406 -0.068442784
000040 b1 ce cd 3a de e4 06 bc 51 57 83 bc a4 73 4a bd
       0.0015701858 -0.008233277 -0.016032847 -0.04942669
000050 67 cc 2e bd 4f 64 d2 bc d3 6e 1b bd f6 18 22 bd
       -0.042675402 -0.025682596 -0.037947487 -0.039574586
000060 27 89 56 3c f6 4b d6 bc 02 36 72 3c aa 64 85 bc
       0.013094223 -0.026159268 0.014783384 -0.016283352
000070 d1 d4 19 bd f1 30 21 3c e8 23 a7 3b 01 f9 7b bc
       -0.037556473 0.009838329 0.005100716 -0.015379191
000080 37 c2 1d bd 76 53 01 3c 32 c5 41 3b 74 da 34 bb
       -0.038515296 0.007893434 0.0029567 -0.0027596029
000090 56 80 ef bc 76 dc fc bb 6c 73 60 3c 42 00 b3 bc
       -0.029236 -0.0077167107 0.013699394 -0.021850709
0000a0 87 c9 51 3c 02 73 b5 bc 93 30 43 3b 29 a5 03 bd
       0.0128043955 -0.022149567 0.002978359 -0.03213993
0000b0 f6 b6 f0 3c e3 3b f7 bb b5 77 0c bd 16 69 94 3a
       0.029384118 -0.007544981 -0.03429385 0.0011322822
0000c0 7f f5 63 bd 8c f4 b2 bc 2a 6b 47 bc ec ae 3a bd
       -0.055654045 -0.021845125 -0.012171546 -0.045576975
0000d0 61 aa 85 3b 9e 47 8e bb e0 35 9a bc 90 a5 7c 3c
       0.0040791486 -0.0043420335 -0.018824518 0.015420333
0000e0 a9 54 b4 bc 0a e0 af bc 40 e4 a0 bc 41 4b 6b bc
       -0.022013025 -0.021469135 -0.019640088 -0.014361204
0000f0 f2 bc e1 3b 00 60 97 bc 53 d2 c2 bb ec 65 86 3b
       0.006888979 -0.018478394 -0.0059454828 0.0041015055
000100 8b ee 3c 40 a6 e3 38 40 91 e7 40 40 ff ba 39 40
       2.9520595 2.8888946 3.0141337 2.9020383
000110 53 5a 3e 40 2e 68 3e 40 40 67 3d 40 21 2c 3f 40
       2.974263 2.9751086 2.9594269 2.9870684
000120 ab e3 3f 40 4f 17 3d 40 a1 c0 3f 40 f1 3b 3f 40
       2.9982708 2.9545476 2.9961321 2.9880335
000130 2c 04 38 40 1b d9 3c 40 d8 3b 3d 40 8d 57 3d 40
       2.8752546 2.950751 2.9567776 2.9584687
000140 7b d0 3b 40 1c 40 3f 40 97 96 3f 40 8f fa 40 40
       2.9345996 2.988288 2.9935663 3.015293
000150 03 bd 38 40 dc 24 3f 40 ef 20 3d 40 74 f6 3c 40
       2.8865364 2.9866247 2.955135 2.9525423
000160 80 6f 3d 40 82 90 3b 40 1c 05 3b 40 e5 e0 3b 40
       2.9599304 2.930695 2.9221869 2.9356015
000170 b7 09 3d 40 9b e1 3c 40 17 b2 43 40 27 a4 3d 40
       2.953718 2.9512699 3.0577447 2.963144
000180 5a 46 3f 40 90 53 3d 40 8b 0d 40 40 d0 c9 3f 40
       2.988669 2.9582253 3.0008266 2.9966927
000190 2c 7c 3c 40 62 d8 3e 40 4d 53 40 40 86 51 41 40
       2.9450788 2.981957 3.0050843 3.0206008
0001a0 b4 dc 3b 40 11 9f 3a 40 7a ab 3e 40 01 78 3d 40
       2.9353456 2.9159586 2.979216 2.9604495
0001b0 39 40 3a 40 a0 af 40 40 c3 cf 39 40 b6 a2 3d 40
       2.9101698 3.0107193 2.9033058 2.963056
0001c0 6c de 40 40 6d 2a 40 40 10 c1 3e 40 c5 13 3b 40
       3.0135756 3.0025895 2.9805336 2.9230816
0001d0 73 d6 3e 40 bd 7e 3d 40 e1 63 40 40 df ce 37 40
       2.981839 2.9608605 3.0060961 2.8720014
0001e0 fa de 3c 40 58 a5 3d 40 97 96 3d 40 06 6c 3d 40
       2.9511094 2.9632168 2.9623163 2.9597182
0001f0 b6 8b 3d 40 70 94 3e 40 c6 f0 40 40 4d a5 3e 40
       2.9616523 2.97781 3.0146956 2.9788392
000200 70 fe 4b 3c a6 e3 87 3c 69 2c 7e 3c 98 bf 0a 3d
       0.012450799 0.016588043 0.015513518 0.033874124
000210 a5 e2 85 3b ae fb 42 3c 5b 9f ff bb a4 d1 14 3b
       0.004085856 0.011900825 -0.007800979 0.0022707963
000220 5d 7e 99 3b 2f bf 55 3a 1b 60 87 bc ba 64 bb 3a
       0.004684253 0.0008153794 -0.016525319 0.0014296987
000230 79 7d 11 bc 96 85 7d 3c f9 ad 71 3c 31 ff da bc
       -0.008880013 0.015473744 0.014750951 -0.026733013
000240 fe 7d 8a bb ce 1f a5 3b c8 8b 18 bc f3 d6 20 3b
       -0.004226445 0.005039192 -0.00931067 0.0024542182
000250 06 39 30 3c 74 5c 79 bc 7a b9 b1 3b 25 e0 d3 3c
       0.010755783 -0.015219796 0.005423722 0.025863716
000260 c7 d4 7a bd 00 45 92 bb 42 64 0a 3c 43 19 d6 3c
       -0.061238077 -0.004463792 0.008446755 0.026135093
000270 f2 07 93 3a 88 91 e6 3b ff 62 f4 3c f4 d8 8e 3c
       0.0011217578 0.0070363916 0.029832361 0.017437436
000280 8d 96 a2 3c e5 eb bf 3c e4 79 a9 bc 17 c7 23 bc
       0.019847179 0.023427913 -0.020688005 -0.009996197
000290 78 eb b5 bb f3 d9 2f 3c fb 87 df 39 1f c4 00 3d
       -0.0055517517 0.0107331155 0.00042635188 0.031437036
0002a0 ae 66 1f 3c 73 32 38 3c de 97 27 3d 3c d4 7b 3c
       0.009729071 0.011242497 0.040916316 0.015370425
0002b0 8c a5 ec 3c 6f 2c 0c 3d b5 5d 2c 3c 64 8d 31 bd
       0.028887533 0.034222063 0.010520388 -0.04334773
0002c0 47 70 0a 3d 30 f9 45 3c c1 4e d8 bc 1e f9 d7 bc
       0.033798482 0.012083337 -0.02640474 -0.026363906
0002d0 d8 7b 63 bd e8 b9 28 3b 6f b3 48 bc de 97 aa bc
       -0.05553803 0.0025745574 -0.012249812 -0.020824369
0002e0 d2 00 92 bc 78 ff 08 3c 37 ee d5 bb ad e1 ab bc
       -0.017822657 0.00836169 -0.0065286416 -0.020981634
0002f0 70 d1 b6 bc f6 8b 80 bb 55 c1 44 bc 1a 46 ab bb
       -0.022316664 -0.0039229346 -0.012008985 -0.0052268626
000300 da 19 c6 bc 8b cf db bc 4a 8c dd bc 82 c4 77 b9
       -0.024182249 -0.026832363 -0.027044434 -0.0002362896
000310 8a 36 c8 bc c4 d9 18 bd e1 b5 1d bd 27 8b 20 3c
       -0.024440069 -0.037317052 -0.03850353 0.0097988015
000320 8b 96 54 bd d6 8d e0 bc 19 aa d6 3b e3 79 10 bd
       -0.05190138 -0.027411383 0.006551039 -0.03527249
000330 98 0a 48 3d 93 f6 dc bc a5 f0 39 bd 83 65 78 bc
       0.048838228 -0.026973044 -0.045395512 -0.015160921
000340 ea 4b 22 3c 2d e4 d6 bb e1 45 ae bc 13 50 56 bd
       0.009905795 -0.0065579624 -0.021273555 -0.05232246
000350 10 49 fc 3c 9e 7c 1a bd 30 88 fa ba d6 9d 2b bc
       0.030796558 -0.0377165 -0.0019114073 -0.010474643
000360 bf 9c 2e 3b 1c 8e 2b bc 2e 61 40 3d fb ce 0c bd
       0.002664372 -0.010470893 0.046967678 -0.03437708
000370 d7 c1 3c bc 4d 39 f4 3b fd 54 a2 bd f2 8c a2 3b
       -0.011520824 0.00745312 -0.079263665 0.0049606496
000380 10 2c ae bc 00 ed aa 3b 06 ea f8 3b d7 1a 21 bc
       -0.021261245 0.005216241 0.007596257 -0.009833059
000390 8e 10 b3 bb 9a 57 45 ba 35 bd d0 ba 73 48 ba bc
       -0.00546462 -0.0007528007 -0.0015925529 -0.022739625
0003a0 44 d1 4d 3c 3e f2 a9 3c 32 ea c5 3a 28 96 be bb
       0.0125621 0.020745393 0.0015099703 -0.00581624
0003b0 d8 c6 43 3d 1a e1 0d bd 22 20 00 3d 5b 81 07 3c
       0.047797054 -0.0346385 0.031280644 0.008270587
0003c0 78 79 2d bd b2 1b b1 bc 0e e1 0c bc 02 cc b0 bc
       -0.04235217 -0.021619651 -0.008598579 -0.021581654
0003d0 65 70 9f 3c d6 ba 6a 3b d3 89 29 bd 05 ea 2b 3d
       0.019462774 0.003581693 -0.041391205 0.041971225
0003e0 58 55 85 bc 25 93 da bb c6 65 ac bc b5 4e 0f bc
       -0.016276047 -0.006670373 -0.021044623 -0.008746793
0003f0 b3 3d ed bc 3f 76 df bc bf 3b 87 bc e7 2f ae 3c
       -0.028960085 -0.027278064 -0.016507981 0.021263076

cell.b_ih f4 [256]
000000 74 03 06 bd f4 6a 86 bc 00 3d ed 3b 5f d5 b9 bc
       -0.032718137 -0.016408421 0.007239938 -0.022684751
000010 63 8f 87 bc 0d 56 ea bc 20 83 38 bc ab 61 e1 3b
       -0.016547864 -0.028605485 -0.011261731 0.006878098
000020 e4 90 0e bd e1 5c 8d bc 2d ae 61 bc 50 59 93 bc
       -0.034806147 -0.017256202 -0.013774437 -0.017986923
000030 86 07 12 bc 5a d6 d4 bc 88 9e 99 bd bb 2b 8c bd
       -0.008912927 -0.025981117 -0.075009406 -0.068442784
000040 b1 ce cd 3a de e4 06 bc 51 57 83 bc a4 73 4a bd
       0.0015701858 -0.008233277 -0.016032847 -0.04942669
000050 67 cc 2e bd 4f 64 d2 bc d3 6e 1b bd f6 18 22 bd
       -0.042675402 -0.025682596 -0.037947487 -0.039574586
000060 27 89 56 3c f6 4b d6 bc 02 36 72 3c aa 64 85 bc
       0.013094223 -0.026159268 0.014783384 -0.016283352
000070 d1 d4 19 bd f1 30 21 3c e8 23 a7 3b 01 f9 7b bc
       -0.037556473 0.009838329 0.005100716 -0.015379191
000080 37 c2 1d bd 76 53 01 3c 32 c5 41 3b 74 da 34 bb
       -0.038515296 0.007893434 0.0029567 -0.0027596029
000090 56 80 ef bc 76 dc fc bb 6c 73 60 3c 42 00 b3 bc
       -0.029236 -0.0077167107 0.013699394 -0.021850709
0000a0 87 c9 51 3c 02 73 b5 bc 93 30 43 3b 29 a5 03 bd
       0.0128043955 -0.022149567 0.002978359 -0.03213993
0000b0 f6 b6 f0 3c e3 3b f7 bb b5 77 0c bd 16 69 94 3a
       0.029384118 -0.007544981 -0.03429385 0.0011322822
0000c0 7f f5 63 bd 8c f4 b2 bc 2a 6b 47 bc ec ae 3a bd
       -0.055654045 -0.021845125 -0.012171546 -0.045576975
0000d0 61 aa 85 3b 9e 47 8e bb e0 35 9a bc 90 a5 7c 3c
       0.0040791486 -0.0043420335 -0.018824518 0.015420333
0000e0 a9 54 b4 bc 0a e0 af bc 40 e4 a0 bc 41 4b 6b bc
       -0.022013025 -0.021469135 -0.019640088 -0.014361204
0000f0 f2 bc e1 3b 00 60 97 bc 53 d2 c2 bb ec 65 86 3b
       0.006888979 -0.018478394 -0.0059454828 0.0041015055
000100 f4 5c 44 bd 8c 8b e3 bd 83 93 67 3c 19 a0 c8 bd
       -0.04794021 -0.11110601 0.014134291 -0.09796161
000110 91 d7 d2 bc 5e ea cb bc c0 30 26 bd f6 d9 53 bc
       -0.025737556 -0.024892028 -0.040573835 -0.012930384
000120 90 98 e2 ba 2a 2d 3a bd f9 6c 7d bb b5 0c 44 bc
       -0.0017287899 -0.045453228 -0.003866969 -0.01196592
000130 9d 7a ff bd 12 b9 49 bd 06 08 31 bd ed 1d 2a bd
       -0.124745585 -0.049248762 -0.043220542 -0.041532446
000140 fe f0 85 bd b1 de 3f bc ff e1 d2 bb b7 91 7a 3c
       -0.06540106 -0.011710809 -0.0064356322 0.01529353
000150 1b 61 e8 bd 47 2a 5b bc e5 c2 37 bd e1 62 42 bd
       -0.113466464 -0.013376779 -0.0448636 -0.04745758
000160 0e 1f 24 bd 95 ef 8d bd 97 5c 9f bd 0d e3 83 bd
       -0.04006868 -0.06930462 -0.07781332 -0.06439791
000170 fd 92 3d bd f1 9a 47 bd ce 82 6c 3d c1 f7 16 bd
       -0.046282757 -0.048731748 0.057741933 -0.03685737
000180 be a2 39 bc 7b 1c 2b bd 78 e1 58 3a 50 b8 58 bb
       -0.011330305 -0.041775208 0.00082733436 -0.0033068843
000190 0e f6 60 bd a6 cc 93 bc 24 96 a6 3b 99 c3 a8 3c
       -0.054922156 -0.01804192 0.005083816 0.02060108
0001a0 85 68 84 bd c6 1d ac bd 2f 44 aa bc 72 01 22 bd
       -0.06465248 -0.08404116 -0.020784466 -0.03955216
0001b0 01 fa b7 bd c3 a2 2f 3c 6a 08 c6 bd 59 51 17 bd
       -0.08983231 0.010719958 -0.096695736 -0.036942814
0001c0 5d 6c 5e 3c 48 be 29 3b 34 7a 9f bc 73 88 9d bd
       0.0135756405 0.002590077 -0.01946745 -0.07692041
0001d0 5b c5 94 bc d7 50 20 bd 2c bf c7 3b a9 11 03 be
       -0.018160513 -0.039139595 0.0060957875 -0.12799706
0001e0 d7 42 48 bd 87 a7 16 bd 5a 5a 1a bd 09 fe 24 bd
       -0.04889187 -0.03678086 -0.037683822 -0.04028133
0001f0 07 14 1d bd c0 ca b5 bc 68 cb 70 3c 78 5a ad bc
       -0.038349178 -0.022191405 0.014696933 -0.021161303
000200 70 fe 4b 3c a6 e3 87 3c 69 2c 7e 3c 98 bf 0a 3d
       0.012450799 0.016588043 0.015513518 0.033874124
000210 a5 e2 85 3b ae fb 42 3c 5b 9f ff bb a4 d1 14 3b
       0.004085856 0.011900825 -0.007800979 0.0022707963
000220 5d 7e 99 3b 2f bf 55 3a 1b 60 87 bc ba 64 bb 3a
       0.004684253 0.0008153794 -0.016525319 0.0014296987
000230 79 7d 11 bc 96 85 7d 3c f9 ad 71 3c 31 ff da bc
       -0.008880013 0.015473744 0.014750951 -0.026733013
000240 fe 7d 8a bb ce 1f a5 3b c8 8b 18 bc f3 d6 20 3b
       -0.004226445 0.005039192 -0.00931067 0.0024542182
000250 06 39 30 3c 74 5c 79 bc 7a b9 b1 3b 25 e0 d3 3c
       0.010755783 -0.015219796 0.005423722 0.025863716
000260 c7 d4 7a bd 00 45 92 bb 42 64 0a 3c 43 19 d6 3c
       -0.061238077 -0.004463792 0.008446755 0.026135093
000270 f2 07 93 3a 88 91 e6 3b ff 62 f4 3c f4 d8 8e 3c
       0.0011217578 0.0070363916 0.029832361 0.017437436
000280 8d 96 a2 3c e5 eb bf 3c e4 79 a9 bc 17 c7 23 bc
       0.019847179 0.023427913 -0.020688005 -0.009996197
000290 78 eb b5 bb f3 d9 2f 3c fb 87 df 39 1f c4 00 3d
       -0.0055517517 0.0107331155 0.00042635188 0.031437036
0002a0 ae 66 1f 3c 73 32 38 3c de 97 27 3d 3c d4 7b 3c
       0.009729071 0.011242497 0.040916316 0.015370425
0002b0 8c a5 ec 3c 6f 2c 0c 3d b5 5d 2c 3c 64 8d 31 bd
       0.028887533 0.034222063 0.010520388 -0.04334773
0002c0 47 70 0a 3d 30 f9 45 3c c1 4e d8 bc 1e f9 d7 bc
       0.033798482 0.012083337 -0.02640474 -0.026363906
0002d0 d8 7b 63 bd e8 b9 28 3b 6f b3 48 bc de 97 aa bc
       -0.05553803 0.0025745574 -0.012249812 -0.020824369
0002e0 d2 00 92 bc 78 ff 08 3c 37 ee d5 bb ad e1 ab bc
       -0.017822657 0.00836169 -0.0065286416 -0.020981634
0002f0 70 d1 b6 bc f6 8b 80 bb 55 c1 44 bc 1a 46 ab bb
       -0.022316664 -0.0039229346 -0.012008985 -0.0052268626
000300 da 19 c6 bc 8b cf db bc 4a 8c dd bc 82 c4 77 b9
       -0.024182249 -0.026832363 -0.027044434 -0.0002362896
000310 8a 36 c8 bc c4 d9 18 bd e1 b5 1d bd 27 8b 20 3c
       -0.024440069 -0.037317052 -0.03850353 0.0097988015
000320 8b 96 54 bd d6 8d e0 bc 19 aa d6 3b e3 79 10 bd
       -0.05190138 -0.027411383 0.006551039 -0.03527249
000330 98 0a 48 3d 93 f6 dc bc a5 f0 39 bd 83 65 78 bc
       0.048838228 -0.026973044 -0.045395512 -0.015160921
000340 ea 4b 22 3c 2d e4 d6 bb e1 45 ae bc 13 50 56 bd
       0.009905795 -0.0065579624 -0.021273555 -0.05232246
000350 10 49 fc 3c 9e 7c 1a bd 30 88 fa ba d6 9d 2b bc
       0.030796558 -0.0377165 -0.0019114073 -0.010474643
000360 bf 9c 2e 3b 1c 8e 2b bc 2e 61 40 3d fb ce 0c bd
       0.002664372 -0.010470893 0.046967678 -0.03437708
000370 d7 c1 3c bc 4d 39 f4 3b fd 54 a2 bd f2 8c a2 3b
       -0.011520824 0.00745312 -0.079263665 0.0049606496
000380 10 2c ae bc 00 ed aa 3b 06 ea f8 3b d7 1a 21 bc
       -0.021261245 0.005216241 0.007596257 -0.009833059
000390 8e 10 b3 bb 9a 57 45 ba 35 bd d0 ba 73 48 ba bc
       -0.00546462 -0.0007528007 -0.0015925529 -0.022739625
0003a0 44 d1 4d 3c 3e f2 a9 3c 32 ea c5 3a 28 96 be bb
       0.0125621 0.020745393 0.0015099703 -0.00581624
0003b0 d8 c6 43 3d 1a e1 0d bd 22 20 00 3d 5b 81 07 3c
       0.047797054 -0.0346385 0.031280644 0.008270587
0003c0 78 79 2d bd b2 1b b1 bc 0e e1 0c bc 02 cc b0 bc
       -0.04235217 -0.021619651 -0.008598579 -0.021581654
0003d0 65 70 9f 3c d6 ba 6a 3b d3 89 29 bd 05 ea 2b 3d
       0.019462774 0.003581693 -0.041391205 0.041971225
0003e0 58 55 85 bc 25 93 da bb c6 65 ac bc b5 4e 0f bc
       -0.016276047 -0.006670373 -0.021044623 -0.008746793
0003f0 b3 3d ed bc 3f 76 df bc bf 3b 87 bc e7 2f ae 3c
       -0.028960085 -0.027278064 -0.016507981 0.021263076

head.net.0.weight f4 [1, 64]
000000 ab f2 f2 3d e4 51 c9 3d 61 2e 1f bd c9 53 c1 3d
       0.118626915 0.098300725 -0.03886259 0.09439809
000010 0b 62 d3 3d fe fc b3 bc cc 67 b1 bd 57 bc 2d 3d
       0.103214346 -0.021971222 -0.08662376 0.042415943
000020 2d 47 2a 3d 10 db 0c 3d 61 ca 08 3b 8c 8f 78 3d
       0.041571785 0.0343886 0.002087258 0.060683772
000030 5f d2 57 be c3 a6 04 bd 59 15 63 bb b5 13 04 be
       -0.21076344 -0.0323856 -0.0034650175 -0.12898143
000040 6c cc dc bd 9e 0c 81 bc 1f da 24 bc 46 80 98 bd
       -0.10781178 -0.015753087 -0.01006177 -0.07446341
000050 e9 16 0c be c8 4b f7 bc ad f4 35 bb fd b6 81 bd
       -0.13680615 -0.030187503 -0.0027764246 -0.0633373
000060 db ff 75 bd 3d 9b 3f 3d a7 64 10 be 3c 74 f8 3c
       -0.060058456 0.046778906 -0.14100896 0.030328862
000070 c3 57 9f bd 8d be a4 3d c0 f4 85 3d 0c a3 43 3d
       -0.07780411 0.08044157 0.06540823 0.047762915
000080 0a c0 5d bd 4e ab 08 bd e2 cb 1b 3a 17 25 4e bd
       -0.05413822 -0.033366494 0.00059431617 -0.05032834
000090 5f 3c 7d bd 80 83 00 3d b8 4c 4c bd 22 e7 c9 bd
       -0.061825152 0.03137541 -0.049877852 -0.09858538
0000a0 1b 53 08 3e 4c 9c 0a 3e d8 20 25 3d b7 54 bf 3d
       0.13312952 0.13536185 0.040314525 0.0934233
0000b0 e8 13 e7 3d a3 8d 9e bc 95 47 17 3e 24 40 f8 3b
       0.11283094 -0.019354647 0.147734 0.0075760055
0000c0 6b 0d b8 3d 67 37 98 3c 6e a2 fb bc c5 00 4b 3d
       0.08986934 0.018581105 -0.030717101 0.04956128
0000d0 aa 2e 60 bc 00 3b f6 ba 61 71 0c bd 52 3f 2c be
       -0.013683001 -0.0018785894 -0.034287814 -0.1682103
0000e0 e3 1a 02 bd c5 fc e0 3b ef 5c 09 3e 4f 96 8d 3c
       -0.031763922 0.00686607 0.13414358 0.017283587
0000f0 ad 50 90 3d a6 ec 80 3c 54 32 5a bc 8a cf 8b 3c
       0.07046638 0.015737843 -0.013317663 0.017066736
