runs/_archive/lstm_camels_us_0312_020042/model_epoch003.pt (torch, 80974 bytes, 5 tensors)

cell.w_hh f4 [256, 64]
0	0x3e3d09e5	0.18460806
1	0x3e1b2d41	0.15153982
2	0x3e036d10	0.12834573
3	0xbcbec684	-0.023288019
4	0x3e0b6e7e	0.13616368
5	0x3df7b38e	0.12094794
6	0x3d879cd2	0.06621708
7	0xbe177d54	-0.14793903
8	0xbdd91fb0	-0.10601747
9	0xbd9548f0	-0.07289302
10	0x3df5d475	0.120034136
11	0xbde9e6fc	-0.1142101
12	0xbe784ed4	-0.2424882
13	0xbe6c12d0	-0.23054051
14	0x3e1eb6af	0.15499376
15	0x3caf2021	0.021377625
16	0xbe3e7f9d	-0.18603368
17	0xbe75c26a	-0.23999944
18	0x3d9351b8	0.07193321
19	0xbe0872cf	-0.13325046
20	0xbda740f5	-0.081666864
21	0xbdb601f1	-0.08887089
22	0xbe12fdca	-0.14354625
23	0x3de8ba97	0.11363714
24	0xbe6e0937	-0.23245703
25	0x3d846211	0.06464017
26	0xbc1334dc	-0.008984771
27	0xbd40ac7f	-0.047039505
28	0xbe6e577c	-0.2327556
29	0xbd0fa244	-0.035066858
30	0x3e3d43d3	0.18482904
31	0x3e55a637	0.20864187
32	0x3e3a6245	0.1820155
33	0xbd208ed0	-0.039198697
34	0xbe5bdd93	-0.21471243
35	0xbe814ace	-0.25252384
36	0xbe4dd92a	-0.20102373
37	0x3adcf8f8	0.0016858866
38	0xbd17e864	-0.03708686
39	0x3cca5ca9	0.024702387
40	0xbce9845b	-0.028505495
41	0x3e27c88b	0.16385095
42	0xbe127ebb	-0.14306156
43	0x3e9247b4	0.2857033
44	0x3e99c6c4	0.3003446
45	0xbe016267	-0.12635194
46	0xbd8427a2	-0.06452872
47	0x3e305992	0.17221668
48	0xbd878650	-0.06617415
49	0x3db31f5a	0.08746214
50	0xbc282d7f	-0.010264753
51	0xbdeb1698	-0.11478919
52	0xbd3a6a75	-0.04551168
53	0x3e56a1c8	0.20960152
54	0xbd4e2a99	-0.050333593
55	0xbe627ca2	-0.22117856
56	0xbd26f010	-0.040756285
57	0x3e1ff822	0.15621999
58	0x3d31f265	0.043444056
59	0x3d13df8d	0.036101867
60	0x3e41e6d3	0.18935709
61	0xbe02d112	-0.12775066
62	0x3e4530a3	0.19256835
63	0xbd97f64e	-0.07420026
64	0xbe11cc43	-0.14238076
65	0xbdd391e4	-0.10330561
66	0x3d8ecfa2	0.069731966
67	0x3e851e45	0.25999656
68	0x3eb3176f	0.34978816
69	0xbdf65562	-0.12028004
70	0xbe0e1340	-0.13874531
71	0x3cfc7d99	0.030821608
72	0xbe13f90a	-0.1445047
73	0x3c7cafa5	0.015422736
74	0x3deee2ba	0.116643384
75	0x3e6a97a7	0.22909413
76	0x3de41fed	0.11138902
77	0xbd75f732	-0.060050197
78	0xbd862d0b	-0.0655156
79	0xbdc15d7e	-0.0944166
80	0xbe725197	-0.23663937
81	0xbe1ded69	-0.15422596
82	0x3cd7c0ec	0.02633711
83	0xbe4a52c4	-0.19758135
84	0xbc96384a	-0.018337388
85	0x3e36db45	0.17857082
86	0xbe25f333	-0.16206054
87	0xbdb3d523	-0.08780887
88	0xbe5318f7	-0.20614992
89	0xbe0ff12d	-0.14056845
90	0xbd3149c1	-0.043283228
91	0xbdbb1698	-0.09135169
92	0xbd7ec530	-0.06219977
93	0x3db0d724	0.08634785
94	0x3e03e2cd	0.12879486
95	0x3e90d743	0.28289232
96	0x3de28550	0.110605836
97	0x3dd6f18b	0.104952894
98	0x3dfd5389	0.12369449
99	0x3d42520d	0.04744153
100	0xbe0750e1	-0.13214447
101	0xbe0ec744	-0.13943201
102	0x3d1927bf	0.03739142
103	0x3d48a1c4	0.048982397
104	0x3c95b8db	0.018276623
105	0x3de095a6	0.10966043
106	0xbdebdfd8	-0.11517304
107	0xbd9f6dec	-0.07784638
108	0x3e8dbf9d	0.27685252
109	0xbe376c46	-0.17912397
110	0x3df89cdd	0.12139294
111	0xbe526eaa	-0.20550027
112	0x3e5db4a6	0.21650943
113	0x3dfd8f41	0.12380839
114	0x3df5ef6a	0.12008555
115	0xbdb0a072	-0.086243525
116	0xbe678fc9	-0.22613443
117	0xbdc2dc5c	-0.095146865
118	0xbe2cfa23	-0.16892295
119	0xbe1043ad	-0.14088316
120	0x3b0ee4f8	0.0021803956
121	0x3c3ece5c	0.01164588
122	0x3bf09416	0.007341872
123	0x3d61416a	0.054994024
124	0x3d71f720	0.059073567
125	0xbde49856	-0.11161868
126	0xbe29b035	-0.16571124
127	0x3dba9c97	0.091118984
128	0xbdfbadcb	-0.12289008
129	0x3e0b8d4a	0.13628116
130	0x3d02e860	0.03195989
131	0x3e10ef35	0.1415375
132	0x3e124818	0.14285314
133	0x3de4e20e	0.11175929
134	0xbd59987c	-0.053123936
135	0xbe09f0c6	-0.13470754
136	0xbe647d7e	-0.22313496
137	0xbd0b2b17	-0.03397664
138	0x3e13bb8c	0.14427012
139	0xbe026de0	-0.12737226
140	0x3e125f2e	0.1429412
141	0x3e046628	0.12929595
142	0x3e05f002	0.13079837
143	0xbe20585e	-0.1565871
144	0x3e19f48e	0.15034696
145	0xbe669346	-0.22517118
146	0xbd9396e2	-0.07206513
147	0xbe68d6b2	-0.2273815
148	0xbd2b31c2	-0.0417955
149	0x3da05235	0.0782818
150	0xbd1d32a6	-0.03837838
151	0x3d8686fd	0.06568716
152	0x3d068e83	0.032850754
153	0xbd40dea7	-0.047087338
154	0x3da61c30	0.08110845
155	0xbcd0f868	-0.025509074
156	0xbd9ecee1	-0.07754303
157	0x3e1593da	0.14607182
158	0xbd2555b1	-0.040364925
159	0xbdd03551	-0.10166419
160	0xbe1fb258	-0.15595376
161	0xbd74502f	-0.05964678
162	0xbd140cc0	-0.03614497
163	0x3e43c3dd	0.19117685
164	0x3db8308d	0.08993635
165	0x3dfbab20	0.12288499
166	0x3df14176	0.11780064
167	0x3d854124	0.06506565
168	0xbd35039b	-0.04419289
169	0x3d15e0dd	0.0365914
170	0x3dddb6b8	0.108258665
171	0xbd1b408d	-0.037903357
172	0x3d66a4c0	0.05630946
173	0xbe0b17c9	-0.13583292
174	0xbcaa2914	-0.02077154
175	0x3a0bba0c	0.00053301523
176	0x3e07dd75	0.13268073
177	0xbdf149a4	-0.11781624
178	0x3e06edb3	0.13176613
179	0xbdae3493	-0.085061215
180	0x3d968d01	0.07351113
181	0x3d04c0df	0.0324105
182	0xbe280c01	-0.16410829
183	0xbe13e24c	-0.14441794
184	0x3df19268	0.11795503
185	0xbe135993	-0.14389639
186	0x3dcb8a9c	0.09938547
187	0x3d9f7d11	0.077875264
188	0x3e181678	0.14852321
189	0x3d965488	0.07340342
190	0xbe16f1f2	-0.14740732
191	0xbd3df3a5	-0.046374936
192	0x3d579bbe	0.05263876
193	0x3e1921ea	0.14954343
194	0xbdbe2a46	-0.09285407
195	0x3ddf59ef	0.10905825
196	0xbe3d192d	-0.18466635
197	0xbe61dfe0	-0.22058058
198	0xbe56aabf	-0.20963572
199	0x3e09cf7a	0.13458052
200	0x3dcf071b	0.10108777
201	0x3e198c79	0.14994992
202	0xbde426f6	-0.11140244
203	0x3c0f2b94	0.008738417
204	0xbc5a4e5f	-0.013324349
205	0xbe5fca91	-0.21854617
206	0x3e33aeb3	0.17547111
207	0xbe356879	-0.17715634
208	0xbbf27960	-0.007399723
209	0x3dc09ec3	0.094052814
210	0x3e1c516e	0.15265438
211	0xbdca86bc	-0.0988898
212	0xbe29d97d	-0.16586871
213	0xbe50bfc6	-0.20385656
214	0x3e2ae464	0.16688687
215	0xbe410bea	-0.18852201
216	0xbd849d10	-0.0647527
217	0xbe1a93f6	-0.15095505
218	0xbe0c3fe9	-0.13696255
219	0xba76648a	-0.0009399137
220	0xbe1aa311	-0.15101267
221	0x3e30e179	0.17273511
222	0x3ca8d5c4	0.020609744
223	0xb99011f0	-0.00027479185
224	0x3b63aa8c	0.0034739105
225	0xbe3e3ee8	-0.18578684
226	0xbcc313db	-0.023813179
227	0xbe8bc552	-0.2729898
228	0xbe642315	-0.22279008
229	0x3e112a91	0.14176394
230	0x3d8be7b5	0.06831304
231	0xbe1ca7e0	-0.15298414
232	0x3d273375	0.040820558
233	0x3e054ff1	0.13018776
234	0x3dc4551d	0.095865466
235	0x3e353e3e	0.17699525
236	0x3e916eb1	0.28404763
237	0xbd04a590	-0.032384455
238	0x3e91f482	0.28506857
239	0x3d6bfcf6	0.05761429
240	0x3d951c7a	0.07280822
241	0x3ced9815	0.029003182
242	0x3dcb4400	0.09925079
243	0x3e2eb2f6	0.17060456
244	0x3d7d5155	0.061845142
245	0x3e493352	0.19648483
246	0x3da230ae	0.07919441
247	0xbe261c53	-0.16221742
248	0xbe794670	-0.24343276
249	0xbd0d4104	-0.03448583
250	0x3e49e663	0.19716792
251	0xbd417ee1	-0.04724014
252	0xbd74d958	-0.059777588
253	0x3e825303	0.25453958
254	0xbe771a21	-0.24131061
255	0xbe30985f	-0.17245625

cell.w_ih f4 [256, 10]
0	0x3d5afcd1	0.05346376
1	0xbe3699f6	-0.17832169
2	0x3e2443ef	0.1604154
3	0x3e820da6	0.25401038
4	0x3e2eda9a	0.17075577
5	0x3e5c9ee5	0.21544988
6	0xbdf581cd	-0.11987648
7	0xbe12649c	-0.14296192
8	0xbd8a6fa6	-0.067595765
9	0xbd77b0f8	-0.060471505
10	0x3ddb1334	0.10697022
11	0xbe65848a	-0.22413841
12	0x3e69cf46	0.22832975
13	0x3e4193b7	0.18904005
14	0x3e5c74fa	0.21528998
15	0x3e1e5aea	0.15464368
16	0x3e4dda52	0.20102814
17	0x3da4cf1b	0.08047315
18	0xbdbb19a9	-0.09135754
19	0x3e4fcdcf	0.20293353
20	0xbe74b8d4	-0.23898631
21	0x3e4fc6ba	0.20290652
22	0xbe47552a	-0.19466081
23	0xbd8ca6a4	-0.06867722
24	0xbdaa48e8	-0.08314687
25	0x3dee103c	0.1162419
26	0xbdde1189	-0.10843188
27	0xbd9fe979	-0.07808203
28	0xbdf6d17f	-0.12051677
29	0xbe1f30a0	-0.15545893
30	0x3da6420f	0.081180684
31	0xbdee128e	-0.11624633
32	0x3ea75eb9	0.32689455
33	0x3e0cfb0b	0.1376764
34	0x3e1cb700	0.15304184
35	0xbdc73b2a	-0.097280815
36	0x3e301647	0.17195998
37	0xbe16c43a	-0.14723292
38	0x3dceb86c	0.100937694
39	0x3e158274	0.14600545
40	0x3e3aa18f	0.18225692
41	0xbdd76e16	-0.10519044
42	0xbe6819a0	-0.22666025
43	0xbdfad531	-0.12247694
44	0x3d8d71ac	0.06906447
45	0x3e19f90e	0.15036413
46	0x3e281a44	0.1641627
47	0x3dc8121f	0.09769081
48	0x3e5e4256	0.21704993
49	0x3dd581cc	0.104251474
50	0xbd075339	-0.03303835
51	0x3e56ca1f	0.2097554
52	0x3e29b2bb	0.16572087
53	0x3e41dc6d	0.18931742
54	0x3e6ef534	0.23335725
55	0xbe09e473	-0.13466053
56	0x3e4db347	0.2008792
57	0xbe3b8c0d	-0.18315144
58	0x3de56d34	0.112024695
59	0xbc1006ac	-0.008790653
60	0xbe0b917f	-0.13629721
61	0xbddf9e5f	-0.10918879
62	0x3dd24eb4	0.10268918
63	0xbcafbf29	-0.021453457
64	0xbd905bb6	-0.070487425
65	0xbdb68286	-0.08911614
66	0x3df6ad6d	0.12044797
67	0xbd3c4a90	-0.045969546
68	0x3e4d0ea5	0.20025118
69	0xbc6e29c1	-0.014536322
70	0xbd2b40b4	-0.041809753
71	0xbe5bed93	-0.21477346
72	0xbe2e98d2	-0.17050484
73	0x3e4c08a4	0.19925171
74	0xbe05632c	-0.13026112
75	0x3db765d5	0.0895497
76	0xbe67ba45	-0.2262965
77	0x3dc40193	0.09570613
78	0x3e7843b5	0.24244578
79	0x3d2ed854	0.042686775
80	0xbe850ee3	-0.2598792
81	0xbe849186	-0.25892276
82	0x3de7992b	0.11308511
83	0xbdb95603	-0.090496086
84	0x3e102368	0.14076006
85	0x3d9cc718	0.076551616
86	0xbd70590a	-0.058678664
87	0xbe16bfb4	-0.14721566
88	0x3d172a70	0.036905706
89	0x3dbc049e	0.09180568
90	0x3e3bb80f	0.18331932
91	0x3e114e5b	0.14190046
92	0x3e0b6668	0.13613284
93	0xbda665fe	-0.08124922
94	0x3e618554	0.22023517
95	0x3dfe2848	0.12410027
96	0xbc882e23	-0.016623562
97	0xbe1f9cf6	-0.1558722
98	0x3dea16a2	0.11430098
99	0x3ca89312	0.020577941
100	0x3e59c5f6	0.21266922
101	0x3d7b7610	0.06139189
102	0x3e39d5cd	0.18147965
103	0x3d66d0d7	0.05635151
104	0xbb5c9cc9	-0.0033662787
105	0x3d97ea18	0.07417697
106	0xbd1ac184	-0.037782207
107	0x3d934f4d	0.0719286
108	0x3b89418d	0.0041887225
109	0x3e4e1260	0.20124197
110	0xbc5a0ea6	-0.0133091565
111	0xbda34c5d	-0.079735495
112	0xbc74d534	-0.01494341
113	0x3e57f2ff	0.2108879
114	0xbc8c9c5c	-0.017164402
115	0x3e176219	0.14783515
116	0x3e177056	0.14788947
117	0xbda8aa40	-0.082355976
118	0xbba950c1	-0.0051670973
119	0xbe22d2a8	-0.15900671
120	0x3ebb9687	0.3663828
121	0x3d710775	0.058845002
122	0x3e4f3305	0.20234306
123	0x3e0b0b12	0.13578442
124	0x3e8719ef	0.26386973
125	0xbe02558d	-0.12727948
126	0xbe097e6e	-0.13427135
127	0xbc1db0e5	-0.0096246945
128	0x3e84d9d3	0.25947437
129	0x3d42d3b0	0.047565162
130	0x3e104ab7	0.14091001
131	0xbe7209e7	-0.2363659
132	0x3d21f259	0.03953776
133	0x3dc2b338	0.095068395
134	0x3e232a98	0.15934217
135	0xbe5a38d1	-0.21310736
136	0x3e39a975	0.18131049
137	0x3dc17ed3	0.09448018
138	0xbda48bdc	-0.080344886
139	0x3e1b2a0b	0.15152757
140	0x3d28cedb	0.041212898
141	0xbe3a7022	-0.18206838
142	0x3dc523c8	0.09625965
143	0x3ce088ed	0.027409041
144	0x3defe8b8	0.117143095
145	0x3e32207e	0.17395207
146	0xbe321333	-0.17390136
147	0xbddc304f	-0.10751402
148	0xbe4be2a9	-0.19910683
149	0x3c0e7014	0.008693714
150	0x3e51cab8	0.20487487
151	0xbe67413a	-0.22583476
152	0x3e198324	0.14991432
153	0x3da52b03	0.080648445
154	0x3dbe07ad	0.09278808
155	0xbc7f27ab	-0.015573422
156	0x3e4a987f	0.19784735
157	0x3dec4116	0.11535852
158	0xbdc24494	-0.094857365
159	0x3e477277	0.19477259
160	0x3e5d28ce	0.21597597
161	0x3dad4c80	0.08461857
162	0xbdf01b08	-0.11723906
163	0xbddbe414	-0.10736862
164	0x3e111e0f	0.14171623
165	0xbe5edf14	-0.21764785
166	0x3e376224	0.17908531
167	0xbd91cf43	-0.0711961
168	0xbd194900	-0.037423134
169	0x3e387e2e	0.18016884
170	0xbd55e13d	-0.052216757
171	0xbe4060d4	-0.18786937
172	0x3d584f5e	0.052810065
173	0x3e46d424	0.19416863
174	0xbc0d1f91	-0.008613483
175	0xbbec2803	-0.007206918
176	0x3cd7e2c4	0.026353247
177	0x3e03d571	0.1287439
178	0xbd38f0ba	-0.04515145
179	0x3dd0fdc5	0.10204653
180	0x3dcf6cc6	0.10128169
181	0x3bdf045a	0.0068059387
182	0x3de7fa0b	0.11326989
183	0xbb2ffc66	-0.0026853322
184	0x3e1589ce	0.1460335
185	0xbb8c4d72	-0.004281693
186	0xbe07f022	-0.13275197
187	0x3e2c6f89	0.16839422
188	0xbd773e58	-0.06036219
189	0xbe4fc68a	-0.2029058
190	0xbdd338d0	-0.103135705
191	0xbdaeaa85	-0.08528618
192	0xbe409b53	-0.18809251
193	0xbe4b558b	-0.19856851
194	0x3db11ff6	0.08648674
195	0xbc0cec82	-0.00860131
196	0x3d8c1e7d	0.06841753
197	0xbd52a926	-0.051430844
198	0xbc95860a	-0.018252391
199	0xbe69ad5c	-0.22820038
200	0x3e9347d4	0.28765738
201	0x3d8f9937	0.07011645
202	0x3e83d512	0.25748497
203	0x3e9c06e7	0.30474016
204	0x3e767892	0.24069431
205	0x3df0df9c	0.117614
206	0xbe5bc196	-0.21460566
207	0xbc2feb6f	-0.010737284
208	0xbe8cb6bf	-0.27483174
209	0xbd8e00de	-0.06933759
210	0x3e300a56	0.17191443
211	0x3e7dc952	0.24783829
212	0x3d0c6dd6	0.034284435
213	0x3dd204d0	0.10254824
214	0x3d197fed	0.037475515
215	0xbd950226	-0.072758004
216	0xbb622cdf	-0.0034511609
217	0x3e1ab231	0.15107037
218	0xbd5391fe	-0.0516529
219	0x3d33f6df	0.043936606
220	0xbdabd11f	-0.08389496
221	0xbe5a7273	-0.21332721
222	0x3e5c528c	0.21515864
223	0xbe35d6e6	-0.17757758
224	0xbe2235a8	-0.1584078
225	0xbdc9f076	-0.098603174
226	0x3cf99168	0.030464843
227	0xbe02f4cd	-0.12788697
228	0xbdef93cf	-0.11698114
229	0xbe7f321f	-0.24921463
230	0x3e845310	0.25844622
231	0xbd9035ba	-0.070414975
232	0x3e8b8adc	0.2725438
233	0x3e99cdec	0.30039918
234	0x3e1b694c	0.15176886
235	0xbe81dd09	-0.2536395
236	0x3dbd1b7a	0.09233756
237	0xbd07f013	-0.033187937
238	0x3e8a7c78	0.27048087
239	0xbe20e2e7	-0.15711556
240	0x3c39cb68	0.01134
241	0x3e029fd5	0.12756284
242	0x3e3ad89f	0.18246697
243	0x3e5af0d7	0.21380936
244	0x3e087bda	0.13328496
245	0x3d9179dd	0.07103322
246	0xbe24842f	-0.16066049
247	0xbe30c451	-0.17262389
248	0x3e24de03	0.16100316
249	0x3da7fcb1	0.08202494
250	0xbda1925e	-0.078892455
251	0x3dc1e012	0.09466566
252	0x3e523fee	0.205322
253	0x3e6170d8	0.22015703
254	0xbcc9eae6	-0.024648141
255	0x3e342741	0.17593099

cell.b_hh f4 [256]
0	0xbd8313da	-0.06400271
1	0xbd6efacd	-0.05834465
2	0x3bfb7189	0.0076734466
3	0xbd0a0634	-0.033697322
4	0xbca22308	-0.019792095
5	0xbda82e68	-0.08211976
6	0xbb3d9286	-0.0028926446
7	0xbda6798a	-0.081286505
8	0xbd37232d	-0.04471128
9	0xbd0cacf4	-0.03434463
10	0xbd09ed16	-0.03367337
11	0xbcb65ada	-0.022260118
12	0xbd580504	-0.05273916
13	0x3b87b940	0.0041419566
14	0xbe017934	-0.12643892
15	0xbe146a3c	-0.1449365
16	0xbd0acf06	-0.03388884
17	0x3d5781f9	0.052614186
18	0xbd0630f4	-0.03276153
19	0xbda7c9e7	-0.08192807
20	0xbdde1c82	-0.10845281
21	0xbd2d5420	-0.042316556
22	0xbdb7363f	-0.089458935
23	0xbd904374	-0.07044116
24	0x3d52ad9a	0.05143509
25	0xbd3d2987	-0.04618218
26	0xbcbb5fa0	-0.022872746
27	0xbcc4ff58	-0.024047539
28	0xbd8e2d6b	-0.069422565
29	0x3c9988c1	0.018741967
30	0xbcd1474a	-0.025546689
31	0xbd353fb1	-0.044250194
32	0xbda84190	-0.0821563
33	0xbc3b8dae	-0.011447353
34	0xbccbbb37	-0.024869544
35	0xbd0619cf	-0.032739457
36	0xbd8fcd4e	-0.07021581
37	0xbd16ca3a	-0.036813952
38	0xbb47d027	-0.0030489059
39	0xbd359d47	-0.044339444
40	0xbd43483f	-0.04767632
41	0xbdcf34bd	-0.10117481
42	0xbb91085c	-0.0044260453
43	0xbd902d36	-0.07039873
44	0x3d676457	0.056492176
45	0xbc3f4cb9	-0.011676007
46	0xbd98009a	-0.0742199
47	0xbb4af304	-0.0030967603
48	0xbddff610	-0.109356046
49	0xbd398617	-0.045293894
50	0xbd3cb24e	-0.046068482
51	0xbd614379	-0.054995988
52	0x3cbdb34e	0.023156788
53	0xbd0d1ebd	-0.034453142
54	0xbcdb7929	-0.026791172
55	0x3cf1ad08	0.029501453
56	0xbcec50bc	-0.02884709
57	0xbd148dae	-0.03626793
58	0xbd28daf6	-0.041224442
59	0xbbe83fe8	-0.0070876963
60	0xbbad93b5	-0.005297149
61	0xbc5941c3	-0.013260308
62	0xbd9ed2a4	-0.0775502
63	0x3d1bcea5	0.03803887
64	0x4039dc78	2.9040813
65	0x40320442	2.7815099
66	0x403ea903	2.9790657
67	0x40308e62	2.7586904
68	0x4037c79b	2.871558
69	0x403a9812	2.9155316
70	0x403e12f4	2.9699068
71	0x4039d33a	2.9035172
72	0x403fb567	2.995447
73	0x403a9f94	2.9159899
74	0x40401982	3.0015569
75	0x403e1b68	2.9704227
76	0x40319d8f	2.7752416
77	0x4039a162	2.900475
78	0x403b70ff	2.9287717
79	0x403a63dc	2.912345
80	0x4032848f	2.7893407
81	0x403c81da	2.9454255
82	0x403c84ce	2.9456058
83	0x403ddcd7	2.966604
84	0x40348982	2.8208928
85	0x403e9ed8	2.978445
86	0x403b684a	2.9282403
87	0x403b11c9	2.9229605
88	0x4037e4e3	2.8733451
89	0x403a0f74	2.9071932
90	0x4033c449	2.8088553
91	0x403730fa	2.8623643
92	0x40379aec	2.8688307
93	0x40360700	2.8441772
94	0x4041e8c5	3.0298321
95	0x403930b5	2.8935978
96	0x403d2e28	2.9559422
97	0x4037ab3e	2.8698268
98	0x403e6e5e	2.9754863
99	0x403c6d08	2.9441547
100	0x40355757	2.8334558
101	0x403a7e47	2.9139574
102	0x40413af5	3.0192235
103	0x4040cfe9	3.0126898
104	0x40354e70	2.8329124
105	0x40371419	2.8606017
106	0x403ef3a7	2.9836214
107	0x40370fa3	2.8603294
108	0x40315681	2.7709048
109	0x4041542c	3.0207624
110	0x40340cfa	2.813292
111	0x403cda25	2.9508145
112	0x403f1270	2.9855003
113	0x404067a9	3.006327
114	0x403c03dc	2.9377356
115	0x40397e79	2.8983443
116	0x403a5a63	2.9117668
117	0x403d6bd0	2.9597054
118	0x403fbb45	2.995805
119	0x40311fb6	2.7675605
120	0x40385033	2.879895
121	0x403cabf6	2.9479957
122	0x4039eac8	2.904955
123	0x403d3083	2.956086
124	0x403bedd5	2.936391
125	0x403d6256	2.959127
126	0x403df8cd	2.9683106
127	0x403dfb17	2.9684503
128	0x3c28d33e	0.01030427
129	0x3ce45e12	0.027876887
130	0x3b5506df	0.0032505316
131	0x3d055327	0.032550003
132	0x3b7c6bb2	0.003851634
133	0x3c95ce99	0.01828699
134	0x3a07fd88	0.00051876204
135	0x3c80d2f3	0.015725588
136	0x3cb6d128	0.02231653
137	0xbc4af79e	-0.012388138
138	0xbccd8708	-0.025088802
139	0x3c016bf3	0.007899272
140	0x3bab22f7	0.005222674
141	0x3cb4807a	0.022033919
142	0x3c940ce3	0.018072551
143	0xbc9cc0d0	-0.019134909
144	0x3a9110a9	0.0011067587
145	0xbc03b34b	-0.008038352
146	0xbc7efc3f	-0.01556307
147	0xbc04736c	-0.008084159
148	0x3c92dc24	0.017927237
149	0xbcc84b97	-0.024450107
150	0x3b7c5aa4	0.0038506174
151	0x3d4010b9	0.046890948
152	0xbd70764d	-0.05870657
153	0xbcc981a0	-0.024597943
154	0x3cad0576	0.021120768
155	0x3d22dc6d	0.039760996
156	0x3bd1b742	0.00640002
157	0x3c5191cb	0.012791107
158	0x3d152cdd	0.036419738
159	0x3c7de663	0.015496823
160	0x3d0640af	0.03277653
161	0x3d3afb85	0.045650024
162	0xbd03533b	-0.032061797
163	0xbcc2f894	-0.023800172
164	0xbb9851a6	-0.004648405
165	0x3c9b98aa	0.018993694
166	0xbbb93da2	-0.005653099
167	0x3d04bf39	0.032408927
168	0x3c415628	0.011800326
169	0xb9a87adb	-0.00032134991
170	0x3d9e55c3	0.077312015
171	0xba014bd7	-0.00049322605
172	0x3cac86c6	0.021060359
173	0x3d417383	0.0472293
174	0xbafc868b	-0.0019266171
175	0xbd82973f	-0.06376504
176	0x3d07e9df	0.03318202
177	0x3bac45ad	0.0052573294
178	0xbd3e1f7e	-0.046416752
179	0xbcd505b0	-0.026003689
180	0xbd9e7aff	-0.077383034
181	0xbb2392f2	-0.0024959412
182	0x3bafaeef	0.00536143
183	0xbbf7b013	-0.0075588315
184	0xbcc17772	-0.023616526
185	0x3c8b8828	0.017032698
186	0xbc7b0070	-0.0153199285
187	0xbcac5254	-0.02103535
188	0xbcece89a	-0.028919507
189	0x3c2143aa	0.0098427925
190	0xbc9c7b2d	-0.019101704
191	0x3a6a1c74	0.00089306314
192	0xbde5fc2b	-0.11229738
193	0xbdea8ade	-0.11452268
194	0xbd226f89	-0.03965715
195	0xbd52a96a	-0.051431097
196	0xbd839df5	-0.06426612
197	0xbd663e73	-0.0562119
198	0xbd9536f6	-0.072858736
199	0xbd318238	-0.043337077
200	0xbd948133	-0.07251205
201	0xbd56421b	-0.052309137
202	0x3c48de72	0.012260066
203	0xbd9cd386	-0.076575324
204	0x3bd14e23	0.0063874885
205	0xbda42152	-0.08014168
206	0xbdb98cf0	-0.09060085
207	0xbdafb500	-0.08579445
208	0xbd1bd089	-0.03804067
209	0x3cba29f8	0.02272509
210	0xbd16da57	-0.03682932
211	0xbdb250f7	-0.08706849
212	0xbd387b43	-0.045039427
213	0xbd7befd7	-0.061508026
214	0xbcc25b95	-0.02372531
215	0xbd5cc566	-0.05389919
216	0xbc7d7c7a	-0.015471572
217	0xbc354b67	-0.011065341
218	0x3d48d0ac	0.04902713
219	0xbd79d700	-0.060996056
220	0xbd236abd	-0.039896715
221	0xbda7b9c5	-0.081897296
222	0xbe195e5f	-0.14977406
223	0xbd085d53	-0.033292126
224	0xbd0451e7	-0.03230467
225	0xbca03c77	-0.019560082
226	0xbc88d5bb	-0.016703477
227	0xbd246ee3	-0.040144812
228	0xbd1c215c	-0.03811775
229	0xbd12dbe5	-0.03585424
230	0x3c30a2f6	0.01078104
231	0xbcfe363a	-0.031031717
232	0xbccdd0dd	-0.025124008
233	0xbd2e3a80	-0.04253626
234	0x3c0a9d68	0.00846038
235	0xbd2da50c	-0.04239373
236	0x3cf19827	0.029491497
237	0xbcc30f7f	-0.0238111
238	0x3c88032a	0.016603071
239	0xbcbdae8e	-0.023154523
240	0xbe01cf28	-0.1267668
241	0xbd2e7b1b	-0.04259787
242	0xbce8db62	-0.028424922
243	0x3b920a07	0.0044567618
244	0x3c843284	0.016137369
245	0x3bfbd055	0.007684747
246	0xbdb0fe09	-0.08642203
247	0xbce3d733	-0.027812576
248	0xbd485a5d	-0.048914302
249	0x3c1aa123	0.009437832
250	0xbd967779	-0.07347006
251	0x3c86826d	0.016419614
252	0xbc851c36	-0.016248804
253	0xbd247dda	-0.040159084
254	0xbd8a0f58	-0.06741208
255	0x3d0235c8	0.03178957

cell.b_ih f4 [256]
0	0xbd8313da	-0.06400271
1	0xbd6efacd	-0.05834465
2	0x3bfb7189	0.0076734466
3	0xbd0a0634	-0.033697322
4	0xbca22308	-0.019792095
5	0xbda82e68	-0.08211976
6	0xbb3d9286	-0.0028926446
7	0xbda6798a	-0.081286505
8	0xbd37232d	-0.04471128
9	0xbd0cacf4	-0.03434463
10	0xbd09ed16	-0.03367337
11	0xbcb65ada	-0.022260118
12	0xbd580504	-0.05273916
13	0x3b87b940	0.0041419566
14	0xbe017934	-0.12643892
15	0xbe146a3c	-0.1449365
16	0xbd0acf06	-0.03388884
17	0x3d5781f9	0.052614186
18	0xbd0630f4	-0.03276153
19	0xbda7c9e7	-0.08192807
20	0xbdde1c82	-0.10845281
21	0xbd2d5420	-0.042316556
22	0xbdb7363f	-0.089458935
23	0xbd904374	-0.07044116
24	0x3d52ad9a	0.05143509
25	0xbd3d2987	-0.04618218
26	0xbcbb5fa0	-0.022872746
27	0xbcc4ff58	-0.024047539
28	0xbd8e2d6b	-0.069422565
29	0x3c9988c1	0.018741967
30	0xbcd1474a	-0.025546689
31	0xbd353fb1	-0.044250194
32	0xbda84190	-0.0821563
33	0xbc3b8dae	-0.011447353
34	0xbccbbb37	-0.024869544
35	0xbd0619cf	-0.032739457
36	0xbd8fcd4e	-0.07021581
37	0xbd16ca3a	-0.036813952
38	0xbb47d027	-0.0030489059
39	0xbd359d47	-0.044339444
40	0xbd43483f	-0.04767632
41	0xbdcf34bd	-0.10117481
42	0xbb91085c	-0.0044260453
43	0xbd902d36	-0.07039873
44	0x3d676457	0.056492176
45	0xbc3f4cb9	-0.011676007
46	0xbd98009a	-0.0742199
47	0xbb4af304	-0.0030967603
48	0xbddff610	-0.109356046
49	0xbd398617	-0.045293894
50	0xbd3cb24e	-0.046068482
51	0xbd614379	-0.054995988
52	0x3cbdb34e	0.023156788
53	0xbd0d1ebd	-0.034453142
54	0xbcdb7929	-0.026791172
55	0x3cf1ad08	0.029501453
56	0xbcec50bc	-0.02884709
57	0xbd148dae	-0.03626793
58	0xbd28daf6	-0.041224442
59	0xbbe83fe8	-0.0070876963
60	0xbbad93b5	-0.005297149
61	0xbc5941c3	-0.013260308
62	0xbd9ed2a4	-0.0775502
63	0x3d1bcea5	0.03803887
64	0xbdc47134	-0.09591904
65	0xbe5fbb7e	-0.21848866
66	0xbcab7f2d	-0.020934666
67	0xbe7719ea	-0.24130979
68	0xbe038667	-0.12844239
69	0xbdacfeab	-0.084470116
70	0xbcf68502	-0.03009272
71	0xbdc598e2	-0.09648301
72	0xbb9536ca	-0.0045536505
73	0xbdac0d29	-0.084009476
74	0x3acc30c0	0.0015578493
75	0xbcf24c15	-0.029577294
76	0xbe6626b4	-0.22475702
77	0xbdcbd33e	-0.099524006
78	0xbd91df08	-0.07122618
79	0xbdb384af	-0.08765542
80	0xbe57b659	-0.21065654
81	0xbd5f88b2	-0.054573722
82	0xbd5ecf51	-0.05439693
83	0xbd08cada	-0.03339658
84	0xbe376911	-0.17911173
85	0xbcb09408	-0.021554962
86	0xbd92f4ef	-0.071756236
87	0xbd9dc726	-0.07704
88	0xbe01b15a	-0.1266531
89	0xbdbe1148	-0.0928064
90	0xbe43bb89	-0.19114508
91	0xbe0cf0f9	-0.13763799
92	0xbe0651ba	-0.13117114
93	0xbe1f9154	-0.15582782
94	0x3cf45b02	0.029828552
95	0xbdd9eaef	-0.10640513
96	0xbd34749c	-0.04405652
97	0xbe054bf3	-0.13017254
98	0xbcc8cd5a	-0.024511982
99	0xbd64bdec	-0.055845186
100	0xbe2a8ab9	-0.16654481
101	0xbdb03638	-0.086040914
102	0x3c9d7e59	0.019225286
103	0x3c4fe84c	0.012689661
104	0xbe2b1763	-0.1670814
105	0xbe0ebd8b	-0.13939492
106	0xbc86320f	-0.016381292
107	0xbe0f0591	-0.13966967
108	0xbe6a987d	-0.22909732
109	0x3caa0e8c	0.02075889
110	0xbe3f3016	-0.18670687
111	0xbd497729	-0.049185906
112	0xbc6d94fc	-0.014500853
113	0x3bcf5ac6	0.0063279597
114	0xbd7f0b35	-0.062266547
115	0xbdd0315f	-0.10165667
116	0xbdb4b41c	-0.08823416
117	0xbd250e05	-0.040296573
118	0xbb89778e	-0.00419516
119	0xbe6e04a6	-0.2324396
120	0xbdf5faea	-0.12010749
121	0xbd54fe64	-0.05200042
122	0xbdc2a632	-0.095043555
123	0xbd33dc1c	-0.043911085
124	0xbd8244da	-0.06360789
125	0xbd276c3c	-0.040874705
126	0xbd01ca95	-0.031687338
127	0xbd013a4a	-0.03154973
128	0x3c28d33e	0.01030427
129	0x3ce45e12	0.027876887
130	0x3b5506df	0.0032505316
131	0x3d055327	0.032550003
132	0x3b7c6bb2	0.003851634
133	0x3c95ce99	0.01828699
134	0x3a07fd88	0.00051876204
135	0x3c80d2f3	0.015725588
136	0x3cb6d128	0.02231653
137	0xbc4af79e	-0.012388138
138	0xbccd8708	-0.025088802
139	0x3c016bf3	0.007899272
140	0x3bab22f7	0.005222674
141	0x3cb4807a	0.022033919
142	0x3c940ce3	0.018072551
143	0xbc9cc0d0	-0.019134909
144	0x3a9110a9	0.0011067587
145	0xbc03b34b	-0.008038352
146	0xbc7efc3f	-0.01556307
147	0xbc04736c	-0.008084159
148	0x3c92dc24	0.017927237
149	0xbcc84b97	-0.024450107
150	0x3b7c5aa4	0.0038506174
151	0x3d4010b9	0.046890948
152	0xbd70764d	-0.05870657
153	0xbcc981a0	-0.024597943
154	0x3cad0576	0.021120768
155	0x3d22dc6d	0.039760996
156	0x3bd1b742	0.00640002
157	0x3c5191cb	0.012791107
158	0x3d152cdd	0.036419738
159	0x3c7de663	0.015496823
160	0x3d0640af	0.03277653
161	0x3d3afb85	0.045650024
162	0xbd03533b	-0.032061797
163	0xbcc2f894	-0.023800172
164	0xbb9851a6	-0.004648405
165	0x3c9b98aa	0.018993694
166	0xbbb93da2	-0.005653099
167	0x3d04bf39	0.032408927
168	0x3c415628	0.011800326
169	0xb9a87adb	-0.00032134991
170	0x3d9e55c3	0.077312015
171	0xba014bd7	-0.00049322605
172	0x3cac86c6	0.021060359
173	0x3d417383	0.0472293
174	0xbafc868b	-0.0019266171
175	0xbd82973f	-0.06376504
176	0x3d07e9df	0.03318202
177	0x3bac45ad	0.0052573294
178	0xbd3e1f7e	-0.046416752
179	0xbcd505b0	-0.026003689
180	0xbd9e7aff	-0.077383034
181	0xbb2392f2	-0.0024959412
182	0x3bafaeef	0.00536143
183	0xbbf7b013	-0.0075588315
184	0xbcc17772	-0.023616526
185	0x3c8b8828	0.017032698
186	0xbc7b0070	-0.0153199285
187	0xbcac5254	-0.02103535
188	0xbcece89a	-0.028919507
189	0x3c2143aa	0.0098427925
190	0xbc9c7b2d	-0.019101704
191	0x3a6a1c74	0.00089306314
192	0xbde5fc2b	-0.11229738
193	0xbdea8ade	-0.11452268
194	0xbd226f89	-0.03965715
195	0xbd52a96a	-0.051431097
196	0xbd839df5	-0.06426612
197	0xbd663e73	-0.0562119
198	0xbd9536f6	-0.072858736
199	0xbd318238	-0.043337077
200	0xbd948133	-0.07251205
201	0xbd56421b	-0.052309137
202	0x3c48de72	0.012260066
203	0xbd9cd386	-0.076575324
204	0x3bd14e23	0.0063874885
205	0xbda42152	-0.08014168
206	0xbdb98cf0	-0.09060085
207	0xbdafb500	-0.08579445
208	0xbd1bd089	-0.03804067
209	0x3cba29f8	0.02272509
210	0xbd16da57	-0.03682932
211	0xbdb250f7	-0.08706849
212	0xbd387b43	-0.045039427
213	0xbd7befd7	-0.061508026
214	0xbcc25b95	-0.02372531
215	0xbd5cc566	-0.05389919
216	0xbc7d7c7a	-0.015471572
217	0xbc354b67	-0.011065341
218	0x3d48d0ac	0.04902713
219	0xbd79d700	-0.060996056
220	0xbd236abd	-0.039896715
221	0xbda7b9c5	-0.081897296
222	0xbe195e5f	-0.14977406
223	0xbd085d53	-0.033292126
224	0xbd0451e7	-0.03230467
225	0xbca03c77	-0.019560082
226	0xbc88d5bb	-0.016703477
227	0xbd246ee3	-0.040144812
228	0xbd1c215c	-0.03811775
229	0xbd12dbe5	-0.03585424
230	0x3c30a2f6	0.01078104
231	0xbcfe363a	-0.031031717
232	0xbccdd0dd	-0.025124008
233	0xbd2e3a80	-0.04253626
234	0x3c0a9d68	0.00846038
235	0xbd2da50c	-0.04239373
236	0x3cf19827	0.029491497
237	0xbcc30f7f	-0.0238111
238	0x3c88032a	0.016603071
239	0xbcbdae8e	-0.023154523
240	0xbe01cf28	-0.1267668
241	0xbd2e7b1b	-0.04259787
242	0xbce8db62	-0.028424922
243	0x3b920a07	0.0044567618
244	0x3c843284	0.016137369
245	0x3bfbd055	0.007684747
246	0xbdb0fe09	-0.08642203
247	0xbce3d733	-0.027812576
248	0xbd485a5d	-0.048914302
249	0x3c1aa123	0.009437832
250	0xbd967779	-0.07347006
251	0x3c86826d	0.016419614
252	0xbc851c36	-0.016248804
253	0xbd247dda	-0.040159084
254	0xbd8a0f58	-0.06741208
255	0x3d0235c8	0.03178957

head.net.0.weight f4 [1, 64]
0	0x3e38f5bd	0.18062492
1	0x3e29a477	0.16566645
2	0xbb4ac127	-0.0030937882
3	0x3e59504e	0.2122204
4	0x3e067d33	0.13133697
5	0x3c2cb8d2	0.0105421115
6	0xbda53bae	-0.080680236
7	0x3d42ec0b	0.04758839
8	0x3cc0bc2b	0.023527225
9	0x3caa8ff7	0.0208206
10	0x3bd467d3	0.0064821034
11	0x3cff33d9	0.031152653
12	0xbead20a1	-0.33813956
13	0xbd9d5bf7	-0.076835565
14	0xbc2c21b9	-0.010506087
15	0xbe5198b1	-0.20468403
16	0xbe648dfb	-0.22319786
17	0xbd8d5977	-0.0690183
18	0xbcb64a95	-0.02225236
19	0xbd926955	-0.07148997
20	0xbe4c1374	-0.19929296
21	0xbd8c642e	-0.06855045
22	0x3c20194b	0.009771655
23	0xbbbc8247	-0.005752835
24	0xbdcc4482	-0.09974004
25	0xb9b41151	-0.00034345177
26	0xbe6d903f	-0.23199557
27	0x3daef3d4	0.085426
28	0xbdbbd23a	-0.09170957
29	0x3e34c021	0.17651416
30	0x3db3d3ad	0.08780608
31	0x3db213b7	0.086951666
32	0xbcefdb6c	-0.029279433
33	0xbdb4c782	-0.088271156
34	0xbd3b8f45	-0.04579093
35	0xbd9f5e23	-0.07781627
36	0xbd998db2	-0.07497729
37	0x3d726213	0.059175562
38	0xbcb1f3dd	-0.021722728
39	0xbd51c006	-0.05120852
40	0x3e6349b6	0.22196087
41	0x3e43f11a	0.19134942
42	0x3c8f9cfe	0.017530914
43	0x3e2cd62f	0.1687858
44	0x3e820a3a	0.25398427
45	0xbbb368bf	-0.005475133
46	0x3e7e352a	0.24824968
47	0xbcb62601	-0.022234919
48	0x3dde0559	0.10840864
49	0x3cc56c40	0.02409947
50	0xbd1fdb10	-0.039027274
51	0x3c13e67d	0.009027121
52	0xbd92391e	-0.071398005
53	0xb9797d21	-0.00023793105
54	0xbca1e06c	-0.019760333
55	0xbe90499e	-0.28181165
56	0xbd8e7832	-0.06956519
57	0x3d583a86	0.052790187
58	0x3dc259b3	0.09489765
59	0x3b9c0f6f	0.004762582
60	0x3d024184	0.03180076
61	0x3cfb8d74	0.030707099
62	0xbcfa1b9c	-0.030530743
63	0x3c9d65d2	0.01921359
