runs/lstm_camels_us_1901_235614/model_epoch001.pt (torch, 80974 bytes, 5 tensors)

cell.w_hh f4 [256, 64]
000000 85 b0 6b be ef b0 78 ba f1 f5 b5 3b 68 b8 0a 3e
       -0.23016556 -0.00094868144 0.005553 0.13546908
000010 7e e2 22 be 98 a7 17 be 54 83 61 bc 70 6e 17 3c
       -0.15906712 -0.14810026 -0.013764221 0.009242639
000020 5e 8c 14 3d 4f dd f0 3d 83 09 83 3d 78 8b 44 3d
       0.036266677 0.11760961 0.063982986 0.04798457
000030 42 6d 6c bd 18 79 15 3d 7e 8c 27 3e 1e f6 f5 bd
       -0.057721384 0.036492437 0.16362187 -0.12009834
000040 b6 9d 03 3e f1 9a 5a 3e 58 ce dd bc 59 1f 2e 3e
       0.1285313 0.21348168 -0.027075931 0.17004146
000050 2f ba 3b 3d b7 b4 95 3d a2 3a c4 3d 28 85 d4 3d
       0.045831855 0.07309859 0.09581496 0.1037696
000060 1a 6c df bd d6 23 49 3e 4c 21 f8 3d 05 b0 d7 3a
       -0.109092906 0.19642577 0.12115726 0.0016455656
000070 1e f6 47 be 19 7d 15 3d 4d bf f5 bd 65 0c e6 bd
       -0.1952748 0.036496256 -0.11999378 -0.11232833
000080 07 3d 72 3e 2a 77 6c 3e 12 89 34 be 3e fa 2e 3e
       0.23656093 0.23092332 -0.17630413 0.17087647
000090 24 8d 71 bd fd 06 13 3e c5 c7 3a 3e 82 c1 e7 3d
       -0.058972493 0.14358135 0.18240269 0.113162056
0000a0 b4 ec b7 3d 7e 09 aa 3d 87 98 87 3e a1 bd 10 be
       0.089806944 0.08302592 0.26483557 -0.14134838
0000b0 66 05 2c bd aa a6 c4 3d 2c f9 10 be 85 52 df bc
       -0.041997336 0.09602101 -0.14157552 -0.027261028
0000c0 38 5c 2f be 34 15 97 bc 0a 92 47 bd 42 d4 40 3e
       -0.17125022 -0.018442728 -0.048723258 0.1883097
0000d0 80 e1 86 3d 90 1d 4e 3e 59 d2 c4 3d d1 e8 db 3d
       0.065859795 0.20128465 0.09610433 0.107377656
0000e0 74 c1 43 3d 13 3c e1 3d 26 18 40 3d 15 07 0e bd
       0.047791913 0.109977864 0.04689803 -0.034674723
0000f0 72 eb 61 be c4 ab 0f 3e 23 d4 c8 bc 40 51 8b 3d
       -0.22062472 0.14030367 -0.024515217 0.068026066
000100 3d fd d8 3d 88 05 ab 3d 3a e1 e6 3d df cf e9 bc
       0.10595176 0.083506644 0.11273427 -0.028541503
000110 d2 cd a2 3a 13 b6 53 be 39 65 51 3e 30 e3 3f be
       0.0012420958 -0.20674925 0.2044877 -0.18739009
000120 b0 33 f8 bd 57 49 26 be 10 88 04 be 03 a4 c1 3c
       -0.121192336 -0.16238914 -0.12942529 0.023637777
000130 92 fd 50 3d 93 69 36 be e8 a6 be 3d dc 0e 38 3d
       0.051023073 -0.17813711 0.093091786 0.044936046
000140 d5 69 17 bc 07 3f 11 be 0c ee 17 bd 32 9b e7 bd
       -0.009241541 -0.141842 -0.037092254 -0.11308898
000150 b8 20 4d 3e f9 f9 3c be d4 d0 05 3e 6e 1e 70 3c
       0.20032012 -0.18454732 0.13067943 0.0146556925
000160 3e 86 54 3e 0b 43 05 3d 10 65 bb bc c0 67 36 be
       0.20754334 0.03253464 -0.022875339 -0.17813015
000170 8e 5e 68 3b 76 f3 32 3e 10 9e 4b 3e 09 dc dd 3d
       0.003545675 0.17475685 0.19884515 0.10832984
000180 6a 38 26 be 2d 04 99 3e e5 4a 17 be ee 9c 31 be
       -0.16232458 0.29885998 -0.14774664 -0.1734502
000190 86 20 0f 3e 1c 3f b2 bc 3a 4a 8f bd 05 3e aa 3d
       0.1397725 -0.021758609 -0.069965795 0.083126105
0001a0 0e 85 14 bd 56 00 88 bd 9f 54 42 bd 0e e1 b3 3c
       -0.036259703 -0.06640689 -0.047443982 0.0219579
0001b0 5c 4a 3b 3d 0c c1 8e bd a5 50 14 bd fe 28 16 3d
       0.04572521 -0.069704145 -0.03620972 0.036660187
0001c0 df b4 ce 3d 4a c7 80 3d 9e 47 ac 3d 62 10 87 3d
       0.10093092 0.06288011 0.084120974 0.06594922
0001d0 4e 73 33 3b ae e8 45 bd 67 be db 3d bf fc 0b be
       0.002738196 -0.048317604 0.10729676 -0.13670634
0001e0 62 a7 06 3e ec 68 6e be f1 72 de bd 81 a4 80 3e
       0.13149789 -0.23282212 -0.10861767 0.25125507
0001f0 31 44 5d be 21 3b b1 bd 66 38 5c 3a 40 b7 28 be
       -0.21608044 -0.08653856 0.0008400738 -0.16476154
000200 5f 9f b3 3d 35 b3 10 3d 28 c6 df bd e0 8a 07 be
       0.08770632 0.035327155 -0.10926467 -0.1323657
000210 00 6c 1c be 0b c6 60 3c 56 05 1c be 60 d8 3b 3e
       -0.15275574 0.013719092 -0.1523641 0.1834426
000220 74 79 99 3b 5c ac f1 3d 0e e8 2d 3d 7c b0 1c 3e
       0.004683668 0.11800453 0.042457633 0.15301698
000230 c2 f9 cb 3d f8 07 19 be 89 79 3d bc 21 32 5a be
       0.09959747 -0.14944446 -0.011564621 -0.21308185
000240 9a db 93 3d c4 f7 d4 bd 2a 6f 9f bc 71 f4 5a 3e
       0.0721962 -0.1039882 -0.019462187 0.2138231
000250 24 72 be 3d 55 a6 21 3e 7a 47 95 bd 9d 13 fb 3d
       0.09299114 0.15786107 -0.07289024 0.122596
000260 72 4d 7d 3d 6d 69 a4 bd 3c 34 ad bd ae 0a 40 3e
       0.061841436 -0.08027921 -0.084572285 0.18754074
000270 be 48 2e be aa c4 22 be ed 11 86 bd c5 e4 c7 3d
       -0.17019936 -0.15895334 -0.06546388 0.09760431
000280 63 cf 43 bd 63 c3 f2 bd e8 e9 8a 3d 42 48 13 bd
       -0.0478052 -0.11853673 0.06782895 -0.035957582
000290 71 10 08 3e 2d 51 b5 3d b0 32 94 3a c2 b5 4d be
       0.13287522 0.08853374 0.001130661 -0.20088866
0002a0 6c 2d 03 3e bb 00 d1 bd f5 75 0c 3e 50 fd 1a 3e
       0.12810296 -0.102052175 0.13716872 0.15135694
0002b0 86 b1 10 bc 27 89 f8 3d 5e 01 3d be 20 94 35 3e
       -0.008831387 0.12135535 -0.18457553 0.17732286
0002c0 24 dc bd bd c7 f8 3b be b2 12 87 3e f5 d7 fa bd
       -0.09270504 -0.1835662 0.2638145 -0.12248222
0002d0 34 8b 92 bd 1d 40 1b 3e 66 47 32 bd 6c 6e 48 3b
       -0.07155457 0.15161176 -0.043525122 0.0030583395
0002e0 19 a9 c2 3d 41 55 26 3e 47 98 77 bd af 82 b0 bd
       0.09504909 0.1624346 -0.060447957 -0.08618676
0002f0 18 8f 92 3b d4 9a d4 bd 4e 32 3c be b8 b7 a0 bd
       0.0044726245 -0.103810936 -0.18378565 -0.078475416
000300 96 2d 19 be 58 e1 23 3e 76 c0 21 3e 3e 33 0a 3c
       -0.14958796 0.1600393 0.15796074 0.008435069
000310 76 be e6 bd 93 0f 13 be 1a 21 12 3e da 5f b3 bd
       -0.11266796 -0.1436141 0.1427044 -0.087585166
000320 fd 25 40 3c 40 ef 38 be 3e 4c d7 3d 0b 68 05 bd
       0.011727807 -0.18060017 0.10512589 -0.032569926
000330 07 39 13 3e 9f c3 cc 3d a0 a2 8f bd e1 d3 1c be
       0.14377223 0.09998249 -0.0701344 -0.153152
000340 7b b8 74 be 18 2f 01 3e d8 dd 29 bd 46 2e 62 be
       -0.23898499 0.12615621 -0.041471332 -0.22087964
000350 78 ab d9 3c 0e bd c4 bd cb e0 72 bc c0 de 03 bd
       0.02657102 -0.09606372 -0.014824103 -0.032194853
000360 11 6d 49 3e 06 dc 81 3d ca 25 bb bd 4c 16 98 3d
       0.19670512 0.06340794 -0.09138067 0.07426128
000370 c1 05 91 3e 14 cf 2e be f5 01 8a 3d 0d e3 f6 bc
       0.28324702 -0.17071182 0.067386545 -0.030137563
000380 a2 68 a2 3d c8 74 f5 bd f1 42 e1 bd 9a 87 9e 3d
       0.079301134 -0.11985165 -0.10999096 0.07740708
000390 35 a7 3c 3e a0 4e 5b bd 53 d0 62 3e 25 71 35 be
       0.1842316 -0.05354178 0.22149782 -0.17718942
0003a0 01 1b f2 3d da 02 fe bb 6f cf 88 3c 88 66 84 3c
       0.11821557 -0.007751805 0.016700475 0.016162172
0003b0 de 66 07 be b9 e5 50 3e e7 c9 b2 bd 69 99 d1 bd
       -0.13222834 0.20400132 -0.08729916 -0.10234339
0003c0 41 8c a7 3d 3f b1 13 be 7a 63 8a bd 76 71 4e 3e
       0.08181048 -0.14423083 -0.06757255 0.2016047
0003d0 9b 57 c2 bd 1d 55 10 3e 65 7d 0f 3d 1d 38 e5 3d
       -0.09489366 0.14094968 0.035031695 0.111923434
0003e0 b3 68 81 bd f1 7f 5d 3d 4f 4c 09 3d 67 b7 2f bd
       -0.06318798 0.054077093 0.03352004 -0.042899515
0003f0 c7 d7 20 be 0d fd 36 3e 11 2f 1f be 01 9f fd 3d
       -0.15707313 0.17869969 -0.15545298 0.12383843

cell.w_ih f4 [256, 10]
000000 70 62 7c bd 30 65 79 be 00 15 3f ba c9 22 19 3e
       -0.061617315 -0.24355006 -0.0007289201 0.14954676
000010 60 68 8d 3e d6 be cb bd 44 7b 1a bd 92 6d 2c 3e
       0.27618694 -0.099485084 -0.03771521 0.16838673
000020 b2 02 96 bd 8c 32 f6 3c ab 1e 5c 3e 28 6d 7b bd
       -0.07324733 0.0300534 0.21496074 -0.061383396
000030 8c 7e db 3d 0d bd 8f 3d be 50 38 bd 2b e1 78 be
       0.10717496 0.070184804 -0.044998877 -0.24304645
000040 a3 ed 23 3d c5 65 7d 3d f4 d8 ac bd 38 0c 7b 3d
       0.04002155 0.061864633 -0.08439818 0.06129095
000050 ed 96 61 be 88 d6 1d 3d fa e0 55 be dc 13 ef 3d
       -0.2203023 0.03853467 -0.20886603 0.1167371
000060 00 18 af bc 7b dc 6e 3e 12 9f 2f be f2 6c 19 3e
       -0.021373749 0.23326294 -0.17150524 0.14982966
000070 01 55 12 be 3a 27 d9 3d c2 99 0f bd 6e 38 e3 bc
       -0.14290239 0.10603185 -0.035058744 -0.027736869
000080 9b 5a 43 3d f5 72 1a bd 0d 45 24 be 8c 60 33 3e
       0.04769383 -0.037707288 -0.16041966 0.17517298
000090 ab 1c da bc 31 87 ca 3d ab 0c 5e 3e 88 69 57 be
       -0.026624998 0.09889067 0.2168452 -0.2103635
0000a0 1b d3 dd 3e 01 e9 0d 3e a0 50 46 bc b0 1f 45 3d
       0.43325123 0.13858415 -0.012104183 0.048125923
0000b0 46 ee 1b 3d bc 5e 15 be 83 6d 97 3c 21 61 0a be
       0.038069032 -0.1458692 0.018484836 -0.13513614
0000c0 7d 52 df bd 5d f0 5f 3e 98 ab 0d 3e 8e ed d2 bd
       -0.10904405 0.21869035 0.13834989 -0.10299216
0000d0 3a 2b 82 bc ad be 6d bd 6c 1c 20 bc e1 37 28 be
       -0.015889753 -0.05804317 -0.009772401 -0.16427566
0000e0 95 3e 5a 3c c7 67 46 be fc ff 1b bd 7c ce 81 be
       0.013320585 -0.19375525 -0.038085923 -0.25352848
0000f0 a5 bb 7e be 19 21 30 be ba 3d 28 3e 45 e8 09 bd
       -0.24876268 -0.17200126 0.16429797 -0.033668775
000100 19 9d 4d be bc 1a 61 3e 59 e7 6c be b3 be 78 bd
       -0.20079459 0.21982855 -0.23135127 -0.06072874
000110 8f 98 2b be 06 a4 d6 3c d5 8d d3 bd 3f 99 04 3e
       -0.16757415 0.02620126 -0.10329787 0.12949084
000120 e7 0c 3b 3e 4b de 97 3d 24 f1 96 3d b5 ed 19 3e
       0.1826664 0.07415446 0.07370213 0.15032084
000130 d9 34 c4 3d 15 4c 2a 3e a3 e6 32 3e 51 38 0f 3e
       0.095803924 0.16630585 0.17470793 0.13986327
000140 2f 7b c0 bc cf 12 e9 3c d5 cf e3 bd 43 ee b1 bd
       -0.023496239 0.028451351 -0.11123625 -0.08688023
000150 d1 18 16 3e e4 66 f4 bd d0 c5 3b 3d 8d 57 e0 bd
       0.14657904 -0.11933687 0.045842946 -0.10954199
000160 34 f2 4f 3e 3a 28 17 3e d6 6d 7a 3e 51 15 db bc
       0.20307237 0.14761439 0.24455962 -0.026743563
000170 fd df 39 3e 78 be dc 3c 27 8f e2 bd ea e8 13 be
       0.18151851 0.026946291 -0.110624604 -0.14444318
000180 0a d4 4c 3e b0 fa b9 3d 3e 0c 3e 3e 29 28 ed bd
       0.20002761 0.09081018 0.18559358 -0.115799256
000190 e9 28 28 3c b7 15 b0 bd ac d7 08 3e f2 9d 4f 3e
       0.01026366 -0.08597892 0.13363522 0.20275095
0001a0 a4 cb c1 3b 4a 9b 1d 3e 1f ce d5 3c 55 db 61 bc
       0.0059141684 0.1539127 0.026099263 -0.013785203
0001b0 36 9f c6 3d 61 90 fb 3d c8 35 4b be d1 44 93 bc
       0.09698336 0.122833975 -0.19844735 -0.01797715
0001c0 ec 0e 2d bd a4 53 80 be 6a 9f c9 3d d8 06 ac bd
       -0.04225056 -0.25063813 0.09844859 -0.08399743
0001d0 32 3e 1a be 4c ff fa bc 92 dc 86 3e 70 2b 27 be
       -0.15062788 -0.030639313 0.26340157 -0.16325164
0001e0 b2 d7 0c be fa e3 46 3b e3 68 50 bb 58 20 9a 3d
       -0.13754156 0.0030348287 -0.0031800799 0.075257
0001f0 bb 45 33 3e e8 6c 97 bd 5e 9b 0c 3e a9 ce 0d 3e
       0.17507069 -0.07393819 0.13731143 0.13848366
000200 94 c8 cf bd a1 13 16 3d 50 14 2f 3e 30 eb 8b be
       -0.10145679 0.036639813 0.17097592 -0.2732787
000210 e1 b9 6f bc 36 75 87 3d 6e 28 77 bd 7a a3 a7 bd
       -0.014631719 0.06614153 -0.06034129 -0.081854776
000220 c8 96 84 ba e0 d1 5a 3e 34 5a 8b bd a0 e2 3b 3e
       -0.0010115737 0.21369123 -0.06804314 0.1834817
000230 ab 1c 68 3e 1d 36 29 3e 70 4a 65 3c 5a b0 fe 3d
       0.22667186 0.16524549 0.013994798 0.1243598
000240 12 ca 17 3e 61 c9 ce bd f8 25 e5 3b 6f b2 1c be
       0.14823177 -0.10097004 0.0069930516 -0.15302442
000250 d5 23 33 3d 28 22 b7 bd aa 61 7a 3e 93 56 2b 3e
       0.043735344 -0.08942062 0.24451318 0.16732244
000260 45 97 f4 3d 1a e9 59 be 3e 46 1e 3e 35 4f 0b 3d
       0.11942915 -0.21280327 0.15456483 0.034011085
000270 b9 02 4f bd d3 47 6e bc 89 9e 09 be a1 81 f7 bd
       -0.050539706 -0.014543491 -0.13439383 -0.120852716
000280 5a b1 d0 bd 2d 20 0b 3e b3 b8 15 be 87 5e 3d be
       -0.10190077 0.13586493 -0.14621238 -0.1849309
000290 c2 49 86 3d 47 3c 6b 3e 08 7d 13 be 6c 48 cf bd
       0.06557037 0.22972213 -0.14403164 -0.10121235
0002a0 61 84 46 be 6b 2c 36 bc 73 5f a7 bc f0 b6 97 bd
       -0.19386436 -0.0111189885 -0.020431256 -0.074079394
0002b0 88 cf 04 3d 8d ee 06 be 5f d1 5e 3e c8 81 cc bd
       0.03242448 -0.13176937 0.21759556 -0.09985691
0002c0 a7 47 3a be 09 e8 0e be ee c8 50 3e 7c 44 db bd
       -0.18191396 -0.13955702 0.20389149 -0.10706422
0002d0 89 9c 05 be 1e 6e ce bd d4 fc aa bd 6c b6 32 be
       -0.13047995 -0.10079597 -0.083490044 -0.17452401
0002e0 3e ab 6d be 4b 5e f4 3d 60 4f a3 bc e5 74 82 3e
       -0.23209855 0.119320475 -0.01993531 0.25479808
0002f0 52 a2 14 be e5 39 92 3e 11 b1 30 be a8 f6 3e 3e
       -0.14515045 0.28559795 -0.17255045 0.1864878
000300 ef 96 c5 3d 21 2f 46 bc 2d f3 7a be 3c 04 47 3d
       0.09647929 -0.012096197 -0.24506827 0.048588023
000310 a1 18 dc 3d 6a 10 7a 3c a3 21 b4 3d b6 c0 00 bc
       0.10746885 0.0152627025 0.08795478 -0.007858446
000320 dc 23 8d 3e af c2 73 3e a8 be b8 bd 30 f0 13 be
       0.2756642 0.23804735 -0.0902074 -0.14447093
000330 21 bc cc bd 65 89 65 3e 56 81 69 3d eb 0a bc 3c
       -0.0999682 0.22415693 0.05700811 0.022954425
000340 17 c8 31 3e b9 df 66 3e 2a 40 8d 3a 6a 0b 0d 3e
       0.17361484 0.22546281 0.0010776569 0.13773885
000350 fc 2b 34 3b 77 ed 54 3e 82 d7 31 3e 6d 36 75 3d
       0.0027492037 0.2079371 0.17367366 0.059866358
000360 c5 24 48 be 70 c2 4d bd 2f ba 04 3e 96 c3 29 3e
       -0.19545276 -0.05023426 0.12961648 0.16578516
000370 e4 52 a0 3e e2 29 b6 bd df 54 e8 bc b5 36 66 3e
       0.3131324 -0.08894707 -0.028360782 0.22481807
000380 4f 25 33 3e 7c 9e 0d be 76 31 5b 3d 23 a7 3d 3e
       0.17494701 -0.13829988 0.053513967 0.18520789
000390 77 11 31 be 30 74 7a 3e 74 8e cc 3e b6 78 c1 3d
       -0.17291819 0.24458385 0.39952433 0.09446852
0003a0 9f dc 9d 3e d9 12 eb 3d bf 73 f6 3d ec 9b 0c 3e
       0.30832383 0.11478204 0.120337956 0.13731354
0003b0 1e b6 57 3e 7a 0b 9b bd 6a f3 63 be 08 dc 5a 3e
       0.21065566 -0.07570548 -0.22260824 0.21372998
0003c0 46 87 3d 3e b9 cc 9a bd 7c 83 31 3e 5e f8 a7 bc
       0.18508634 -0.07558579 0.17335314 -0.020504173
0003d0 f0 f1 33 be b6 97 80 3d 26 11 a9 3d 17 d1 f1 bd
       -0.1757276 0.062789366 0.08255224 -0.11807459
0003e0 57 b8 af 3d f9 d4 3e 3e c0 92 85 bd 09 3a 29 be
       0.08580082 0.1863593 -0.06522131 -0.16526045
0003f0 0a 06 c9 3d ee d7 23 3e 64 ca 3d 3c bd 13 46 be
       0.09815605 0.1600034 0.011583898 -0.19343467

cell.b_hh f4 [256]
000000 34 5c e0 bc a5 49 9f bd 82 13 78 bd 7f 30 99 bd
       -0.027387716 -0.077777185 -0.06056548 -0.07479953
000010 9a 92 82 bd 75 94 5e bc 08 d9 58 bd dd c8 a9 bc
       -0.06375618 -0.0135852 -0.052941352 -0.020725662
000020 eb b6 f0 bc 78 60 5b bd 24 a0 d2 bc b0 c7 ff bd
       -0.029384097 -0.053558797 -0.025711127 -0.12489259
000030 30 5b ee bb ed f7 9a bd 18 d5 9b bd 40 09 bb bc
       -0.007274054 -0.07566819 -0.07609004 -0.02283156
000040 6a c1 27 bc ca ad ad bc f7 d6 de bd 27 3a 03 bd
       -0.010238985 -0.021201033 -0.10880845 -0.03203788
000050 86 34 20 bc d4 06 c3 bc 0c 76 b2 bd db 4e 2a bd
       -0.009778148 -0.023806967 -0.08713922 -0.04157911
000060 4f 23 0f bc 38 c9 31 bd 74 62 1b bd 0f 25 b2 bd
       -0.008736446 -0.043404788 -0.03793569 -0.086984746
000070 4b c6 a6 bd 1f 48 5b bc 39 88 43 3d bd 57 d1 3b
       -0.0814329 -0.013383894 0.047737334 0.006388633
000080 94 2b 86 bc c8 07 56 bd 1d 2a 8a bd 2d 1d 40 3c
       -0.016378202 -0.052253515 -0.06746314 0.011725706
000090 0d 17 54 bc 58 dc 21 bd 8d 61 b4 bc c9 db 43 bd
       -0.012944949 -0.039516777 -0.022019172 -0.047817025
0000a0 67 f9 6b bd 20 5b b2 bd 5f 7e bb 3c af ab db bc
       -0.057610895 -0.08708787 0.022887407 -0.026815264
0000b0 0e bb 4f bd 2f 86 6e bd 71 79 0a bc 09 88 6c bd
       -0.0507155 -0.058233436 -0.008451805 -0.05774692
0000c0 5e a0 94 3b c3 fd ee 3b 5f 47 4b bd b3 91 09 3b
       0.004535719 0.0072934343 -0.04962861 0.0020991385
0000d0 77 59 17 bd 79 f0 69 bc 7e d1 f0 bc 8c 5f 4a bb
       -0.036950555 -0.014278525 -0.029396769 -0.0030879704
0000e0 7a 08 97 bd 90 0f b3 bd 85 6c f8 bc 4e 59 8b bc
       -0.07374664 -0.08743203 -0.030325184 -0.017010357
0000f0 04 b7 34 bd 76 a6 18 bc 3b c8 ce bd a1 67 f9 bc
       -0.04411985 -0.009317031 -0.10096785 -0.030444922
000100 11 0c 3d 40 04 f8 3d 40 cb 3a 3d 40 1a 70 3c 40
       2.9538615 2.9682627 2.9567134 2.9443421
000110 43 7f 2f 40 bf 8c 3c 40 cf 01 40 40 ea b5 3c 40
       2.7421424 2.9460905 3.0001104 2.9486032
000120 e1 45 3f 40 6c ab 3a 40 72 87 40 40 64 34 3a 40
       2.98864 2.9167128 3.008267 2.9094477
000130 44 01 40 40 7b 7c 33 40 aa b8 3b 40 70 65 3a 40
       3.0000772 2.8044727 2.933146 2.9124413
000140 0b df 42 40 b6 4f 40 40 cc 5c 3d 40 7b 3a 3e 40
       3.0448635 3.0048652 2.9587889 2.9723194
000150 2a 8b 37 40 e1 aa 3b 40 a3 d2 39 40 06 23 32 40
       2.867869 2.9323046 2.9034812 2.7833877
000160 41 2f 38 40 ef e9 40 40 d9 7a 3b 40 8a 50 3e 40
       2.8778841 3.0142782 2.929373 2.9736657
000170 c8 b2 37 40 e8 de 3b 40 8e 9c 3a 40 45 9f 3d 40
       2.870287 2.93548 2.9158053 2.962846
000180 91 fc 30 40 89 68 3c 40 8d 03 3c 40 66 f1 32 40
       2.7654154 2.9438803 2.9377167 2.7959838
000190 84 1c 36 40 18 b1 3e 40 b5 f8 3e 40 7d 6f 36 40
       2.8454905 2.979559 2.9839299 2.8505547
0001a0 99 34 3a 40 f7 13 38 40 86 38 32 40 c2 81 3f 40
       2.9094603 2.8762186 2.7847 2.9922948
0001b0 dd 1e 3d 40 aa 80 30 40 25 32 40 40 f5 4c 3c 40
       2.9550087 2.757853 3.0030606 2.942197
0001c0 1c 94 39 40 dc 65 3a 40 df 82 3d 40 d6 bc 41 40
       2.8996649 2.912467 2.9611127 3.0271506
0001d0 94 8b 33 40 60 72 3c 40 b3 fe 3d 40 28 8a 3a 40
       2.8053942 2.944481 2.9686706 2.9146824
0001e0 a4 d4 3e 40 30 88 2e 40 3a a7 3d 40 b1 5e 39 40
       2.9817286 2.7270622 2.9633317 2.8964045
0001f0 b6 83 3a 40 50 82 37 40 66 ad 35 40 32 77 32 40
       2.914289 2.8673286 2.8387084 2.788525
000200 4c 77 87 3b a8 1e 85 bc f1 68 31 bd b5 87 b3 bc
       0.0041340943 -0.01624997 -0.04331297 -0.021915296
000210 15 92 bb bc 84 ae 28 bd 1d fd 26 3c 90 e4 91 3b
       -0.022896806 -0.041182056 0.010192183 0.0044522956
000220 93 33 fc bc da 95 02 3d 85 44 c8 bb bb c8 00 bc
       -0.030786311 0.03188119 -0.006111684 -0.007860358
000230 1a 05 43 bc 57 f7 ed 3b 54 13 6b bc 20 00 4d 3d
       -0.011903072 0.007262151 -0.01434787 0.050048947
000240 c5 a3 92 bb 25 ee 8e 3b c8 9d c8 bb af d8 59 bc
       -0.0044750893 0.004361885 -0.0061223246 -0.01329629
000250 90 71 19 bd c8 9f 16 3c 1f 53 d0 3c db 9a 40 3a
       -0.037461817 0.009193368 0.02543026 0.0007347294
000260 46 93 01 bd 49 b7 14 3d 03 e0 36 bd 5e eb cc 3c
       -0.03163459 0.036307607 -0.044647228 0.025014576
000270 ca bd 8d 3c 0f f7 89 3d 2c 8e f6 bc 38 ea 3c bd
       0.017302413 0.06736576 -0.03009709 -0.046121806
000280 d4 04 34 ba 17 b0 c4 3b 80 d0 bd bc 94 bc cc bc
       -0.00068671745 0.006002437 -0.02317071 -0.024992265
000290 af 98 06 3d 60 e2 96 3c a9 82 12 bd 94 36 6e 3b
       0.032860454 0.01841849 -0.03576914 0.003634845
0002a0 5d ef 51 3c de 43 b1 3a bf b3 b6 3c 18 48 8d bd
       0.012813416 0.0013524254 0.022302506 -0.068985164
0002b0 35 50 02 3d 08 b0 ce 3c 3e 6a e8 bb 92 78 78 3d
       0.031814773 0.025230423 -0.007092743 0.06066186
0002c0 4e 5d 95 3c fc 19 77 3c 2c 5a 47 bb 35 02 b7 3c
       0.018232968 0.015081879 -0.0030418737 0.02233992
0002d0 da 3f fc 3c 01 46 fd 3c 1e f3 2e 3d 33 91 3b bd
       0.030792166 0.03091717 0.042712323 -0.04579277
0002e0 01 85 3b bc 95 0e 13 3c f1 ba 89 bb 26 5b dd 3c
       -0.011445285 0.008975645 -0.0042031934 0.027021002
0002f0 8d 96 07 bc 96 85 d2 3a d0 4e 3e 3d 0b 05 0d bd
       -0.00827564 0.001606154 0.04646188 -0.034428637
000300 11 12 82 bb 45 93 18 bd 3e cf 81 bd b2 23 83 bd
       -0.003969439 -0.037249822 -0.063383564 -0.06403293
000310 6c f1 8c 3d e6 1d a4 bc b7 ce b3 bd 0a c3 27 bd
       0.06881985 -0.020033788 -0.08779662 -0.040957488
000320 d1 84 e1 3b 82 d6 07 bd ce 6b 87 bd ed 86 40 bd
       0.006882288 -0.033163555 -0.06612359 -0.047003675
000330 50 a3 b8 bc 80 de 55 bd d2 54 82 bd 52 8e 2f bd
       -0.022538811 -0.052214146 -0.063638344 -0.042860337
000340 43 c2 f3 3b 48 64 2f bd a0 97 b7 bd 5b d6 1f bd
       0.0074389293 -0.042820245 -0.08964467 -0.039022785
000350 db 38 92 bc 20 5d a0 bd 87 b0 ff bc ce f3 5f 3d
       -0.017849376 -0.07830262 -0.031212104 0.05467587
000360 69 fd 14 3c 69 5d 72 bd 06 1d e4 bb 4c 90 d0 bd
       0.009093621 -0.059171114 -0.0069614677 -0.101837724
000370 42 1c 12 bd 73 a9 2f bd de 97 67 bd bb 1a e3 bc
       -0.03567148 -0.04288621 -0.056541316 -0.027722707
000380 75 8c 63 3d a9 36 80 bd 5a 99 75 bd a3 6e 25 bc
       0.055553872 -0.062604256 -0.0599607 -0.010097179
000390 55 c2 65 bc ba 9d 84 bd 39 66 60 bd 63 62 2d bd
       -0.014023383 -0.064753965 -0.054784987 -0.042330157
0003a0 14 fa 5f bd b1 4c ca bc 0e ae 31 b9 b8 87 06 bd
       -0.054681852 -0.024694772 -0.00016944876 -0.032844275
0003b0 f7 b9 98 bd c0 09 01 bd 99 ac a3 bc 0f 8e 29 bd
       -0.07457345 -0.03150344 -0.019979762 -0.041395243
0003c0 d7 81 33 bc c6 dd 1d bd d8 7e 2f bd c9 1c ea bc
       -0.010956249 -0.038541578 -0.042845577 -0.028578179
0003d0 25 d9 52 3b 23 cb da bc 55 49 9e bd f3 fb 99 bd
       0.0032172885 -0.026708191 -0.07728831 -0.075187586
0003e0 8e 63 84 bd d2 6b 45 bd f9 3f 1e bd 52 2d 75 bd
       -0.06464301 -0.04819853 -0.038635228 -0.059857674
0003f0 f5 fa 8a bd c3 a4 d8 bc fa 83 99 bd 66 a6 d0 3b
       -0.067861475 -0.026445752 -0.07495876 0.0063674925

cell.b_ih f4 [256]
000000 34 5c e0 bc a5 49 9f bd 82 13 78 bd 7f 30 99 bd
       -0.027387716 -0.077777185 -0.06056548 -0.07479953
000010 9a 92 82 bd 75 94 5e bc 08 d9 58 bd dd c8 a9 bc
       -0.06375618 -0.0135852 -0.052941352 -0.020725662
000020 eb b6 f0 bc 78 60 5b bd 24 a0 d2 bc b0 c7 ff bd
       -0.029384097 -0.053558797 -0.025711127 -0.12489259
000030 30 5b ee bb ed f7 9a bd 18 d5 9b bd 40 09 bb bc
       -0.007274054 -0.07566819 -0.07609004 -0.02283156
000040 6a c1 27 bc ca ad ad bc f7 d6 de bd 27 3a 03 bd
       -0.010238985 -0.021201033 -0.10880845 -0.03203788
000050 86 34 20 bc d4 06 c3 bc 0c 76 b2 bd db 4e 2a bd
       -0.009778148 -0.023806967 -0.08713922 -0.04157911
000060 4f 23 0f bc 38 c9 31 bd 74 62 1b bd 0f 25 b2 bd
       -0.008736446 -0.043404788 -0.03793569 -0.086984746
000070 4b c6 a6 bd 1f 48 5b bc 39 88 43 3d bd 57 d1 3b
       -0.0814329 -0.013383894 0.047737334 0.006388633
000080 94 2b 86 bc c8 07 56 bd 1d 2a 8a bd 2d 1d 40 3c
       -0.016378202 -0.052253515 -0.06746314 0.011725706
000090 0d 17 54 bc 58 dc 21 bd 8d 61 b4 bc c9 db 43 bd
       -0.012944949 -0.039516777 -0.022019172 -0.047817025
0000a0 67 f9 6b bd 20 5b b2 bd 5f 7e bb 3c af ab db bc
       -0.057610895 -0.08708787 0.022887407 -0.026815264
0000b0 0e bb 4f bd 2f 86 6e bd 71 79 0a bc 09 88 6c bd
       -0.0507155 -0.058233436 -0.008451805 -0.05774692
0000c0 5e a0 94 3b c3 fd ee 3b 5f 47 4b bd b3 91 09 3b
       0.004535719 0.0072934343 -0.04962861 0.0020991385
0000d0 77 59 17 bd 79 f0 69 bc 7e d1 f0 bc 8c 5f 4a bb
       -0.036950555 -0.014278525 -0.029396769 -0.0030879704
0000e0 7a 08 97 bd 90 0f b3 bd 85 6c f8 bc 4e 59 8b bc
       -0.07374664 -0.08743203 -0.030325184 -0.017010357
0000f0 04 b7 34 bd 76 a6 18 bc 3b c8 ce bd a1 67 f9 bc
       -0.04411985 -0.009317031 -0.10096785 -0.030444922
000100 b6 fb 3c bd 96 fe 01 bd 7c 4e 31 bd 88 fa 63 bd
       -0.046138488 -0.031736933 -0.04328774 -0.055658847
000110 04 06 84 be 45 d0 5c bd 98 dd e5 38 6b 87 52 bd
       -0.2578584 -0.05390956 0.00010960846 -0.051398676
000120 8d 12 3a bc dd 92 aa bd 15 61 07 3c e2 72 b9 bd
       -0.011356962 -0.08328793 0.008262892 -0.09055115
000130 62 3e a2 38 47 39 48 be 21 eb 88 bd fd 50 b3 bd
       7.736382e-05 -0.195531 -0.06685472 -0.08755682
000140 37 c3 37 3d 58 6d 9f 3b 55 c9 28 bd 24 c8 e2 bc
       0.044863906 0.0048653297 -0.04120763 -0.027683325
000150 81 4e 07 be 20 a4 8a bd c3 a9 c5 bd 0b cf 5d be
       -0.1321354 -0.067695856 -0.0965152 -0.21661012
000160 7c 18 fa bd 29 f4 69 3c 0a a6 90 bd 7f bd d7 bc
       -0.12211701 0.014279404 -0.070629194 -0.026335476
000170 eb d1 04 be f1 22 84 bd e9 6d ac bd 23 2b 18 bd
       -0.12970702 -0.06451977 -0.08419401 -0.037150513
000180 02 37 70 be 70 dc 65 bd cc 1d 7f bd 3a e9 50 be
       -0.23458484 -0.05611843 -0.062284276 -0.20401469
000190 07 37 1e be 94 78 a7 bc 9c a5 83 bc 7a 08 19 be
       -0.15450679 -0.020443238 -0.01607018 -0.1494464
0001a0 b2 6d b9 bd 0f 81 fd bd 25 78 5c be ca 7e fc bb
       -0.09054126 -0.123781316 -0.21530207 -0.007705544
0001b0 19 45 38 bd 9b f5 77 be 99 78 48 3b 5e c5 6c bd
       -0.04498777 -0.24214785 0.003058946 -0.05780541
0001c0 51 7c cd bd 00 44 b3 bd c0 4c 1f bd dc 6e de 3c
       -0.10033477 -0.08753204 -0.038891554 0.027152471
0001d0 c2 45 47 be 3b 66 63 bd 71 52 00 bd 51 bb ae bd
       -0.19460204 -0.055517416 -0.031328622 -0.085318215
0001e0 17 bb 95 bc 63 be 8b be 45 31 16 bd 83 27 d4 bd
       -0.018277688 -0.2729369 -0.03666808 -0.10359099
0001f0 6f 87 af bd 9f db 07 be c5 29 25 be 83 8c 58 be
       -0.08570754 -0.13267373 -0.16129215 -0.21147351
000200 4c 77 87 3b a8 1e 85 bc f1 68 31 bd b5 87 b3 bc
       0.0041340943 -0.01624997 -0.04331297 -0.021915296
000210 15 92 bb bc 84 ae 28 bd 1d fd 26 3c 90 e4 91 3b
       -0.022896806 -0.041182056 0.010192183 0.0044522956
000220 93 33 fc bc da 95 02 3d 85 44 c8 bb bb c8 00 bc
       -0.030786311 0.03188119 -0.006111684 -0.007860358
000230 1a 05 43 bc 57 f7 ed 3b 54 13 6b bc 20 00 4d 3d
       -0.011903072 0.007262151 -0.01434787 0.050048947
000240 c5 a3 92 bb 25 ee 8e 3b c8 9d c8 bb af d8 59 bc
       -0.0044750893 0.004361885 -0.0061223246 -0.01329629
000250 90 71 19 bd c8 9f 16 3c 1f 53 d0 3c db 9a 40 3a
       -0.037461817 0.009193368 0.02543026 0.0007347294
000260 46 93 01 bd 49 b7 14 3d 03 e0 36 bd 5e eb cc 3c
       -0.03163459 0.036307607 -0.044647228 0.025014576
000270 ca bd 8d 3c 0f f7 89 3d 2c 8e f6 bc 38 ea 3c bd
       0.017302413 0.06736576 -0.03009709 -0.046121806
000280 d4 04 34 ba 17 b0 c4 3b 80 d0 bd bc 94 bc cc bc
       -0.00068671745 0.006002437 -0.02317071 -0.024992265
000290 af 98 06 3d 60 e2 96 3c a9 82 12 bd 94 36 6e 3b
       0.032860454 0.01841849 -0.03576914 0.003634845
0002a0 5d ef 51 3c de 43 b1 3a bf b3 b6 3c 18 48 8d bd
       0.012813416 0.0013524254 0.022302506 -0.068985164
0002b0 35 50 02 3d 08 b0 ce 3c 3e 6a e8 bb 92 78 78 3d
       0.031814773 0.025230423 -0.007092743 0.06066186
0002c0 4e 5d 95 3c fc 19 77 3c 2c 5a 47 bb 35 02 b7 3c
       0.018232968 0.015081879 -0.0030418737 0.02233992
0002d0 da 3f fc 3c 01 46 fd 3c 1e f3 2e 3d 33 91 3b bd
       0.030792166 0.03091717 0.042712323 -0.04579277
0002e0 01 85 3b bc 95 0e 13 3c f1 ba 89 bb 26 5b dd 3c
       -0.011445285 0.008975645 -0.0042031934 0.027021002
0002f0 8d 96 07 bc 96 85 d2 3a d0 4e 3e 3d 0b 05 0d bd
       -0.00827564 0.001606154 0.04646188 -0.034428637
000300 11 12 82 bb 45 93 18 bd 3e cf 81 bd b2 23 83 bd
       -0.003969439 -0.037249822 -0.063383564 -0.06403293
000310 6c f1 8c 3d e6 1d a4 bc b7 ce b3 bd 0a c3 27 bd
       0.06881985 -0.020033788 -0.08779662 -0.040957488
000320 d1 84 e1 3b 82 d6 07 bd ce 6b 87 bd ed 86 40 bd
       0.006882288 -0.033163555 -0.06612359 -0.047003675
000330 50 a3 b8 bc 80 de 55 bd d2 54 82 bd 52 8e 2f bd
       -0.022538811 -0.052214146 -0.063638344 -0.042860337
000340 43 c2 f3 3b 48 64 2f bd a0 97 b7 bd 5b d6 1f bd
       0.0074389293 -0.042820245 -0.08964467 -0.039022785
000350 db 38 92 bc 20 5d a0 bd 87 b0 ff bc ce f3 5f 3d
       -0.017849376 -0.07830262 -0.031212104 0.05467587
000360 69 fd 14 3c 69 5d 72 bd 06 1d e4 bb 4c 90 d0 bd
       0.009093621 -0.059171114 -0.0069614677 -0.101837724
000370 42 1c 12 bd 73 a9 2f bd de 97 67 bd bb 1a e3 bc
       -0.03567148 -0.04288621 -0.056541316 -0.027722707
000380 75 8c 63 3d a9 36 80 bd 5a 99 75 bd a3 6e 25 bc
       0.055553872 -0.062604256 -0.0599607 -0.010097179
000390 55 c2 65 bc ba 9d 84 bd 39 66 60 bd 63 62 2d bd
       -0.014023383 -0.064753965 -0.054784987 -0.042330157
0003a0 14 fa 5f bd b1 4c ca bc 0e ae 31 b9 b8 87 06 bd
       -0.054681852 -0.024694772 -0.00016944876 -0.032844275
0003b0 f7 b9 98 bd c0 09 01 bd 99 ac a3 bc 0f 8e 29 bd
       -0.07457345 -0.03150344 -0.019979762 -0.041395243
0003c0 d7 81 33 bc c6 dd 1d bd d8 7e 2f bd c9 1c ea bc
       -0.010956249 -0.038541578 -0.042845577 -0.028578179
0003d0 25 d9 52 3b 23 cb da bc 55 49 9e bd f3 fb 99 bd
       0.0032172885 -0.026708191 -0.07728831 -0.075187586
0003e0 8e 63 84 bd d2 6b 45 bd f9 3f 1e bd 52 2d 75 bd
       -0.06464301 -0.04819853 -0.038635228 -0.059857674
0003f0 f5 fa 8a bd c3 a4 d8 bc fa 83 99 bd 66 a6 d0 3b
       -0.067861475 -0.026445752 -0.07495876 0.0063674925

head.net.0.weight f4 [1, 64]
000000 ba 65 32 3d e2 c1 84 3d 79 c4 4c 3b 90 7e 93 3b
       0.043554045 0.06482293 0.0031245037 0.0045011714
000010 b8 d9 8f be aa 8b 5d bc 22 73 a1 3d 7c 86 29 bc
       -0.28095794 -0.013522068 0.07883288 -0.010347005
000020 9a 9d 2e bd e2 e7 b0 bd 07 e9 ef 3c fb c4 52 bc
       -0.04263077 -0.08637978 0.02928592 -0.012864347
000030 d1 53 ab bb 84 33 69 be a7 62 98 bd 16 cd b3 3c
       -0.0052284976 -0.22773558 -0.074406914 0.021948379
000040 a8 da a1 3d 53 12 a4 bc 5a 35 79 3c ed 4d 0d 3d
       0.079030335 -0.020028269 0.015210474 0.034498144
000050 7c 64 e1 bd f7 69 59 3d 31 dd d3 3d 9d d6 73 be
       -0.11005494 0.05307957 0.10344923 -0.23812337
000060 aa c1 73 3d b1 e1 dc bc 4f e2 56 bd c5 06 b8 3c
       0.059510864 -0.026963087 -0.05246192 0.022464165
000070 6b 9a 07 be 5f 76 22 3d 04 7e 12 be c7 eb f5 bc
       -0.132425 0.03966367 -0.14305884 -0.030019654
000080 43 ac 6f 3e e4 fa 33 3a e0 89 7e bd c1 17 31 be
       0.23405556 0.0006865694 -0.062143207 -0.17294218
000090 7c 34 9d bd 0c 24 2e bd b5 4e 23 bd 38 e8 fd bd
       -0.07676026 -0.042514846 -0.039869983 -0.12397808
0000a0 43 40 ab bd 5c 7d ad bd 1a 63 04 3e 56 6c 0f 3d
       -0.08361866 -0.08471176 0.12928429 0.035015427
0000b0 79 74 af 3c 7d 5e 64 3e d9 a7 dc 3c f7 2d 95 bc
       0.021417843 0.2230167 0.026935505 -0.018210394
0000c0 a3 5b ab 3d 73 2e 05 bd e3 24 9c 3d 63 07 08 bd
       0.08367088 -0.032515 0.07624223 -0.03321017
0000d0 77 a5 8b bd 31 a0 73 3b 63 3b a4 3c 0a b1 ae bd
       -0.06818669 0.003717434 0.020047849 -0.08529861
0000e0 11 35 c7 bc f9 7b 25 be 96 d1 53 bd 22 1e e5 3d
       -0.024317296 -0.16160573 -0.05171355 0.11187388
0000f0 bb f9 99 bb c9 6e 82 3d d9 f5 05 3e 54 69 e9 3d
       -0.0046989596 0.06368787 0.13082065 0.11397043
