runs/lstm_camels_us_1901_235614/model_epoch002.pt (torch, 80974 bytes, 5 tensors)

cell.w_hh f4 [256, 64]
0	0xbe66f3ad	-0.22553892
1	0xbceb9f89	-0.028762596
2	0x3c818d82	0.015814546
3	0x3de3ce6a	0.11123355
4	0xbe417b0f	-0.188946
5	0xbe2b0480	-0.16700935
6	0xbb9610b0	-0.004579626
7	0x3b81384e	0.0039434796
8	0x3cd9b7a9	0.026576834
9	0x3d4d1b02	0.050074585
10	0x3d2e42c2	0.042544134
11	0x3cf6ec05	0.03014184
12	0xbd82af1f	-0.06381058
13	0xbc816561	-0.015795412
14	0x3e21b4a6	0.15791568
15	0xbdfdf11a	-0.12399502
16	0x3e1c3a72	0.1525667
17	0x3e2feaa5	0.17179354
18	0xbd40cd62	-0.04707087
19	0x3e0ad29c	0.13556904
20	0x3d60ccbb	0.054882746
21	0x3df5c766	0.12000923
22	0x3dc7d015	0.097564854
23	0x3d20e133	0.039277267
24	0xbe048afc	-0.12943643
25	0x3e2e5534	0.1702469
26	0x3dc9d86d	0.09855733
27	0x3cc2c7c0	0.023776889
28	0xbe5f24e0	-0.2179141
29	0x3d58ea9b	0.052958112
30	0xbe177fe1	-0.14794876
31	0xbe0af431	-0.13569714
32	0x3e95f927	0.2929165
33	0x3e4d2591	0.20033862
34	0xbe42d898	-0.19027936
35	0x3e063c6f	0.13108991
36	0xbd7b0e94	-0.0612932
37	0x3e0dd166	0.1384941
38	0x3e20cb9e	0.15702674
39	0x3d838d8b	0.064234816
40	0x3d1aefd8	0.03782639
41	0x3d776e4f	0.060407933
42	0x3e9289da	0.28620797
43	0xbe26ce57	-0.1628965
44	0xbd1940a3	-0.037415158
45	0x3dfa642d	0.12226138
46	0xbe2493f6	-0.16072068
47	0xbd2555a2	-0.04036487
48	0xbdd762b5	-0.10516874
49	0xbc18546c	-0.0092974715
50	0xbd108b6c	-0.035289213
51	0x3e489cb1	0.19591023
52	0x3d9790eb	0.07400688
53	0x3e528a79	0.20560636
54	0x3ddc0610	0.10743344
55	0x3de36e8d	0.1110507
56	0x3ccb947e	0.02485108
57	0x3db2c184	0.087283164
58	0x3cf2fb1d	0.029660756
59	0x3c8301df	0.015992103
60	0xbe5c402a	-0.21508852
61	0x3e0c1648	0.13680375
62	0xbad7b05c	-0.0016455757
63	0x3de0395a	0.10948439
64	0x3de0a018	0.109680355
65	0x3da74fa9	0.08169491
66	0x3ddd8d20	0.10817933
67	0xbd45ba43	-0.048273336
68	0xbb9f467e	-0.0048606982
69	0xbe6c210b	-0.2305948
70	0x3e4edf81	0.20202447
71	0xbe5989ea	-0.21244016
72	0xbdfa99f4	-0.122363955
73	0xbe1a62c5	-0.1507674
74	0xbde998d2	-0.11406101
75	0x3d16624a	0.03671483
76	0x3c887391	0.016656669
77	0xbe576259	-0.2103361
78	0x3dde2608	0.10847098
79	0x3d83eaa1	0.06441236
80	0x3c6800be	0.014160333
81	0xbe0eab20	-0.13932467
82	0xbccdc9a4	-0.025120564
83	0xbdcf413b	-0.101198636
84	0x3e4d44af	0.20045732
85	0xbe43e5ca	-0.19130626
86	0x3e0320a5	0.12805422
87	0x3c6d0842	0.014467301
88	0x3e6a29ac	0.22867459
89	0x3cdc05dd	0.026858265
90	0xbc0c6817	-0.008569739
91	0xbe491c1b	-0.19639628
92	0xbb4f9203	-0.0031672723
93	0x3e4b5fb1	0.19860722
94	0x3e65d4d4	0.22444469
95	0x3def974d	0.1169878
96	0xbe323c8a	-0.17405906
97	0x3e985d13	0.2975851
98	0xbe04e1b3	-0.12976722
99	0xbe38a0d2	-0.18030098
100	0x3e0369e3	0.12833361
101	0xbd62bc8b	-0.05535559
102	0xbd83d695	-0.06437413
103	0x3dd4dfdd	0.10394261
104	0xbd14b635	-0.03630658
105	0xbd455cce	-0.04818421
106	0xbd5e86d2	-0.054327793
107	0x3d17bbb5	0.037044246
108	0x3cddccfe	0.027075287
109	0xbdbbca85	-0.09169487
110	0xbd6d0c73	-0.0578732
111	0x379f0aa0	1.8959225e-05
112	0x3d91b9da	0.071155265
113	0x3da33ac2	0.079701915
114	0x3dd07000	0.10177612
115	0x3dce6a5e	0.10078882
116	0xbcd93ed2	-0.026519213
117	0xbd559f3d	-0.052153815
118	0x3dc1b975	0.09459201
119	0xbdffd04c	-0.12490901
120	0x3e187abe	0.14890572
121	0xbe82e41b	-0.25564656
122	0xbdf6db00	-0.1205349
123	0x3e608a9c	0.21927875
124	0xbe65547a	-0.22395507
125	0xbda4b2b8	-0.080419004
126	0xbce1bb9f	-0.027555285
127	0xbe0ddebb	-0.13854496
128	0x3d53bb1f	0.051692124
129	0x3da4ae8e	0.08041106
130	0xbe026e09	-0.12737288
131	0xbe038678	-0.12844265
132	0xbe1241f3	-0.1428297
133	0xbd865bb8	-0.06560463
134	0xbe03e836	-0.1288155
135	0x3e6082b9	0.21924867
136	0x3b44e7f7	0.0030045488
137	0x3e46f34b	0.19428746
138	0x3d968426	0.07349424
139	0x3e6386f0	0.22219443
140	0x3dc52955	0.09627024
141	0xbddedd85	-0.10882095
142	0x3ca9d483	0.020731216
143	0xbe8a1618	-0.2696998
144	0x3af26977	0.0018494566
145	0xbe0ec061	-0.13940574
146	0x3c6cbd27	0.014449394
147	0x3e7e3b60	0.24827337
148	0x3da01dcc	0.07818183
149	0x3d939e18	0.07207888
150	0xbdffc34c	-0.12488422
151	0x3e1ad138	0.15118873
152	0x3daea15c	0.085268706
153	0xbd46be0b	-0.048521083
154	0xbcb3c3e2	-0.02194399
155	0x3e19c68f	0.1501715
156	0xbe273aa8	-0.1633097
157	0xbe4031af	-0.18768953
158	0xbd2ed3e2	-0.042682536
159	0x3e0b63bb	0.13612263
160	0xbd8cd51b	-0.06876584
161	0xbdc041dd	-0.093875624
162	0x3e01cfcf	0.12676929
163	0xbd34440b	-0.044010203
164	0x3df34c77	0.11879819
165	0x3da869f1	0.08223332
166	0x3d375ea0	0.044767976
167	0xbe5498de	-0.20761439
168	0x3e3e2244	0.18567759
169	0xbd8a391d	-0.06749175
170	0x3e133f63	0.14379649
171	0x3e5fad69	0.21843494
172	0xbd6e7b78	-0.058223218
173	0x3dce2ea3	0.10067489
174	0xbe3f9ae4	-0.1871143
175	0x3e2f4400	0.17115784
176	0xbe40db14	-0.18833572
177	0xbe2a79dd	-0.1664805
178	0x3e8a4016	0.2700202
179	0xbe162056	-0.14660773
180	0xbe0b4c15	-0.13603242
181	0x3dedf56b	0.116190754
182	0xbd125e86	-0.035734676
183	0xbc863cdf	-0.016386447
184	0x3e0b08af	0.13577531
185	0x3e3b53d9	0.18293704
186	0xbc089c6d	-0.008338076
187	0xbe00895f	-0.12552403
188	0xbc29d44a	-0.010365555
189	0xbdca5fd1	-0.09881557
190	0xbe6467e4	-0.22305256
191	0xbd736737	-0.059424605
192	0xbe49d9bd	-0.19711967
193	0x3e11c86f	0.14236616
194	0x3e2e43e3	0.17018084
195	0xbcc503d8	-0.024049684
196	0xbdcbf352	-0.09958519
197	0xbde391ca	-0.111117914
198	0x3deb8bcf	0.11501276
199	0xbdc6824b	-0.0969282
200	0x3d194a4f	0.03742438
201	0xbe4aa169	-0.19788136
202	0x3d95ddd4	0.07317701
203	0xbcdbb338	-0.026818857
204	0x3e1c92f8	0.15290439
205	0x3ddf465e	0.10902093
206	0xbd3b173a	-0.045676447
207	0xbe5b5366	-0.21418533
208	0xbe819015	-0.25305238
209	0x3dd75e5b	0.10516044
210	0xbdb7b529	-0.089701004
211	0xbe6e6f35	-0.2328461
212	0x3d8a5cd9	0.067559905
213	0xbe03584b	-0.1282665
214	0x3d2a04a1	0.04150832
215	0xbc4f6b90	-0.012659922
216	0x3e213280	0.1574192
217	0x3d388306	0.04504683
218	0xbdb932f9	-0.090429254
219	0x3d738aac	0.05945842
220	0x3e9b8769	0.30376747
221	0xbe32bc30	-0.174546
222	0x3db300e4	0.08740404
223	0xbd7b7886	-0.061394237
224	0x3c9972ec	0.018731557
225	0xbe32f21a	-0.17475167
226	0xbe2c087d	-0.16800113
227	0x3def3ba9	0.11681301
228	0x3e6e8094	0.23291236
229	0xbd1f7937	-0.03893396
230	0x3e7b1df2	0.24523142
231	0xbe1b76aa	-0.15181985
232	0x3deeccc7	0.11660152
233	0xbd05abc7	-0.032634523
234	0xbc35d2f1	-0.011097656
235	0xbca90423	-0.020631855
236	0xbdfb60b4	-0.12274304
237	0x3e349fae	0.17639038
238	0xbde6070c	-0.11231813
239	0xbdfc305d	-0.12313912
240	0x3daf7af8	0.08568376
241	0xbe1d7b32	-0.15379027
242	0xbde5334e	-0.11191426
243	0x3e07d7cb	0.13265912
244	0xbdddd20b	-0.10831078
245	0x3de5176a	0.111861065
246	0x3c962ba9	0.018331366
247	0x3ddf6b7d	0.10909174
248	0xbd8c2d6f	-0.06844603
249	0x3da90d95	0.08254544
250	0x3c8281a2	0.015930954
251	0xbdc69a35	-0.096973814
252	0xbe39fd02	-0.18162921
253	0x3e121163	0.14264445
254	0xbe02a2c0	-0.12757397
255	0x3df8b25f	0.121433966

cell.w_ih f4 [256, 10]
0	0xbd2fd8f1	-0.0429315
1	0xbe943a98	-0.28950953
2	0x3c395c50	0.011313513
3	0x3e25779c	0.16158909
4	0x3e94ac1b	0.29037556
5	0xbdec2c75	-0.11531917
6	0xbc7591b6	-0.0149883535
7	0x3e405a78	0.18784511
8	0xbd32adcc	-0.043622777
9	0x3cd0f9ac	0.025509678
10	0x3e82ce1b	0.2554787
11	0xbd86e81c	-0.0658724
12	0x3e2df290	0.16987062
13	0x3e0811ce	0.13288042
14	0x3bdfbc36	0.0068278564
15	0xbe7d9d74	-0.24767095
16	0x3cd6619b	0.026169589
17	0x3d15cdcc	0.036573216
18	0xbdad4d4a	-0.08462007
19	0x3ce0a56b	0.027422627
20	0xbe788ff0	-0.24273658
21	0x3d8cf791	0.06883157
22	0xbe3bddf4	-0.18346387
23	0x3e118cfe	0.1421394
24	0x3ca8e88d	0.020618701
25	0x3e77c3b1	0.24195744
26	0xbe312d4a	-0.17302433
27	0x3e0edb36	0.1395081
28	0xbe1bb87c	-0.15207094
29	0x3dd15974	0.1022214
30	0xbd895465	-0.0670555
31	0xbd153dd2	-0.03643591
32	0x3cda5633	0.026652431
33	0xbd70a272	-0.05874867
34	0xbe3ba094	-0.18322974
35	0x3e335c6c	0.17515725
36	0x3b91a2bd	0.0044444487
37	0x3decfd19	0.11571712
38	0x3e737fbd	0.23779197
39	0xbe2f1449	-0.17097582
40	0x3ede86a9	0.43462113
41	0x3e50736a	0.20356527
42	0x3e4a13b5	0.1973408
43	0x3e83e055	0.2575709
44	0x3e34d936	0.17660984
45	0xbe111828	-0.14169371
46	0x3d81ef12	0.06344427
47	0xbdf446b0	-0.11927545
48	0xbe06f939	-0.13181008
49	0x3e7bdef7	0.24596773
50	0x3d573a8a	0.05254606
51	0xbdbcea16	-0.09224336
52	0xbc035b3c	-0.008017357
53	0xbd4d7fe4	-0.050170794
54	0xbc3e7313	-0.0116241155
55	0xbe2b99fd	-0.1675796
56	0xbc649c39	-0.013953262
57	0xbe6dd377	-0.23225199
58	0xbd0ee235	-0.034883697
59	0xbe93c09c	-0.28857887
60	0xbe7754a0	-0.24153376
61	0xbe0a125f	-0.1348357
62	0x3e27efd3	0.1640008
63	0xbd0b1f9b	-0.03396569
64	0xbe54c6e6	-0.20778999
65	0x3e628428	0.22120726
66	0xbe6a3407	-0.2287141
67	0xbd85868a	-0.06519802
68	0xbe33781b	-0.17526285
69	0x3c9f2a32	0.0194293
70	0xbdaa2378	-0.083075464
71	0x3dc7f2a5	0.09763078
72	0x3e723390	0.23652482
73	0x3e0315d9	0.12801303
74	0x3df6f1c8	0.12057835
75	0x3e4603c1	0.1933737
76	0x3d28f3fc	0.041248307
77	0x3e175846	0.14779767
78	0x3e537914	0.20651656
79	0x3e0d0e15	0.13774903
80	0xbd86c6de	-0.065809
81	0x3c718fe7	0.014743782
82	0xbe06be3d	-0.13158508
83	0xbddb9af2	-0.10722913
84	0x3dc2f09b	0.09518548
85	0xbe0cbdad	-0.1374423
86	0x3d87c8b8	0.06630081
87	0xbda608ff	-0.081071846
88	0x3e54fab6	0.20798764
89	0x3e22d1e3	0.15900378
90	0x3e9ddb0b	0.3083118
91	0xbd4ff667	-0.050772097
92	0x3e30aa40	0.17252445
93	0x3c9310bb	0.017952314
94	0xbdc80e94	-0.097684056
95	0xbe264640	-0.16237736
96	0x3e5e1dc8	0.21691048
97	0x3e0d04ab	0.13771312
98	0x3e4811f9	0.19538106
99	0xbdf258fd	-0.118333794
100	0xbc954fda	-0.018226553
101	0xbdc37690	-0.095440984
102	0x3e3de923	0.18545966
103	0x3e8257b8	0.2545755
104	0x3d5f8f7d	0.0545802
105	0x3e3e40aa	0.18579355
106	0x3aa6c6c6	0.0012724034
107	0xbcddaa13	-0.027058637
108	0x3daa9a85	0.083302535
109	0x3de45cac	0.11150488
110	0xbe061a6d	-0.13096018
111	0xbd9159f6	-0.07097237
112	0xbd9c7468	-0.0763939
113	0xbe91cefc	-0.2847823
114	0x3d3e4ab5	0.046457965
115	0xbde199be	-0.11015652
116	0xbe0482ae	-0.12940475
117	0xbc03d94f	-0.008047416
118	0x3e96d80f	0.29461715
119	0xbe156ee0	-0.14593077
120	0xbe02d80b	-0.12777726
121	0xbc40c369	-0.011765339
122	0x3cc7e567	0.02440138
123	0x3dd29cfc	0.10283849
124	0x3e557ddd	0.20848794
125	0xbdd11279	-0.102086015
126	0x3dc9d674	0.09855357
127	0x3e2e80b0	0.17041278
128	0xbd463358	-0.04838881
129	0x3cb0cd6b	0.021582326
130	0x3e58036f	0.2109506
131	0xbe91811b	-0.28418812
132	0xbc7155dc	-0.014729943
133	0x3d8741b7	0.06604331
134	0xbdbd3885	-0.09239296
135	0xbdfd6a5f	-0.12373804
136	0x3d4edec6	0.050505422
137	0x3e3bc1c2	0.18335631
138	0xbda973e0	-0.082740545
139	0x3e74b0b6	0.23895535
140	0x3e62d380	0.22150993
141	0x3e5f6aaa	0.21818033
142	0x3d706057	0.058685627
143	0x3e2d1b9a	0.1690506
144	0x3e4734a0	0.19453669
145	0xbdfa2c8e	-0.122155294
146	0x3c8d7f54	0.017272629
147	0xbe1e88ba	-0.15481845
148	0x3d8703d8	0.0659253
149	0xbd76d87c	-0.06026505
150	0x3e7c8c98	0.24663007
151	0x3e49c407	0.19703685
152	0x3dec7335	0.115454115
153	0xbe5dfb0e	-0.21677801
154	0x3e14b67b	0.14522736
155	0x3d87e578	0.066355646
156	0xbdc378a1	-0.095444925
157	0xbd96eefb	-0.07369801
158	0xbe2cf0c9	-0.16888727
159	0xbdff26fa	-0.12458606
160	0xbdbe5853	-0.0929419
161	0x3dc646b7	0.096814565
162	0xbde0d02c	-0.10977206
163	0xbe180de8	-0.14849055
164	0x3dc0f196	0.09421079
165	0x3e535f08	0.2064172
166	0xbe10c956	-0.14139304
167	0xbdd9516d	-0.10611234
168	0xbe3b8bbc	-0.18315023
169	0xbcbf056c	-0.023318015
170	0xbc3ed732	-0.011647986
171	0xbca8706e	-0.020561423
172	0x3d80b957	0.06285351
173	0xbdcf8b7a	-0.10134025
174	0x3e6ff6ff	0.23434065
175	0xbdf63c65	-0.12023238
176	0xbe147bb6	-0.14500317
177	0xbdf128b5	-0.117753424
178	0x3e50e71f	0.20400666
179	0xbdc9feda	-0.09863062
180	0xbdd4e2cb	-0.1039482
181	0xbdcc143a	-0.099647954
182	0xbdc68c0f	-0.09694683
183	0xbe407dfe	-0.18798062
184	0xbe64b03d	-0.22332855
185	0x3de080eb	0.10962089
186	0xbcfe5a9b	-0.031049063
187	0x3eb0a421	0.3450022
188	0xbe101e70	-0.14074111
189	0x3e9a01f3	0.30079612
190	0xbe14a1c8	-0.1451484
191	0x3e587ae7	0.21140634
192	0x3dee3079	0.11630339
193	0x3bfd3a75	0.007727916
194	0xbe618557	-0.22023521
195	0x3d52279e	0.051307313
196	0x3e0c64d1	0.13710333
197	0x3cdc3d1a	0.026884604
198	0x3da0d00e	0.07852183
199	0x3c35d0ea	0.011097172
200	0x3ec28131	0.3798919
201	0x3e5ed409	0.21760572
202	0xbcf127ea	-0.029437978
203	0xbdab6bb4	-0.08370152
204	0xbd6b5431	-0.057453338
205	0x3e4cf9b1	0.20017125
206	0x3de1c6e8	0.110242665
207	0x3ce19a50	0.027539402
208	0x3e487e34	0.19579393
209	0x3e6ba008	0.23010266
210	0x3db9c7f4	0.09071341
211	0x3de0b785	0.109725036
212	0x3d39034e	0.045169167
213	0x3e802ec9	0.25035694
214	0x3e60c9de	0.21952006
215	0x3d2486a7	0.040167477
216	0xbe4bc471	-0.19899155
217	0xbd763f9a	-0.06011925
218	0x3e267fc6	0.16259679
219	0x3e2accf8	0.16679752
220	0x3ebafe93	0.3652235
221	0xbdd82560	-0.10554004
222	0x3dc5630b	0.096380316
223	0x3eb2f977	0.34955952
224	0x3e8a326d	0.26991597
225	0xbe29d50c	-0.16585177
226	0x3d2166d1	0.039404694
227	0x3e1c4ea7	0.15264378
228	0xbe32011f	-0.1738324
229	0x3e75a2fc	0.23987955
230	0x3ebe31eb	0.3714746
231	0x3e1b008d	0.15136929
232	0x3f04f90a	0.51942503
233	0x3ea6da3d	0.32588378
234	0x3e8a875d	0.270564
235	0x3db8b870	0.09019554
236	0x3e7d45df	0.24733685
237	0xbd8e42f1	-0.06946362
238	0xbe3e02c2	-0.1855574
239	0x3e7422bd	0.23841377
240	0x3e8f2203	0.27955636
241	0xbdc62c8d	-0.09676466
242	0x3e68fd76	0.22752938
243	0x3d09eb9d	0.033671964
244	0xbe0aceb0	-0.13555408
245	0x3b01bd11	0.001979653
246	0x3de54acf	0.11195909
247	0xbdaa6d23	-0.083215974
248	0x3e00c040	0.12573338
249	0x3e613a5e	0.21994922
250	0xbcd6f41f	-0.026239453
251	0xbe625a94	-0.22104865
252	0x3da80b9c	0.08205339
253	0x3e135aae	0.1439006
254	0x3cc53007	0.024070753
255	0xbe30918e	-0.17243025

cell.b_hh f4 [256]
0	0xbcf9ee83	-0.030509239
1	0xbdd19545	-0.10233549
2	0xbdc06ade	-0.09395383
3	0xbde83f9a	-0.11340256
4	0xbe1ed294	-0.15510017
5	0xbca2f4d1	-0.019892128
6	0xbd7ff940	-0.062493563
7	0xbd63a5bb	-0.055577975
8	0xbd9d74fa	-0.07688327
9	0xbd9df89c	-0.07713434
10	0xbd270e34	-0.04078503
11	0xbde59f08	-0.112119734
12	0xbd636424	-0.055515423
13	0xbe1bb2bf	-0.15204905
14	0xbde19cd2	-0.11016239
15	0xbd039985	-0.03212883
16	0xbcb8a1c3	-0.022538071
17	0xba4a3af4	-0.0007714473
18	0xbdf4d7c6	-0.11955218
19	0xbd520878	-0.051277608
20	0xbd84c9ff	-0.0648384
21	0xbd04f4df	-0.03246009
22	0xbe0f9bca	-0.14024273
23	0xbe03b193	-0.12860708
24	0xbd4c6180	-0.04989767
25	0xbd8b2755	-0.06794611
26	0xbd1aee43	-0.03782488
27	0xbe04ce82	-0.12969401
28	0xbe0e4bbb	-0.13896076
29	0xbca54881	-0.020176174
30	0x3c86c7a6	0.016452622
31	0x3d15b879	0.03655288
32	0xbda0e11d	-0.07855437
33	0xbde5d5bb	-0.112224065
34	0xbd9eed4e	-0.07760106
35	0xbd07c76d	-0.03314917
36	0xbd317d84	-0.04333259
37	0xbd20e113	-0.039277148
38	0xbd355aa2	-0.044275887
39	0xbda1e14c	-0.079043
40	0xbda50f4d	-0.08059559
41	0xbe09133b	-0.13386242
42	0x3b953939	0.0045539406
43	0xbd7b430e	-0.061343245
44	0xbdcad5ef	-0.09904086
45	0xbe19e1a3	-0.1502748
46	0xbd4ff3a0	-0.05076945
47	0xbda65446	-0.08121543
48	0x3be240eb	0.0069047115
49	0x3cd53644	0.026026852
50	0xbd9bea39	-0.07613034
51	0xbc9410c8	-0.018074408
52	0xbcb748ba	-0.022373546
53	0xbcb979eb	-0.022641143
54	0xbd5ebb92	-0.0543781
55	0xbca519d3	-0.020153916
56	0xbdae905a	-0.085236266
57	0xbe321f98	-0.17394865
58	0xbce1ba1f	-0.02755457
59	0xbd6e7256	-0.058214508
60	0xbd6541cb	-0.05597095
61	0xbbaf87da	-0.005356771
62	0xbe210f84	-0.15728575
63	0xbd1017b2	-0.035178848
64	0x403ca2a0	2.9474258
65	0x403c1444	2.938737
66	0x403cf03d	2.952163
67	0x403a5af4	2.9118013
68	0x402a59ba	2.6617265
69	0x403e7549	2.9759085
70	0x403f90eb	2.99322
71	0x403a8d6f	2.9148824
72	0x403a5768	2.9115849
73	0x403d6dfb	2.9598377
74	0x4041290b	3.01813
75	0x403c691a	2.943915
76	0x403e8246	2.9767013
77	0x403381b0	2.8047905
78	0x403ad56a	2.9192758
79	0x4039d479	2.9035933
80	0x404181ef	3.0235555
81	0x4041279d	3.0180428
82	0x403e9785	2.977998
83	0x403cd39f	2.9504163
84	0x402ffecc	2.7499266
85	0x403a9c8a	2.9158044
86	0x40379804	2.8686533
87	0x4030d1f2	2.762814
88	0x40340026	2.812509
89	0x4042342f	3.034435
90	0x4038dfce	2.88866
91	0x403c21d0	2.9395638
92	0x403277e6	2.788568
93	0x4039bdbd	2.9022057
94	0x4033ad78	2.8074627
95	0x403c466b	2.941798
96	0x402c69ff	2.6939695
97	0x403a55df	2.9114912
98	0x40363f89	2.8476279
99	0x402d5eba	2.7089067
100	0x403540b1	2.8320735
101	0x40409ad8	3.009451
102	0x403e7c7a	2.9763474
103	0x402ffbe4	2.7497492
104	0x40385923	2.8804405
105	0x4034f60f	2.8275182
106	0x402ca41d	2.6975167
107	0x403c1648	2.93886
108	0x403acc5b	2.9187229
109	0x402c3b73	2.6911285
110	0x403ef93b	2.9839618
111	0x403c77e5	2.9448178
112	0x4038d2e9	2.887873
113	0x4039bebb	2.9022663
114	0x4039c62e	2.902721
115	0x403f965d	2.9935524
116	0x4033503a	2.8017716
117	0x403c8739	2.9457533
118	0x403b24dc	2.9241247
119	0x4035f837	2.8432748
120	0x403dbfe4	2.964837
121	0x40250e56	2.579
122	0x403e4f26	2.9735808
123	0x40354844	2.8325357
124	0x4039fcf7	2.9060647
125	0x4035f398	2.8429928
126	0x4031df66	2.7792602
127	0x402b867a	2.6800828
128	0x3b424624	0.0029643858
129	0xbcbc602b	-0.022995075
130	0xbd4b7c1b	-0.049678903
131	0xbcfb15b1	-0.030649992
132	0xbc5a7ccd	-0.013335419
133	0xbd915289	-0.070958205
134	0x3c43b1fb	0.011944289
135	0xbb2ffe09	-0.0026854298
136	0xbd635338	-0.055499285
137	0x3d366944	0.044533983
138	0xbbac772d	-0.0052632303
139	0xbc9a2427	-0.018816067
140	0xbbea3681	-0.0071476107
141	0xbc79a76e	-0.015237672
142	0x3cca25b7	0.024676187
143	0x3da63b8b	0.08116826
144	0xbb5f426a	-0.0034066685
145	0xba91f0ff	-0.0011134445
146	0xbc890810	-0.016727477
147	0xbcbe10d5	-0.023201386
148	0xbd421214	-0.047380522
149	0xbbd2f80c	-0.006438261
150	0x3d3241f1	0.043519918
151	0x3be22211	0.0069010337
152	0xbce4d744	-0.027934678
153	0x3cdafa02	0.026730541
154	0xbd296df3	-0.04136462
155	0x3d2d64e1	0.042332534
156	0x3c84169a	0.016124059
157	0x3dac63a3	0.08417442
158	0xbd30b6d3	-0.043143105
159	0xbd1f2d7c	-0.038861737
160	0x3c4e13f6	0.012578001
161	0x3ca830a2	0.020531002
162	0xbd524026	-0.051330708
163	0xbd2b7557	-0.04185995
164	0x3d4c6d70	0.049909055
165	0x3cd18efd	0.025580877
166	0xbd54c1be	-0.05194258
167	0x3be8d812	0.0071058357
168	0x3cb4cc07	0.022069944
169	0x3c61db0d	0.013785136
170	0x3c7e4514	0.015519399
171	0xbda29128	-0.079378426
172	0x3d2d4a5d	0.042307246
173	0x3ce6885a	0.02814119
174	0xbc00d589	-0.007863411
175	0x3d984ad8	0.0743615
176	0x3c5d422f	0.013504549
177	0xbcb0a252	-0.021561775
178	0x3cd3c140	0.025848985
179	0x3cc1bed0	0.023650557
180	0x3d5ba9ad	0.053628612
181	0x3d541daa	0.051786102
182	0x3d6cb7c8	0.057792455
183	0xbd533c14	-0.051570967
184	0xbcfcd779	-0.030864464
185	0x3d01c5f8	0.03168294
186	0x3c42a2c1	0.011879624
187	0x3d2d98cd	0.04238205
188	0xbc57075f	-0.013124316
189	0x3ca108e0	0.019657552
190	0x3d43ea8e	0.04783111
191	0xbd18f011	-0.03733832
192	0x3ca79ce4	0.020460553
193	0xbd292df8	-0.041303605
194	0xbdcb6586	-0.099314734
195	0xbd7df0b3	-0.061997127
196	0x3ce78588	0.028261915
197	0xbc6b4cf8	-0.0143616125
198	0xbe0ebf2a	-0.13940111
199	0xbd3e25b4	-0.046422675
200	0xbcd5a6c9	-0.026080506
201	0xbd84e794	-0.064894825
202	0xbd6af9dd	-0.057367194
203	0xbda10c9a	-0.07863732
204	0xbd2c6f65	-0.04209842
205	0xbe23a9d8	-0.15982759
206	0xbe156e77	-0.1459292
207	0xbca29d93	-0.019850528
208	0xbc567d35	-0.013091375
209	0xbd880431	-0.066414244
210	0xbdcf20cb	-0.10113677
211	0xbd21794b	-0.039422315
212	0xbd58aef2	-0.052901216
213	0xbdca5c8e	-0.09880935
214	0xbda67fea	-0.081298664
215	0xbcc4bd10	-0.024015933
216	0x3babf9aa	0.005248268
217	0xbd92913c	-0.071566075
218	0xbd472f0b	-0.048628848
219	0xbe12475e	-0.14285037
220	0xbdc2a4b1	-0.09504069
221	0xbd877f50	-0.0661608
222	0xbdf55ac3	-0.11980202
223	0xbd28ba2a	-0.041193165
224	0x3c195566	0.0093587395
225	0xbddaea98	-0.106892765
226	0xbd903335	-0.07041017
227	0xbddf950e	-0.10917102
228	0xbda8baa5	-0.082387246
229	0xbdbb5787	-0.09147554
230	0xbe023234	-0.12714463
231	0xbddd0dff	-0.10793685
232	0xbdc85fcc	-0.09783897
233	0xbd7cd280	-0.061724186
234	0xbcc533f9	-0.024072634
235	0xbd64179a	-0.05568657
236	0xbdd720b7	-0.10504287
237	0xbd0d7b40	-0.03454137
238	0xbce8b093	-0.02840451
239	0xbd69ab63	-0.057048213
240	0xbd3bba7d	-0.045832146
241	0xbd51dd52	-0.051236458
242	0xbdda6cf5	-0.10665313
243	0xbde8d98d	-0.113696195
244	0x3d60bdb6	0.054868422
245	0x3baba9a6	0.0052387295
246	0xbdce9c7b	-0.1008844
247	0xbe0fd922	-0.14047673
248	0xbda53997	-0.08067625
249	0xbdb3fff8	-0.087890565
250	0xbd5f7b19	-0.054560754
251	0xbdf9141b	-0.12162038
252	0xbd9924c4	-0.074777156
253	0xbd57d640	-0.05269456
254	0xbe244e96	-0.16045603
255	0xbb0ac58c	-0.0021174876

cell.b_ih f4 [256]
0	0xbcf9ee83	-0.030509239
1	0xbdd19545	-0.10233549
2	0xbdc06ade	-0.09395383
3	0xbde83f9a	-0.11340256
4	0xbe1ed294	-0.15510017
5	0xbca2f4d1	-0.019892128
6	0xbd7ff940	-0.062493563
7	0xbd63a5bb	-0.055577975
8	0xbd9d74fa	-0.07688327
9	0xbd9df89c	-0.07713434
10	0xbd270e34	-0.04078503
11	0xbde59f08	-0.112119734
12	0xbd636424	-0.055515423
13	0xbe1bb2bf	-0.15204905
14	0xbde19cd2	-0.11016239
15	0xbd039985	-0.03212883
16	0xbcb8a1c3	-0.022538071
17	0xba4a3af4	-0.0007714473
18	0xbdf4d7c6	-0.11955218
19	0xbd520878	-0.051277608
20	0xbd84c9ff	-0.0648384
21	0xbd04f4df	-0.03246009
22	0xbe0f9bca	-0.14024273
23	0xbe03b193	-0.12860708
24	0xbd4c6180	-0.04989767
25	0xbd8b2755	-0.06794611
26	0xbd1aee43	-0.03782488
27	0xbe04ce82	-0.12969401
28	0xbe0e4bbb	-0.13896076
29	0xbca54881	-0.020176174
30	0x3c86c7a6	0.016452622
31	0x3d15b879	0.03655288
32	0xbda0e11d	-0.07855437
33	0xbde5d5bb	-0.112224065
34	0xbd9eed4e	-0.07760106
35	0xbd07c76d	-0.03314917
36	0xbd317d84	-0.04333259
37	0xbd20e113	-0.039277148
38	0xbd355aa2	-0.044275887
39	0xbda1e14c	-0.079043
40	0xbda50f4d	-0.08059559
41	0xbe09133b	-0.13386242
42	0x3b953939	0.0045539406
43	0xbd7b430e	-0.061343245
44	0xbdcad5ef	-0.09904086
45	0xbe19e1a3	-0.1502748
46	0xbd4ff3a0	-0.05076945
47	0xbda65446	-0.08121543
48	0x3be240eb	0.0069047115
49	0x3cd53644	0.026026852
50	0xbd9bea39	-0.07613034
51	0xbc9410c8	-0.018074408
52	0xbcb748ba	-0.022373546
53	0xbcb979eb	-0.022641143
54	0xbd5ebb92	-0.0543781
55	0xbca519d3	-0.020153916
56	0xbdae905a	-0.085236266
57	0xbe321f98	-0.17394865
58	0xbce1ba1f	-0.02755457
59	0xbd6e7256	-0.058214508
60	0xbd6541cb	-0.05597095
61	0xbbaf87da	-0.005356771
62	0xbe210f84	-0.15728575
63	0xbd1017b2	-0.035178848
64	0xbd575629	-0.052572403
65	0xbd7af4f9	-0.06126878
66	0xbd43efb2	-0.047836013
67	0xbdb4a312	-0.08820166
68	0xbead3220	-0.33827305
69	0xbcc55bb3	-0.024091577
70	0xbbde40c9	-0.0067826253
71	0xbdae52fb	-0.08511921
72	0xbdb511a5	-0.08841256
73	0xbd2483cf	-0.040164765
74	0x3c947e7e	0.018126722
75	0xbd65b78d	-0.05608325
76	0xbcbed9f4	-0.023297288
77	0xbe47e5a5	-0.19521196
78	0xbda551ec	-0.08072266
79	0xbdc56ff2	-0.096404925
80	0x3cc0f8c3	0.023556119
81	0x3c93d171	0.018044205
82	0xbcb434a9	-0.021997767
83	0xbd4b1a00	-0.049585342
84	0xbe800aa3	-0.25008115
85	0xbdac6fb9	-0.08419747
86	0xbe067ec0	-0.13134289
87	0xbe72df2c	-0.23717946
88	0xbe3ffd7a	-0.18749037
89	0x3d0d0e1f	0.034437295
90	0xbde405e5	-0.11133937
91	0xbd778cbc	-0.06043695
92	0xbe588075	-0.21142752
93	0xbdc847f2	-0.097793475
94	0xbe4528a6	-0.19253787
95	0xbd6e6430	-0.058201015
96	0xbe9caffa	-0.3060301
97	0xbdb54433	-0.088508986
98	0xbe1c075c	-0.15237182
99	0xbe9509c9	-0.29109028
100	0xbe2bf497	-0.16792522
101	0x3c1aca59	0.0094476575
102	0xbcc1ba28	-0.023648337
103	0xbe8020c2	-0.25024992
104	0xbdf4dba4	-0.119559556
105	0xbe309f89	-0.17248358
106	0xbe9adf3b	-0.30248436
107	0xbd7a6f4f	-0.06114131
108	0xbda67441	-0.081276424
109	0xbe9e243a	-0.30887014
110	0xbc836028	-0.016037062
111	0xbd620812	-0.055183478
112	0xbde5a4fd	-0.1121311
113	0xbdc82861	-0.09773327
114	0xbdc73c36	-0.09728281
115	0xbbd31ed8	-0.006442886
116	0xbe4afc58	-0.19822824
117	0xbd5e32d4	-0.054247692
118	0xbd9b6348	-0.07587296
119	0xbe207cee	-0.15672657
120	0xbd100c6f	-0.035168108
121	0xbed78cc9	-0.42099598
122	0xbcd876e5	-0.02642388
123	0xbe2b79b1	-0.1674564
124	0xbdc060ae	-0.0939344
125	0xbe20c7ec	-0.15701264
126	0xbe6209b9	-0.22074021
127	0xbea3cc2f	-0.31991717
128	0x3b424624	0.0029643858
129	0xbcbc602b	-0.022995075
130	0xbd4b7c1b	-0.049678903
131	0xbcfb15b1	-0.030649992
132	0xbc5a7ccd	-0.013335419
133	0xbd915289	-0.070958205
134	0x3c43b1fb	0.011944289
135	0xbb2ffe09	-0.0026854298
136	0xbd635338	-0.055499285
137	0x3d366944	0.044533983
138	0xbbac772d	-0.0052632303
139	0xbc9a2427	-0.018816067
140	0xbbea3681	-0.0071476107
141	0xbc79a76e	-0.015237672
142	0x3cca25b7	0.024676187
143	0x3da63b8b	0.08116826
144	0xbb5f426a	-0.0034066685
145	0xba91f0ff	-0.0011134445
146	0xbc890810	-0.016727477
147	0xbcbe10d5	-0.023201386
148	0xbd421214	-0.047380522
149	0xbbd2f80c	-0.006438261
150	0x3d3241f1	0.043519918
151	0x3be22211	0.0069010337
152	0xbce4d744	-0.027934678
153	0x3cdafa02	0.026730541
154	0xbd296df3	-0.04136462
155	0x3d2d64e1	0.042332534
156	0x3c84169a	0.016124059
157	0x3dac63a3	0.08417442
158	0xbd30b6d3	-0.043143105
159	0xbd1f2d7c	-0.038861737
160	0x3c4e13f6	0.012578001
161	0x3ca830a2	0.020531002
162	0xbd524026	-0.051330708
163	0xbd2b7557	-0.04185995
164	0x3d4c6d70	0.049909055
165	0x3cd18efd	0.025580877
166	0xbd54c1be	-0.05194258
167	0x3be8d812	0.0071058357
168	0x3cb4cc07	0.022069944
169	0x3c61db0d	0.013785136
170	0x3c7e4514	0.015519399
171	0xbda29128	-0.079378426
172	0x3d2d4a5d	0.042307246
173	0x3ce6885a	0.02814119
174	0xbc00d589	-0.007863411
175	0x3d984ad8	0.0743615
176	0x3c5d422f	0.013504549
177	0xbcb0a252	-0.021561775
178	0x3cd3c140	0.025848985
179	0x3cc1bed0	0.023650557
180	0x3d5ba9ad	0.053628612
181	0x3d541daa	0.051786102
182	0x3d6cb7c8	0.057792455
183	0xbd533c14	-0.051570967
184	0xbcfcd779	-0.030864464
185	0x3d01c5f8	0.03168294
186	0x3c42a2c1	0.011879624
187	0x3d2d98cd	0.04238205
188	0xbc57075f	-0.013124316
189	0x3ca108e0	0.019657552
190	0x3d43ea8e	0.04783111
191	0xbd18f011	-0.03733832
192	0x3ca79ce4	0.020460553
193	0xbd292df8	-0.041303605
194	0xbdcb6586	-0.099314734
195	0xbd7df0b3	-0.061997127
196	0x3ce78588	0.028261915
197	0xbc6b4cf8	-0.0143616125
198	0xbe0ebf2a	-0.13940111
199	0xbd3e25b4	-0.046422675
200	0xbcd5a6c9	-0.026080506
201	0xbd84e794	-0.064894825
202	0xbd6af9dd	-0.057367194
203	0xbda10c9a	-0.07863732
204	0xbd2c6f65	-0.04209842
205	0xbe23a9d8	-0.15982759
206	0xbe156e77	-0.1459292
207	0xbca29d93	-0.019850528
208	0xbc567d35	-0.013091375
209	0xbd880431	-0.066414244
210	0xbdcf20cb	-0.10113677
211	0xbd21794b	-0.039422315
212	0xbd58aef2	-0.052901216
213	0xbdca5c8e	-0.09880935
214	0xbda67fea	-0.081298664
215	0xbcc4bd10	-0.024015933
216	0x3babf9aa	0.005248268
217	0xbd92913c	-0.071566075
218	0xbd472f0b	-0.048628848
219	0xbe12475e	-0.14285037
220	0xbdc2a4b1	-0.09504069
221	0xbd877f50	-0.0661608
222	0xbdf55ac3	-0.11980202
223	0xbd28ba2a	-0.041193165
224	0x3c195566	0.0093587395
225	0xbddaea98	-0.106892765
226	0xbd903335	-0.07041017
227	0xbddf950e	-0.10917102
228	0xbda8baa5	-0.082387246
229	0xbdbb5787	-0.09147554
230	0xbe023234	-0.12714463
231	0xbddd0dff	-0.10793685
232	0xbdc85fcc	-0.09783897
233	0xbd7cd280	-0.061724186
234	0xbcc533f9	-0.024072634
235	0xbd64179a	-0.05568657
236	0xbdd720b7	-0.10504287
237	0xbd0d7b40	-0.03454137
238	0xbce8b093	-0.02840451
239	0xbd69ab63	-0.057048213
240	0xbd3bba7d	-0.045832146
241	0xbd51dd52	-0.051236458
242	0xbdda6cf5	-0.10665313
243	0xbde8d98d	-0.113696195
244	0x3d60bdb6	0.054868422
245	0x3baba9a6	0.0052387295
246	0xbdce9c7b	-0.1008844
247	0xbe0fd922	-0.14047673
248	0xbda53997	-0.08067625
249	0xbdb3fff8	-0.087890565
250	0xbd5f7b19	-0.054560754
251	0xbdf9141b	-0.12162038
252	0xbd9924c4	-0.074777156
253	0xbd57d640	-0.05269456
254	0xbe244e96	-0.16045603
255	0xbb0ac58c	-0.0021174876

head.net.0.weight f4 [1, 64]
0	0x3d174bd6	0.036937557
1	0x3d676ee9	0.056502257
2	0xbb312903	-0.0027032502
3	0x3cadbe10	0.021208793
4	0xbed7ef4e	-0.42174762
5	0x3c5f8e9b	0.01364484
6	0x3dbfe602	0.093700424
7	0xbc6db18e	-0.014507664
8	0xbdbb5547	-0.09147125
9	0xbd79ab53	-0.060954403
10	0x3d0dedf5	0.03465076
11	0xbcc82d9f	-0.024435816
12	0xbc33e7e9	-0.010980585
13	0xbe8e0698	-0.27739406
14	0xbdc0e7ad	-0.09419189
15	0x3ca422da	0.02003615
16	0x3d884074	0.066529185
17	0xbc50a868	-0.012735464
18	0xbb82c5ee	-0.00399088
19	0x3d443cae	0.04790943
20	0xbe4d9457	-0.20076118
21	0x3d2a300c	0.041549727
22	0x3df9c92f	0.12196576
23	0xbea57d19	-0.32322004
24	0x3dd4c531	0.10389174
25	0xbc93ed35	-0.018057445
26	0xbd85fe56	-0.06542651
27	0x3d427e56	0.047483765
28	0xbe2c4c38	-0.1682595
29	0x3d51800a	0.0511475
30	0xbe5f4ca6	-0.21806583
31	0xbca7865c	-0.02044981
32	0x3ea40138	0.3203218
33	0x3b776a10	0.0037752427
34	0xbdeacb9b	-0.11464616
35	0xbe832eec	-0.25621736
36	0xbdcea24e	-0.10089551
37	0xbd29b417	-0.041431513
38	0xbd728234	-0.059206203
39	0xbe4c187f	-0.1993122
40	0xbd28791b	-0.04113112
41	0xbdbc099b	-0.091815196
42	0x3e767430	0.2406776
43	0x3c928573	0.0178859
44	0x3c33dfee	0.010978682
45	0x3eae3cff	0.3403091
46	0x3d077ed4	0.033079937
47	0xbc547509	-0.0129673565
48	0x3dd2b31c	0.10288069
49	0xbcdc9c4d	-0.026929999
50	0x3dd91036	0.10598795
51	0xbcf42fc5	-0.029807935
52	0xbce128dc	-0.027485304
53	0x3c7ca89c	0.015421059
54	0x3ce4b9a6	0.027920555
55	0xbdeda801	-0.1160431
56	0xbca68379	-0.020326363
57	0xbe835f7f	-0.25658795
58	0xbd46fd36	-0.048581325
59	0x3e5dcb2e	0.21659538
60	0xbb256b2d	-0.0025240884
61	0x3d911d42	0.070856586
62	0x3e2500a7	0.1611353
63	0x3e199c50	0.15001035
