runs/lstm_camels_us_1901_235614/model_epoch004.pt (torch, 80974 bytes, 5 tensors)

cell.w_hh f4 [256, 64]
00000000: ac44 30be f962 87bc 56c4 fe3c 409c c23d
00000010: 0961 5dbe ba18 3ebe 4bda bdbc 7bb6 82bd
00000020: 1720 413a 6f9c 2cbd a472 143d 92e6 8a3c
00000030: 085f 17be c98f 9abd 1d77 153e 9f2c c3bd
00000040: 3d7c 343e d6dc 1b3e 6120 7dbd 2763 0e3e
00000050: b7ec f33c ac47 1b3e 84af 923d f68e 403b
00000060: 40bc a5bd 54de cd3d 325a ac3d a34e 063c
00000070: 9097 70be 3fe0 ae3d e188 4dbe 9aad 12be
00000080: dbc4 a73e 86b2 623e 8b90 2dbe fd92 943d
00000090: 7845 e8bd e294 003e 9cdb 103e eeb7 613d
000000a0: bf92 1cbd b4f9 883d 4fac a43e 7dce 0dbe
000000b0: a731 0dbd e8eb 1a3e 32b3 13be 4ad8 87bd
000000c0: 5eb1 aebd c6f7 0dbc cd08 a2bc 8d56 8d3e
000000d0: f236 473d 8165 473e 86c7 233e 90eb 9b3d
000000e0: e334 f2bc 30d8 bb3c a068 bebb 0400 553d
000000f0: 35a4 69be 403c 463e bb0d f03c 7224 243e
00000100: 10d6 b33d ad23 9e3d 1270 153e c79d 97bd
00000110: ad76 233c 8ce3 95be 4f18 453e 6fac 59be
00000120: a683 5bbd 3c6d 09be 6711 02be 0338 993d
00000130: 9e0b ba3c fe67 6cbe 8401 243e 34a5 d33c
00000140: 5e5f 113d 3cc5 4ebe f1e4 89bb 8dbb d3bd
00000150: 9fd5 313e 2682 56be de35 ff3d adff 163d
00000160: 1819 953e 3be0 a5bc 63ea e63b f687 7ebe
00000170: 6f8b 9bbd e45c 2e3e a0c9 903e 12d9 163e
00000180: 2655 56be 80fa 7d3e 0091 02bd aff2 76be
00000190: cadc 8f3d 0a0f b2bd 6b4b afbb daa7 0c3e
000001a0: a89a d6bc 1bd7 25bd ee28 ecbd 6fde 9e3d
000001b0: 0419 e1bc ea15 ccbd aa20 16be 03c3 79bd
000001c0: fbf3 c7bc afae 043e 9a84 cc3c 92ff 223e
000001d0: 5207 89bd 78ce ffbd 9af6 373d 2df1 17be
000001e0: 13af fa3d 20ca 8ebe 9217 f7bd 7459 183e
000001f0: f67d 97be dfb6 ccbd f31d a2bd df79 ebbd
00000200: 0f1b 69bc 756c a83d 5e24 afbd 1cd1 43be
00000210: 8364 f4bd eb3f 28be c95a 19be 6e8a 9b3e
00000220: c7cc 9d3d cc63 8a3e 467b ec3c 3e88 783e
00000230: b281 293e 3eda 3dbd c0c5 803d 8cf8 abbe
00000240: 346f 82bd 8218 42be fc96 813c 82f6 733e
00000250: 9f9b 3c3d fefe 8c3c bbe8 48be 7b47 793e
00000260: eafa 313d a1ae d6bc 3b1d 2f3d cd16 ed3d
00000270: 1775 30be 2b5a b7be 8f93 b13d 3fbe 243e
00000280: 96b2 04be 6a8d cabd d2bf 9b3e 67e5 0abd
00000290: b0c0 233e eb2c e83d 6af3 c33d 4f27 02be
000002a0: 9780 6f3e 1814 f1bc 1ca0 763d c339 583e
000002b0: 26f7 d9bd 29ff 033d 4ed1 40be f543 333e
000002c0: cf9c a5be 6ca7 f6bd f2fe 583e 770f 65be
000002d0: 96cd 12be 532a e13d cdb8 c7bd 4bbd 0a3d
000002e0: 484f 0c3e f14a 803e 36ca 863d 202d 92be
000002f0: a899 74bb 3872 03be 6735 afbe 0b01 f9bd
00000300: 9d4f 5abe e406 323e 5eac 1f3e b37b 03bc
00000310: 6071 11be 2543 c9bd 37dc d43d e658 e4bd
00000320: f959 683d d0eb 8bbe 9e18 823d a5bb e63c
00000330: ca2e 073e 103a e93d a182 f8bc 51e3 a1be
00000340: 6ad4 80be aa27 3a3d 3c37 0abe 54bb 35be
00000350: 16e7 a73c 3999 24be d840 003e b0a2 20bc
00000360: c26d 5f3e 9347 6ebc b6c5 acbd 4012 863c
00000370: ddd5 783e 9bd5 44be 9918 ef3d ca5e 81bd
00000380: 99e0 043d 2fce 88be 0c51 22be 1c9f 813d
00000390: 05f4 633e 8303 b8bd 00e8 a13e b72d 50be
000003a0: b0dc a73d e973 6bbd 5d43 66bc 4e15 cf3c
000003b0: c720 08be 6560 423e de93 12be 1a82 4fbe
000003c0: 931f a23d 5bf9 00be ee5a 12be 729d 203d
000003d0: 2b84 33be 24f7 373d 37a9 ddbb e479 b83d
000003e0: 4e5d c2bd 0c57 f43c 886e 6bbc 7392 f6bd
000003f0: 1931 82be 565c bb3d 542c e8bd f987 0e3e
-0.17213696 -0.016526686 0.03109948 0.095024586 -0.21619047 -0.1856412 -0.02317538 -0.06382462
0.00073671475 -0.042141374 0.036242142 0.016955648 -0.14782345 -0.07546956 0.1459622 -0.09529995
0.17625518 0.15220961 -0.061798457 0.13905011 0.02977596 0.1516406 0.07162383 0.0029382086
-0.080925465 0.10052171 0.08415641 0.008197459 -0.23495317 0.08538865 -0.20071746 -0.14324036
0.32767376 0.22138414 -0.1694967 0.07254598 -0.11341375 0.12556794 0.14146274 0.05510705
-0.038225885 0.06688252 0.3216271 -0.138483 -0.03447118 0.15129054 -0.14423826 -0.06633051
-0.08529924 -0.008665031 -0.019779587 0.27605096 0.048636384 0.19472314 0.15994081 0.07613289
-0.029566234 0.022930235 -0.005810812 0.052001968 -0.22816546 0.19358921 0.029303422 0.16029528
0.087810636 0.07721648 0.14593533 -0.074031405 0.009977025 -0.29275167 0.19247554 -0.21257184
-0.053592347 -0.13420576 -0.12701951 0.074813865 0.022710618 -0.23086545 0.16016203 0.02583561
0.03549134 -0.20192426 -0.0042082 -0.10338507 0.17366646 -0.20948085 0.12461446 0.036864925
0.29120708 -0.020248523 0.007046984 -0.24856552 -0.07594954 0.17027622 0.28278828 0.14731243
-0.20930919 0.2480259 -0.031876564 -0.24116014 0.07024534 -0.08694275 -0.0053495667 0.13735905
-0.026196793 -0.040488344 -0.11531244 0.077572696 -0.027477749 -0.09965117 -0.14660898 -0.060976993
-0.024408331 0.12957262 0.024965573 0.15917805 -0.06690849 -0.12490553 0.044912912 -0.14838095
0.12240424 -0.27888584 -0.120650426 0.14877874 -0.29588288 -0.099958174 -0.079158686 -0.114978544
-0.014227643 0.082238115 -0.08551858 -0.19122738 -0.119332336 -0.16430633 -0.14976038 0.3037905
0.07705074 0.27029264 0.028867375 0.24270722 0.16553381 -0.04635071 0.06287718 -0.33588064
-0.063688666 -0.18954661 0.015819065 0.23824504 0.04604685 0.017211434 -0.1962003 0.24343674
0.04345218 -0.026206316 0.042752486 0.115766145 -0.17232166 -0.3581098 0.08670723 0.16088198
-0.1295875 -0.09890254 0.30419785 -0.03391018 0.15991473 0.113366924 0.09567912 -0.12710308
0.23388897 -0.029428527 0.060211286 0.21115784 -0.10642843 0.03222576 -0.18829843 0.17506392
-0.32346198 -0.12043652 0.21191004 -0.2236918 -0.14336237 0.10994401 -0.09752045 0.03387193
0.13702118 0.25057176 0.065815374 -0.28550053 -0.0037323032 -0.1283654 -0.3422043 -0.12158402
-0.21319433 0.17385441 0.15593097 -0.008025098 -0.14203405 -0.0982726 0.10393565 -0.111497685
0.05672643 -0.27328348 0.063523516 0.028165648 0.13201442 0.11388028 -0.030335726 -0.3161874
-0.2516206 0.045447983 -0.13497633 -0.17747241 0.020495933 -0.16074075 0.12524736 -0.009804413
0.21819213 -0.014543432 -0.08436148 0.016366124 0.24300332 -0.19222109 0.116746135 -0.06316908
0.032440756 -0.26719806 -0.1585123 0.06329176 0.22261055 -0.08985045 0.31622314 -0.20329939
0.0819639 -0.057483587 -0.014054147 0.025278714 -0.13293754 0.18982084 -0.1431422 -0.20264474
0.079161786 -0.12595122 -0.142925 0.03921265 -0.17530887 0.044913426 -0.0067645567 0.09007624
-0.09490453 0.029826663 -0.014369614 -0.12039652 -0.25428084 0.09148471 -0.1133658 0.13919057

cell.w_ih f4 [256, 10]
00000000: 1020 86bc d231 a6be e5f3 8e3d 9d5b 613e
00000010: 3249 a53e 94fe 30bd 56a8 9dbd 9783 473e
00000020: d579 8bbd 43b2 e9bc 7604 983e 72af 5bbd
00000030: b26a 653e f089 3f3e 513f 3abb a6a2 4bbe
00000040: 8c36 54bc eddf b3bc 88bf 7abd d024 70bc
00000050: e7ed 8ebe 7436 e43d c36e 4abe 19fc 023e
00000060: 366e 153d 3d9d 433e 894a 24be 4318 4e3e
00000070: 651e 02be 28ac 053e f7e5 00be 59cd 5fbc
00000080: 2288 3e3c c115 97bd c873 70be cf52 6d3e
00000090: 5f75 c73c b1b9 a23d a8d9 6b3e e042 08be
000000a0: b28b e73e b478 fb3d 3fc0 b43e ad96 d33e
000000b0: 696f 913e cda2 8abd 7dc1 3a3d 74b8 31be
000000c0: c448 45be 0078 673e fcd1 ae3d b640 75bd
000000d0: 7bf0 cfbc a950 8abd 1333 1cbd 1b09 3bbe
000000e0: 9792 74bd 9d7c 35be fbf4 1b3d 4293 9cbe
000000f0: 4e8d 6abe 0f0d cdbd db2c 333e 8457 bcbc
00000100: 4119 4cbe 135c 483e 2742 83be 176a 78bd
00000110: dfa7 26be 1fb4 ad3c 352f e7bd cb8f ef3c
00000120: a643 823e 8e69 153e 7494 2c3e 2c4d 693e
00000130: 3c79 f63c 6d9b 293e 3402 6b3e 6c1c 0e3e
00000140: 738c a73d 6761 15bd f3bd 76bd f9fa 12bd
00000150: 590c 063e 50b5 febd b5ca a23d cd68 debd
00000160: 2c32 513e 196d 2d3e 08c3 b93e b13f 72bd
00000170: d376 b13d 8c19 8bbd 5396 11be 5c65 28be
00000180: 5c1e 253e 79e8 163e 6c05 453e 8086 09be
00000190: 714b aabd 8b1c d1bd 40b6 513e 353e 8c3e
000001a0: b67a ba3d 499a 2a3e e71e 863d b2e6 bb3d
000001b0: ddfa 8c3d 1e99 6e3e f904 edbd f89c 01be
000001c0: afd9 dbbd 4ca8 a1be b084 8e3b 8321 c6bd
000001d0: b2e0 41be 81f8 1bbd fb1f ab3e 0dd9 67be
000001e0: b5cf 30bd 5bb0 bebc 8df4 8e3d 13cc 173e
000001f0: b76e 673e 6b11 83bd 5757 253d 8ce0 053e
00000200: 6042 8cbd 76de efbc feb3 483e ee44 77be
00000210: e5b9 05be a30e 4cbd 9880 80be fc6f eebd
00000220: d67f 5f3d 9191 ce3d dd4a 02be 1d05 803e
00000230: 3abe 963e 7dff 503e bc54 933d e5ad 3a3e
00000240: fe27 4c3e 9f5a fdbd 8205 3a3d 8d20 05be
00000250: fdcf 173d 5437 cbbc d043 483e 101b 393e
00000260: 90df ee3d dfc4 5cbe 4eac 1d3e 04fa cb3d
00000270: 5905 e6bd 6eaf debd bb94 86be 6d6e b4bd
00000280: 248b b4bd a7c6 5c3d 4175 b1bd 8a60 00be
00000290: 3613 d53d 0155 113e 94bc b0bd 97df 72bd
000002a0: 0ff0 22be efa5 c3bb 383e 423d c8e8 fcbb
000002b0: 2353 063e 5b3d 07bd e14c 8d3e 4ef7 e4bd
000002c0: b552 2bbe 03d6 90bd e095 843e 48c4 9cbd
000002d0: 1039 88bc f4c8 9abd 8ec9 ddbd b41c 4cbe
000002e0: b985 6fbe b326 343d 2b3c b5bd 33cd d73e
000002f0: a5a6 febd cf16 8c3e f8be 15be 1c1a 633e
00000300: 16e3 303d 50eb 85bd 942c 84be 0760 b8bd
00000310: 4b42 4a3e 1009 af3d c4da 443e badd ae3d
00000320: 16b8 c63e 9e55 4a3e 13dd 923c e6d4 14bd
00000330: 977d 59bd b508 5e3e cfd5 3a3e c996 21bc
00000340: c266 3b3e 73e9 513e 99cd 053e 89bd 2d3e
00000350: eef5 17bc 519d 483e 6af3 073e ebb2 f03c
00000360: 72d0 45be 64d6 0ebe dce0 1d3e d760 1b3e
00000370: d9ab be3e d2fa 4cbd cd2a 413e 2736 e23e
00000380: 35ee a03e 6508 4abe 7b23 a63c 6058 3e3e
00000390: 4dad 2fbe 7c94 7b3e 0f3c 983e 64c3 8d3e
000003a0: ded5 303f b893 fe3e 6407 bb3e ecf9 243e
000003b0: 4f40 923e 3d26 9cbd 2802 32be ad80 923e
000003c0: d3c4 ce3e b1d7 edbd 151a b93e 8db1 2b3e
000003d0: 105b 8dbc 5a2f a6bc 2f59 b63d a2a9 6fbd
000003e0: a5fc 5b3e ac9e 4a3e 2015 b9bc 692f 6bbe
000003f0: a7ed 823d accb 003e 32b6 083d a2e6 1fbe
-0.01637271 -0.32459885 0.06980113 0.22007604 0.32282406 -0.043211535 -0.07698123 0.19483791
-0.06810347 -0.028527385 0.29690903 -0.053634115 0.22403982 0.18704963 -0.0028419087 -0.19886264
-0.012952458 -0.021957362 -0.061217815 -0.014657214 -0.2791588 0.111431986 -0.19768815 0.1279148
0.03648206 0.1910295 -0.16044058 0.20126443 -0.12706907 0.13053954 -0.12587725 -0.013659799
0.011629136 -0.07377196 -0.23481667 0.2317612 0.02434796 0.07945574 0.23032248 -0.13306761
0.45223767 0.12278882 0.35302922 0.41325894 0.28405312 -0.06769333 0.04559468 -0.1735552
-0.19266039 0.2260437 0.08536145 -0.059876166 -0.025383225 -0.06753666 -0.038134646 -0.18265192
-0.05971011 -0.17723317 0.03807543 -0.305811 -0.22905466 -0.10012256 0.1749758 -0.02299095
-0.19931509 0.19566374 -0.25636408 -0.06064805 -0.16274975 0.021204052 -0.11288301 0.02924337
0.25442237 0.14591047 0.16853505 0.22783345 0.030087106 0.16563196 0.22950059 0.1387803
0.081810854 -0.036469843 -0.060239743 -0.035883877 0.13090648 -0.12436926 0.079488195 -0.10859833
0.20429295 0.16936149 0.3628161 -0.059142772 0.08665242 -0.06791982 -0.142175 -0.16444916
0.16124862 0.14737119 0.1924035 -0.13430214 -0.083151706 -0.10210522 0.20479679 0.2739121
0.091054365 0.16660418 0.06548863 0.09174861 0.06883786 0.23300597 -0.11573214 -0.12657535
-0.10734879 -0.31573713 0.0043493137 -0.096743606 -0.1893337 -0.03807879 0.33422837 -0.22641392
-0.043166835 -0.023277452 0.06980238 0.14823942 0.22600828 -0.063998066 0.040366497 0.13073939
-0.068485975 -0.029280882 0.19599912 -0.24147388 -0.13059194 -0.049818646 -0.2509811 -0.11642453
0.054565273 0.10086358 -0.1272387 0.250039 0.29442006 0.20409961 0.07193896 0.18230398
0.19937131 -0.123708 0.04541541 -0.13000698 0.037063587 -0.024806656 0.19557118 0.1807673
0.11663735 -0.21559475 0.1539776 0.09959796 -0.11231489 -0.10873304 -0.26285347 -0.088101245
-0.088156015 0.053900387 -0.086649425 -0.12536827 0.10404055 0.14192583 -0.086297184 -0.059295263
-0.15911888 -0.0059707086 0.047422618 -0.0077181794 0.13117652 -0.033017498 0.27597716 -0.11179982
-0.16730769 -0.070720695 0.25895596 -0.07654625 -0.016628772 -0.0755786 -0.10829459 -0.19932824
-0.23390855 0.04398222 -0.08849367 0.42148742 -0.12434129 0.27361152 -0.1462363 0.22177929
0.043185316 -0.06539023 -0.2581526 -0.09002691 0.19751851 0.085466504 0.19224077 0.08538385
0.3881232 0.19759223 0.017927682 -0.03633585 -0.053098287 0.21683009 0.18245624 -0.00986261
0.18300918 0.2049921 0.1306671 0.16966833 -0.009274943 0.19591261 0.13276449 0.02938219
-0.19317797 -0.13948971 0.15417808 0.1517366 0.37240484 -0.05004389 0.18863983 0.4418194
0.31431738 -0.19729765 0.02028059 0.185884 -0.17155953 0.24568361 0.2973332 0.27688134
0.69076335 0.49722075 0.36529076 0.16110963 0.2856469 -0.07624481 -0.17383635 0.28613797
0.4038454 -0.116134055 0.36152712 0.16766949 -0.017255336 -0.02028625 0.08903729 -0.058511384
0.21483095 0.19787091 -0.022593081 -0.22967304 0.06392985 0.12577695 0.03337688 -0.15615323

cell.b_hh f4 [256]
00000000: 4624 64bd eab8 06be d5f2 fabd 6364 37be
00000010: 700e 8abe becf 11bd b92d 93bc b174 bebd
00000020: 8271 b8bd 8c17 03be 18f0 89bd 27d6 13be
00000030: d1f0 3dbd b285 47be a712 23be 24fc 00bd
00000040: afce a4bc f5f5 163d c4aa 0ebe c6ee 83bd
00000050: f076 22be 7b4a 39bc 40f2 37be 6a4c 4abe
00000060: 65b4 bebd d31b b0bd 855f 4ebd 4aa7 3bbe
00000070: 7a86 43be e9ae 2bbc c73b 0bbc f361 a33d
00000080: 38f2 11be 0a5e f2bd 1ee7 2cbd db76 90bd
00000090: 000e e6bd 209c c6bd 3a47 82bd e09b ddbd
000000a0: f16b 8cbd 3141 24be 73d6 89bd f059 e7bd
000000b0: 1316 aabd 1d6a 7fbe 7437 afbc 01df edbd
000000c0: d9b5 d53c dff3 833d ec8c abbd f37d 123d
000000d0: b58f bbbb d6f0 7cbd 2b88 b7bd a530 6dbd
000000e0: 3174 40bd 8412 79be 29f6 5cbd a692 a3bd
000000f0: bb80 a0bd dcc8 15bd abfa 2bbe 329c 66bd
00000100: 0262 3a40 b8a2 3d40 8622 3b40 9e82 3940
00000110: b1e1 2440 be7a 3e40 abdd 4040 2d2c 3b40
00000120: def6 3340 3558 3f40 158c 3f40 0ba9 3d40
00000130: bef5 4040 fa8e 3140 c2e7 3940 3d45 3b40
00000140: cdff 3f40 3b01 4140 e375 3c40 1569 4040
00000150: 69cb 2940 202a 3b40 8628 3640 4220 3040
00000160: 80c1 3140 5a93 4540 0361 3540 427a 3740
00000170: 2de8 3240 0a60 3a40 427b 3140 ed88 3940
00000180: fc65 2940 94e3 3a40 8007 3540 2132 2a40
00000190: 4623 3640 34ba 3c40 e220 3e40 1d84 2c40
000001a0: 9367 3640 452b 3340 4a05 2a40 eb5f 3b40
000001b0: 94a4 3d40 4817 2c40 1998 3e40 3cb0 3a40
000001c0: 87b2 3840 db77 3a40 30be 3240 6adb 4140
000001d0: d956 3240 31a2 3b40 2439 3940 b13b 3040
000001e0: ff51 3f40 a45a 2340 75f5 3c40 6390 2f40
000001f0: f164 3840 beb5 3240 dd44 2f40 d678 2940
00000200: 9a03 783b f03e 99bc a0b0 4abd ea14 3abd
00000210: dbd1 d0bc 0fa3 b6bd 7b8e c13c 5643 9fbc
00000220: b7f1 87bd 2f72 1a3d ccdf 81b9 1809 07bd
00000230: 54de 4c3c 46bb 44bc 8ebe 353c db5d d73d
00000240: 0f8a 54bc c523 a73c bd88 e0bc 8695 28bd
00000250: 16bb 87bd 9864 73bc c40f 303d 6c53 a2bc
00000260: 771c e2bc ac21 0b3d 3b68 25bd a23c 8a3d
00000270: a5bf f63c 7d1f ea3d 5b7b 43bd e280 fbbc
00000280: 1a1c ff3c 8b9c da3c 5ce8 a6bd e794 5fbd
00000290: 4dfd 0a3d 79d5 f03c 5b16 81bd 9a8c 0cbc
000002a0: 234a d73c 6379 d33b 3dde ed3c 9c58 abbd
000002b0: 6bbd 583d 82aa 843d f96e 61bc 7d96 d33d
000002c0: cd55 923c 5712 ffbc 1a2a f53c fbae f43c
000002d0: d08d 623d fead 873d 6812 af3d 82d4 9dbd
000002e0: fa9c c2bb 66a3 493c 3566 883c d0bb 9a3d
000002f0: 752d 0bbd 4e28 9a3c d20f 9a3d 19f4 16bd
00000300: 9261 cf3c 68c1 44bd 081e d8bd 3eba 3cbd
00000310: b5df 6abd 3b88 35bd 1f1e 28be ac94 aabd
00000320: c94e 67bd 94f2 d6bd d8a7 89bd 133b c9bd
00000330: 4e9a 1fbd 47f2 67be 869a 7ebe 5a01 563c
00000340: 62c2 babb 28fb 46bd 25e8 12be de15 55bd
00000350: 4e42 1dbe a5bb 09be a71d 21be 5427 80bd
00000360: cc74 17bb 05cb a9bd 9f60 d2bd 4215 7ebe
00000370: ad6d 7abe 3133 a5bd f90e f4bd bfb8 5bbd
00000380: 06f5 51bd 765b efbd f3fe 16bd c653 22be
00000390: 872d 45be 159b 12be 2490 57be 6381 34be
000003a0: 7217 04be 08e0 a9bd 8130 a2bd aee2 71bd
000003b0: cb46 17be 3bcb 86bd 6bcf d1bb b684 7dbd
000003c0: da6a 6dbd 7387 59bd a197 f5bd 7ea3 45be
000003d0: f3af 033e fbef 563d 53cb 25be d95c 4ebe
000003e0: 6522 b9bd 61d1 03be c75e 78bd 2b54 b8bd
000003f0: fdf6 babd dfac a3bd 6a15 20be 0691 2d3b
-0.055698656 -0.13156477 -0.12253348 -0.17909388 -0.2696414 -0.03559851 -0.017966138 -0.09299601
-0.09006025 -0.12801951 -0.067352474 -0.14437161 -0.04637224 -0.19484594 -0.15925084 -0.03149046
-0.020118086 0.036855657 -0.1393233 -0.06442027 -0.15865684 -0.011309261 -0.17963505 -0.19755712
-0.09311751 -0.08599057 -0.050384063 -0.18325534 -0.19094267 -0.010478714 -0.008498139 0.07977667
-0.14252555 -0.11834343 -0.042212598 -0.0705392 -0.11233139 -0.09697747 -0.06361242 -0.108207464
-0.06856526 -0.16040494 -0.06730356 -0.11296451 -0.083049916 -0.24942823 -0.021388747 -0.116148
0.026087688 0.06442999 -0.08376488 0.035764646 -0.0057239183 -0.061753117 -0.08961519 -0.05790772
-0.04698581 -0.2432347 -0.053945694 -0.07986955 -0.078370534 -0.036568508 -0.16794841 -0.056301303
2.912232 2.9630566 2.9239821 2.8985972 2.576275 2.9762416 3.0135295 2.9245713
2.8119426 2.9897587 2.992925 2.9634426 3.014999 2.7743516 2.9047704 2.926101
2.9999878 3.0157 2.9446952 3.0064137 2.6530402 2.924446 2.8462234 2.7519689
2.7774353 3.0871186 2.8340461 2.866837 2.795421 2.9121118 2.773148 2.8989823
2.6468496 2.9201403 2.8285828 2.6593096 2.845903 2.948865 2.970757 2.6955636
2.8500717 2.799516 2.6565728 2.9277294 2.96317 2.688921 2.9780333 2.9170065
2.8858964 2.9135654 2.7928581 3.029017 2.7865508 2.9317744 2.8941126 2.7536433
2.9893796 2.5524073 2.9524815 2.7431877 2.881161 2.7923427 2.738578 2.6480002
0.0037843944 -0.018706769 -0.04948485 -0.0454301 -0.025490692 -0.0891782 0.02362751 -0.019441288
-0.066379 0.03770655 -0.0002477154 -0.032967657 0.012504179 -0.01200754 0.011092795 0.105159484
-0.012972369 0.020402798 -0.027408952 -0.04115822 -0.06627481 -0.014855526 0.042983785 -0.01981517
-0.027601464 0.03396766 -0.040382605 0.06749846 0.03012068 0.11431787 -0.047725063 -0.030701105
0.03114133 0.026685974 -0.08149788 -0.054585364 0.033932973 0.029398667 -0.06303092 -0.008578444
0.026280468 0.0064536794 0.029036636 -0.0836651 0.052915018 0.06477834 -0.013759368 0.10331438
0.017863179 -0.031136675 0.029927302 0.029868593 0.055311024 0.06624983 0.085484326 -0.07706548
-0.005939123 0.012307024 0.016650299 0.07555354 -0.033978898 0.018818047 0.07522549 -0.036853883
0.02531508 -0.04803601 -0.10552603 -0.046076052 -0.05734225 -0.044319373 -0.1641774 -0.08329138
-0.05647162 -0.10495487 -0.06721467 -0.09825721 -0.038965516 -0.22651015 -0.24863634 0.013061846
-0.005699442 -0.048579365 -0.14346369 -0.052022807 -0.15357324 -0.13450487 -0.15733968 -0.06257501
-0.0023110388 -0.08290676 -0.10272335 -0.24812797 -0.244559 -0.080664046 -0.11916918 -0.053642984
-0.051259063 -0.11687367 -0.036864232 -0.1585227 -0.19255649 -0.14316972 -0.21051079 -0.17627482
-0.12899569 -0.08294684 -0.07919408 -0.05905407 -0.14773099 -0.06581732 -0.0064029 -0.06189414
-0.05796323 -0.05310769 -0.119918115 -0.19300649 0.12860088 0.052474957 -0.16190843 -0.20152606
-0.09039763 -0.1287284 -0.06063726 -0.09000429 -0.091291405 -0.07991957 -0.15633169 0.0026484146

cell.b_ih f4 [256]
00000000: 4624 64bd eab8 06be d5f2 fabd 6364 37be
00000010: 700e 8abe becf 11bd b92d 93bc b174 bebd
00000020: 8271 b8bd 8c17 03be 18f0 89bd 27d6 13be
00000030: d1f0 3dbd b285 47be a712 23be 24fc 00bd
00000040: afce a4bc f5f5 163d c4aa 0ebe c6ee 83bd
00000050: f076 22be 7b4a 39bc 40f2 37be 6a4c 4abe
00000060: 65b4 bebd d31b b0bd 855f 4ebd 4aa7 3bbe
00000070: 7a86 43be e9ae 2bbc c73b 0bbc f361 a33d
00000080: 38f2 11be 0a5e f2bd 1ee7 2cbd db76 90bd
00000090: 000e e6bd 209c c6bd 3a47 82bd e09b ddbd
000000a0: f16b 8cbd 3141 24be 73d6 89bd f059 e7bd
000000b0: 1316 aabd 1d6a 7fbe 7437 afbc 01df edbd
000000c0: d9b5 d53c dff3 833d ec8c abbd f37d 123d
000000d0: b58f bbbb d6f0 7cbd 2b88 b7bd a530 6dbd
000000e0: 3174 40bd 8412 79be 29f6 5cbd a692 a3bd
000000f0: bb80 a0bd dcc8 15bd abfa 2bbe 329c 66bd
00000100: 4fbf b3bd d956 17bd 81ad 9bbd 44ae cfbd
00000110: e1f2 d8be 34a3 c2bc 21ba 5d3c 7d7b 9abd
00000120: 0591 40be c6dc 27bc 2308 e8bb 1eb9 15bd
00000130: 06c4 753c 290f 67be 3005 c3bd d553 97bd
00000140: f09c 81b7 c3a7 803c fa7f 62bd d53c d23b
00000150: 0fa6 b1be fabb 9abd 0c77 1dbe e7f7 7dbe
00000160: ffe7 63be 8e6a b23d f6f0 29be 4e5d 08be
00000170: e47c 51be c5ff b3bd bb4c 68be eee3 cebd
00000180: 60d0 b4be 7a8d a3bd 9d89 2fbe c16e aebe
00000190: 88ca 1dbe 0274 51bd 9186 efbc e8de 9bbe
000001a0: 4d86 19be 934c 4dbe cbd4 afbe 1d04 94bd
000001b0: a1db 16bd 5945 9fbe 17ef b3bc cff9 a9bd
000001c0: 16af e9bd 1504 b1bd ff1c 54be 73bf ed3c
000001d0: 5692 5abe 0abc 8bbd 91d9 d8bd ad45 7cbe
000001e0: 8e12 2ebc 8f2a e5be 65a7 42bd 917b 83be
000001f0: 525f f3bd ffa6 54be c2d8 85be 5d39 b4be
00000200: 9a03 783b f03e 99bc a0b0 4abd ea14 3abd
00000210: dbd1 d0bc 0fa3 b6bd 7b8e c13c 5643 9fbc
00000220: b7f1 87bd 2f72 1a3d ccdf 81b9 1809 07bd
00000230: 54de 4c3c 46bb 44bc 8ebe 353c db5d d73d
00000240: 0f8a 54bc c523 a73c bd88 e0bc 8695 28bd
00000250: 16bb 87bd 9864 73bc c40f 303d 6c53 a2bc
00000260: 771c e2bc ac21 0b3d 3b68 25bd a23c 8a3d
00000270: a5bf f63c 7d1f ea3d 5b7b 43bd e280 fbbc
00000280: 1a1c ff3c 8b9c da3c 5ce8 a6bd e794 5fbd
00000290: 4dfd 0a3d 79d5 f03c 5b16 81bd 9a8c 0cbc
000002a0: 234a d73c 6379 d33b 3dde ed3c 9c58 abbd
000002b0: 6bbd 583d 82aa 843d f96e 61bc 7d96 d33d
000002c0: cd55 923c 5712 ffbc 1a2a f53c fbae f43c
000002d0: d08d 623d fead 873d 6812 af3d 82d4 9dbd
000002e0: fa9c c2bb 66a3 493c 3566 883c d0bb 9a3d
000002f0: 752d 0bbd 4e28 9a3c d20f 9a3d 19f4 16bd
00000300: 9261 cf3c 68c1 44bd 081e d8bd 3eba 3cbd
00000310: b5df 6abd 3b88 35bd 1f1e 28be ac94 aabd
00000320: c94e 67bd 94f2 d6bd d8a7 89bd 133b c9bd
00000330: 4e9a 1fbd 47f2 67be 869a 7ebe 5a01 563c
00000340: 62c2 babb 28fb 46bd 25e8 12be de15 55bd
00000350: 4e42 1dbe a5bb 09be a71d 21be 5427 80bd
00000360: cc74 17bb 05cb a9bd 9f60 d2bd 4215 7ebe
00000370: ad6d 7abe 3133 a5bd f90e f4bd bfb8 5bbd
00000380: 06f5 51bd 765b efbd f3fe 16bd c653 22be
00000390: 872d 45be 159b 12be 2490 57be 6381 34be
000003a0: 7217 04be 08e0 a9bd 8130 a2bd aee2 71bd
000003b0: cb46 17be 3bcb 86bd 6bcf d1bb b684 7dbd
000003c0: da6a 6dbd 7387 59bd a197 f5bd 7ea3 45be
000003d0: f3af 033e fbef 563d 53cb 25be d95c 4ebe
000003e0: 6522 b9bd 61d1 03be c75e 78bd 2b54 b8bd
000003f0: fdf6 babd dfac a3bd 6a15 20be 0691 2d3b
-0.055698656 -0.13156477 -0.12253348 -0.17909388 -0.2696414 -0.03559851 -0.017966138 -0.09299601
-0.09006025 -0.12801951 -0.067352474 -0.14437161 -0.04637224 -0.19484594 -0.15925084 -0.03149046
-0.020118086 0.036855657 -0.1393233 -0.06442027 -0.15865684 -0.011309261 -0.17963505 -0.19755712
-0.09311751 -0.08599057 -0.050384063 -0.18325534 -0.19094267 -0.010478714 -0.008498139 0.07977667
-0.14252555 -0.11834343 -0.042212598 -0.0705392 -0.11233139 -0.09697747 -0.06361242 -0.108207464
-0.06856526 -0.16040494 -0.06730356 -0.11296451 -0.083049916 -0.24942823 -0.021388747 -0.116148
0.026087688 0.06442999 -0.08376488 0.035764646 -0.0057239183 -0.061753117 -0.08961519 -0.05790772
-0.04698581 -0.2432347 -0.053945694 -0.07986955 -0.078370534 -0.036568508 -0.16794841 -0.056301303
-0.087767236 -0.03694806 -0.076014526 -0.101406604 -0.42372802 -0.023759462 0.013533146 -0.07543085
-0.1880532 -0.010245508 -0.007081048 -0.036553495 0.015000349 -0.22564377 -0.09522474 -0.073890366
-1.5451078e-05 0.015704995 -0.05529783 0.006415943 -0.34697005 -0.07555385 -0.15377444 -0.24801598
-0.22256468 0.0871173 -0.16595826 -0.13316843 -0.20457798 -0.087890185 -0.2268552 -0.10102068
-0.35315228 -0.07985969 -0.17142339 -0.34068874 -0.15409291 -0.051136024 -0.029238971 -0.304435
-0.14992638 -0.20048742 -0.34342036 -0.07227347 -0.03683055 -0.31107596 -0.021964593 -0.082996
-0.11410348 -0.08643357 -0.20714186 0.029021954 -0.21344885 -0.06822975 -0.105883725 -0.24635954
-0.010624541 -0.44759032 -0.04752292 -0.2568021 -0.11883415 -0.20766829 -0.26141936 -0.35200015
0.0037843944 -0.018706769 -0.04948485 -0.0454301 -0.025490692 -0.0891782 0.02362751 -0.019441288
-0.066379 0.03770655 -0.0002477154 -0.032967657 0.012504179 -0.01200754 0.011092795 0.105159484
-0.012972369 0.020402798 -0.027408952 -0.04115822 -0.06627481 -0.014855526 0.042983785 -0.01981517
-0.027601464 0.03396766 -0.040382605 0.06749846 0.03012068 0.11431787 -0.047725063 -0.030701105
0.03114133 0.026685974 -0.08149788 -0.054585364 0.033932973 0.029398667 -0.06303092 -0.008578444
0.026280468 0.0064536794 0.029036636 -0.0836651 0.052915018 0.06477834 -0.013759368 0.10331438
0.017863179 -0.031136675 0.029927302 0.029868593 0.055311024 0.06624983 0.085484326 -0.07706548
-0.005939123 0.012307024 0.016650299 0.07555354 -0.033978898 0.018818047 0.07522549 -0.036853883
0.02531508 -0.04803601 -0.10552603 -0.046076052 -0.05734225 -0.044319373 -0.1641774 -0.08329138
-0.05647162 -0.10495487 -0.06721467 -0.09825721 -0.038965516 -0.22651015 -0.24863634 0.013061846
-0.005699442 -0.048579365 -0.14346369 -0.052022807 -0.15357324 -0.13450487 -0.15733968 -0.06257501
-0.0023110388 -0.08290676 -0.10272335 -0.24812797 -0.244559 -0.080664046 -0.11916918 -0.053642984
-0.051259063 -0.11687367 -0.036864232 -0.1585227 -0.19255649 -0.14316972 -0.21051079 -0.17627482
-0.12899569 -0.08294684 -0.07919408 -0.05905407 -0.14773099 -0.06581732 -0.0064029 -0.06189414
-0.05796323 -0.05310769 -0.119918115 -0.19300649 0.12860088 0.052474957 -0.16190843 -0.20152606
-0.09039763 -0.1287284 -0.06063726 -0.09000429 -0.091291405 -0.07991957 -0.15633169 0.0026484146

head.net.0.weight f4 [1, 64]
00000000: c072 053d 8bb9 2c3d 17b0 eabc 55f9 b43c
00000010: 8267 07bf 39e1 2b3c f895 c53d 8051 3cbd
00000020: 6474 23be 9e08 1bbd 32e5 1e3d 9f50 90bd
00000030: 96f2 3bbc aea4 debe f593 20be ca3d b8ba
00000040: 96a8 343d b3f6 cdbc 395c c1bb d788 c93c
00000050: 927a 97be ddd9 193d 03c4 2c3e 97df d0be
00000060: 7a75 f63d c823 94bc 9a02 adbd b293 e13d
00000070: e367 70be d72a 273e 322d 9fbe 02d2 afbc
00000080: abcd f83e 78fe 713b 3f97 40be fca3 c9be
00000090: afdc 02be e1e2 21bd 2f21 0dbe cf68 abbe
000000a0: f5c0 a3bc 5252 c8bd 9071 c13e 164d ca3c
000000b0: 6cf3 8e3c e854 ff3e d29a 933c 2d97 92bc
000000c0: 5497 9b3d f9d8 debc 0ac6 373e 3228 41bd
000000d0: ad96 3ebc 90de 4239 a863 f93d ac73 61be
000000e0: 4ab4 abbc 573e d1be f009 3ebd a3d9 af3e
000000f0: 30c5 e23c 6fc9 7d3d 91d8 8a3e 488b 033e
0.032580137 0.042169135 -0.02864842 0.022091547 -0.52892315 0.010490709 0.09647745 -0.045976162
-0.15962368 -0.037850015 0.038792796 -0.07046627 -0.011471411 -0.43485016 -0.15681441 -0.00140565
0.04410609 -0.02514205 -0.0059008864 0.024601383 -0.295857 0.037561286 0.16871648 -0.40795586
0.120341256 -0.018083468 -0.08447762 0.11014499 -0.2347713 0.16324936 -0.3108917 -0.021462444
0.48594412 0.0036925357 -0.18807696 -0.39382923 -0.12779497 -0.03952301 -0.1378219 -0.334784
-0.01998947 -0.09781326 0.37781954 0.02469496 0.017450057 0.49869466 0.01801816 -0.017894352
0.07597223 -0.02720307 0.1794664 -0.047157474 -0.011632604 0.00018584193 0.12177211 -0.22016782
-0.020959992 -0.40867874 -0.046396196 0.3434573 0.027681917 0.06195968 0.27118352 0.128461
