runs/lstm_camels_us_1901_235614/model_epoch003.pt (torch, 80974 bytes, 5 tensors)

cell.w_hh f4 [256, 64]
00000000: fe43 4abe 9016 57bd 68f7 2f3d 399d d33d
00000010: b93d 3cbe 9825 2abe 9845 15bd 3a98 31bd
00000020: 0f4b 2b3d 1fef 473c 761e 063d dcab 343d
00000030: 7ba8 e9bd a3da d4bc bb4d 333e 81ae ebbd
00000040: ece3 373e e26a 1f3e 1075 76bd 654d 013e
00000050: c9f2 913d 5f5c 213e f879 773d d338 293d
00000060: 8449 05be 51e3 023e 5911 e73d 32cf 83bb
00000070: 9981 5cbe 2ee1 023d 2e50 18be e989 07be
00000080: 326f 993e 3f2a 4d3e 2f32 19be db86 f03d
00000090: 1c22 9ebd d563 153e 16dc 243e fb14 aa3d
000000a0: cb6e 7bbb 0984 b93d e2d6 8a3e fe9a 1fbe
000000b0: c26e 4cbd f8ae d93d 9893 2bbe 7b56 89bd
000000c0: 6326 d1bd 6e4f 08bc 9bce 2cbd a3fe 713e
000000d0: 1400 4c3d 6064 3a3e 9e28 cb3d 602f f13d
000000e0: 0a1f 0cbc 6a09 a83d e57a 0e3c 835a 923b
000000f0: 368f 63be 7c9d 313e 26f5 28bc 5306 fe3d
00000100: 82fd bc3d a032 9c3d fe7c 053e c3c9 95bd
00000110: d71e e43c 988c 8fbe 7a04 473e 1c93 45be
00000120: 1de2 adbd 0738 11be fc6a c2bd 3e23 7e3d
00000130: 348b d93c 19bd 4abe 0a77 153e f515 0e3d
00000140: 2774 063d 9de7 3abe 965b 90bc d388 d3bd
00000150: 55cd 413e 6825 62be ca9a fe3d 6f0b 603d
00000160: 04e5 813e 4262 f6b9 ac07 ca3b 41f6 6ebe
00000170: 85bd 1bbd be4e 353e d8ce 913e 0486 0d3e
00000180: 7970 6bbe 79a8 883e 2782 63bd fe87 50be
00000190: 18b0 d03d 954b 9cbd 4564 8fbc 9615 143e
000001a0: f71e 00bd e179 34bd c66b e9bd 3ff4 713d
000001b0: 37f5 abbb 9eab 01be 565a edbd c8bb 0ebd
000001c0: 3b08 533b cbb9 f93d 8ec6 8b3d 3585 fb3d
000001d0: e94d 4fbd 5376 b8bd 2b5a 593d 6ced 01be
000001e0: 3653 033e 166a 7cbe bad5 05be 07ab 1e3e
000001f0: a523 82be 623e b6bd 0979 a5bd ae3d 10be
00000200: b44e c83c 23a6 683d d478 9cbd 9f45 44be
00000210: 4ab0 0bbe 6816 c2bd c8fd 1bbe 9aa6 7d3e
00000220: 9b17 053d eaa8 543e 6318 de3c 986b 693e
00000230: 7e92 a83d a96c aebd 543f d93c 67dd 84be
00000240: 909a 85bc 0b46 09be 6b1d a53c 05ad 5a3e
00000250: 81fe 713d 8899 6e3d 9018 27be 92f2 343e
00000260: cca2 603d 7774 1dbd ae9b ccbb 6fda 0b3e
00000270: 68f7 1fbe 45f2 7abe a5e7 003c d78a 133e
00000280: 6a05 dbbd b459 ccbd 0e3b 493e 3b83 1abd
00000290: 3dab 113e 8fa9 cb3d 30d6 3d3d 7cdd 22be
000002a0: 64a3 483e 011d 65bd 15cd f83d 8ce2 433e
000002b0: 8966 5cbd e99f a33d 9730 42be 4bce 3e3e
000002c0: 08c7 72be 06e0 00be 4ba6 813e c533 1dbe
000002d0: abb3 cfbd 5184 053e 7ee0 15bd 519e ea3b
000002e0: 1afb 063e f37d 553e ce04 ae3b 7d05 46be
000002f0: 7be6 873b 1e11 f3bd e6e8 84be dd2f bebd
00000300: 4e51 4dbe 0e62 2c3e 0b46 153e a0a9 fbba
00000310: cbf0 ffbd c626 e3bd 6478 c73d 3bb9 f6bd
00000320: 77dc 3e3d 2df7 70be adc2 bc3d 0afa 903c
00000330: 657b 093e 437c e83d 6f72 a7bc f97b 92be
00000340: cd63 83be 0fd6 773d 83a5 00be de87 32be
00000350: 5aba 1d3d d5d2 1abe e030 c03d ddcf b4bb
00000360: 964b 523e 3b4f 2b3c d9a6 99bd 85bc b53c
00000370: c3f1 8c3e f8fe 3fbe 6da6 d53d 604c 49bd
00000380: b142 f93c 2f82 69be 2060 37be cabc a53d
00000390: 2e3a 593e 43bc a2bd 520a 973e 5358 29be
000003a0: 9f7e c43d 618c 56bd 1e7e a03a bfd1 843c
000003b0: 7cff 13be 3a11 3c3e 2af0 f7bd 9485 32be
000003c0: 1918 9f3d 7fba 1dbe 5abd fcbd 2ca3 803d
000003d0: 9b5b 26be 799f 693d ade4 62bb 38c3 c53d
000003e0: 7ea9 a8bd 88c1 7b3d 9284 e7bb 1d9a 02be
000003f0: 45d5 69be b583 fd3d b563 03be d350 173e
-0.197525 -0.05251175 0.042960554 0.10332722 -0.1838292 -0.16615903 -0.036443323 -0.043358065
0.04181963 0.012203007 0.032743894 0.04410921 -0.11409088 -0.02598316 0.1751012 -0.11507893
0.17958039 0.15568116 -0.060170233 0.1262718 0.07126386 0.15757893 0.060419053 0.041313957
-0.13016325 0.12782027 0.11282606 -0.0040225023 -0.21533813 0.03195303 -0.14874336 -0.13236202
0.29967648 0.20035647 -0.1496055 0.11744472 -0.077213496 0.14588864 0.16099581 0.08304783
-0.0038365598 0.09058387 0.27117068 -0.15586469 -0.049910314 0.10629076 -0.16755521 -0.06705948
-0.102124 -0.008319719 -0.04218922 0.23632292 0.049804762 0.18202353 0.099198565 0.11776614
-0.008552322 0.082049206 0.0086962925 0.0044663562 -0.222226 0.17345232 -0.010312354 0.1240355
0.0922804 0.076268435 0.13035962 -0.073138736 0.027846737 -0.28036952 0.19435301 -0.19294399
-0.08490393 -0.14181529 -0.09493062 0.06204533 0.026555635 -0.19798698 0.14596191 0.03468891
0.032825615 -0.18252416 -0.017621797 -0.103288315 0.18925984 -0.22084582 0.124318674 0.054698404
0.25370038 -0.00046993984 0.0061654653 -0.23336126 -0.038022537 0.17705819 0.28478122 0.13820654
-0.22992124 0.26691034 -0.055544045 -0.20364377 0.10189837 -0.07631604 -0.017503867 0.1446136
-0.03127953 -0.044061545 -0.11397509 0.05907082 -0.0052477377 -0.12663123 -0.11589496 -0.03484705
0.003220095 0.1219364 0.06824981 0.122812666 -0.05061141 -0.090069436 0.053064507 -0.12688226
0.12824711 -0.24649844 -0.13069811 0.15494929 -0.2541782 -0.08898617 -0.08079726 -0.14086029
0.024451591 0.056799065 -0.07640234 -0.19167183 -0.13641468 -0.0947693 -0.15233529 0.24770585
0.032493215 0.2076756 0.027111238 0.2279495 0.08231066 -0.08516819 0.026519455 -0.25950167
-0.016309053 -0.13405626 0.02015563 0.21355064 0.059080604 0.058251888 -0.16317964 0.17670658
0.054842755 -0.038441148 -0.0062441444 0.13657545 -0.15621722 -0.24506481 0.007867728 0.14408432
-0.10694392 -0.09978047 0.19651434 -0.037722807 0.14225478 0.0994445 0.046346843 -0.15904802
0.19593579 -0.055935863 0.12148491 0.1912939 -0.053808723 0.07989485 -0.18963848 0.18633382
-0.23708737 -0.12585458 0.25322184 -0.1535178 -0.10141691 0.13038756 -0.036591046 0.007159986
0.13181725 0.20848827 0.0053106314 -0.19338031 0.0041473485 -0.11868499 -0.25958937 -0.09286473
-0.20050547 0.1683428 0.145775 -0.0019200332 -0.124970995 -0.1109138 0.097397596 -0.12047049
0.04659697 -0.2353179 0.09216819 0.017697353 0.13425978 0.11351826 -0.020440308 -0.2861021
-0.2566208 0.060506877 -0.12563138 -0.17434642 0.038507797 -0.15119489 0.09384322 -0.0055179433
0.20536646 0.010455902 -0.07502527 0.02218462 0.275282 -0.18749607 0.10432134 -0.049145103
0.030427309 -0.22803567 -0.17907763 0.08092649 0.212136 -0.07946064 0.2950006 -0.165376
0.095944636 -0.05237997 0.0012244617 0.016213296 -0.14452928 0.18365946 -0.121063545 -0.17433769
0.07768268 -0.15403174 -0.123408034 0.062811226 -0.16245882 0.05703685 -0.0034621165 0.09656376
-0.08235453 0.061463863 -0.007065364 -0.12754102 -0.22835262 0.12378637 -0.12831004 0.14776926

cell.w_ih f4 [256, 10]
00000000: ddb8 8abc bdb2 9cbe 95a9 a63c fab6 2e3e
00000010: 034a 963e 40f7 94bd 2fcb 3ebd 3560 3d3e
00000020: bb7e 5ebd ef42 64bc 8f9f 923e 56e7 6fbd
00000030: 3a41 4b3e 7860 253e 44ee 753a 5161 60be
00000040: 39cc 913c 8972 5a3c f857 8bbd 128f 033c
00000050: 9b39 84be ad1f b13d f6f0 50be d4f3 f83d
00000060: f9dc c43b 08e3 673e 847a 41be b20f 273e
00000070: 9dfb fbbd 1c1d cc3d a346 a3bd ffb6 eabc
00000080: ad46 103d e386 4dbd d70f 41be a695 5c3e
00000090: 9120 cf3c a7c3 dd3d 623e 533e 9c99 19be
000000a0: c5dd ec3e 5318 133e cb34 a13e 390b c03e
000000b0: 0bc3 883e 5305 c1bd ecc0 583d 4fff 24be
000000c0: 1ed9 26be 8fc2 6b3e d08c 823d 3066 74bd
000000d0: a518 3dbc 53ef 5bbd 1244 c7bc ce55 2cbe
000000e0: 3472 bbbc 19c9 67be f3d5 e6bc 3474 95be
000000f0: a31d 84be 2efb e8bd ae84 373e b598 99bc
00000100: 336f 49be 4cdc 5a3e 17e8 85be 403e bebd
00000110: fdfa 38be 762e 92bb f122 f2bd 8ff3 903d
00000120: a741 773e f223 083e b0b3 0e3e 2f69 543e
00000130: 740f 263d e6e0 2e3e d55d 523e e62a 1a3e
00000140: aa4d ae3b 8313 053d 87ca bcbd 05e9 8abd
00000150: 9c44 e03d b087 d2bd f1d7 813d 91c2 d7bd
00000160: 6989 4b3e 7634 253e d90e b23e 4cbd 59bd
00000170: e707 033e 5c02 dabc aef4 f4bd ecc4 2bbe
00000180: f088 4f3e 37d7 0c3e 5c09 3c3e c1e2 00be
00000190: 2d4b 6fbd 5e41 abbd 6b6c 3a3e 5599 803e
000001a0: ab3e 633d 167f 323e 1a96 683d f048 2d3d
000001b0: 294d 973d 91bc 593e ce6a 13be 0885 c0bd
000001c0: 4cca ccbd 72e4 9dbe fc77 943c dbec b5bd
000001d0: fe58 3ebe 84ea e7bc 49de a53e 15ee 63be
000001e0: 6404 9dbd 04ce 20bd 1945 7e3d 12e3 0f3e
000001f0: 64ae 683e 4cc3 b9bd ba6d 4e3d 7c0a 313e
00000200: 6007 74bd 4653 5cbc bd78 563e 7446 90be
00000210: ced5 abbd c72b 4dbb 9c79 42be 4948 edbd
00000220: ef9a 103d 313f fa3d 85a6 cfbd fbae 603e
00000230: b979 883e 1890 423e bf4c 4c3d c116 243e
00000240: f836 3b3e cdb6 c9bd 8b64 e03c 68b9 2ebe
00000250: 063d 3f3d 033d 5ebd 682a 513e cf69 443e
00000260: c829 083e e20a 4cbe c415 283e c651 b93d
00000270: 5d56 e6bd ebea ecbd 8f90 68be d9df d2bd
00000280: 9bab a1bd 9f3d d93d a3af dbbd ad7d 15be
00000290: d4a0 aa3d 8703 233e c72b c3bd b5f7 6fbd
000002a0: dc58 26be fccb 183b 787c 0d3d 14af ef3b
000002b0: b999 e93d 4856 4dbd f76e 8a3e 62cd 02be
000002c0: f30e 01be 09c3 b3bd f0d5 673e b4ea 96bd
000002d0: 5858 bcbd 4a03 a1bd 2ec5 edbd 8f1a 54be
000002e0: d422 7cbe 5354 ac3d f6eb 14bd 4a9e ca3e
000002f0: 947b 16be a1d8 9d3e cc79 15be c6a1 663e
00000300: b711 c23d 3159 62bc e02a 65be e099 ebbb
00000310: 72b0 473e 8376 5f3d 6e0b e83d 5fbb 873d
00000320: 3220 d63e 2f52 433e 42de 533b 9005 51bd
00000330: 2103 28bd 703b 443e 7b2e 043e b367 493b
00000340: b240 623e 397a 513e 2107 0c3e 8b4c e93d
00000350: 226e e53c 74ca 6e3e f825 463e 5c80 0b3d
00000360: 9ac5 46be db59 e8bd e4e6 213e 1af7 143e
00000370: 831a bd3e f19d a3bd b095 1b3e 966b cf3e
00000380: 0b71 983e e42a 4ebe f8ad 463d 6322 353e
00000390: d695 32be 4b2c 803e ee65 b53e 2105 4c3e
000003a0: 8126 1f3f f434 db3e 94c2 aa3e b1db bd3d
000003b0: 6d9e 913e 2fb0 2cbd ade3 1fbe 3cab 923e
000003c0: fd76 b73e fa1f b9bd abca a33e bc12 013e
000003d0: db49 50bd c005 dcbc 61c3 ec3d df13 82bd
000003e0: 32cf 313e d85c 583e 0eaa 2dbb aa51 70be
000003f0: 9c55 913d a8ff 073e c3a5 cd3c 8e1d 30be
-0.016933853 -0.30605116 0.020344535 0.17061988 0.2935334 -0.07273722 -0.04658049 0.18493731
-0.05432008 -0.013931974 0.2863736 -0.05857023 0.198491 0.16150081 0.00093815126 -0.21912123
0.017797576 0.013332971 -0.06803888 0.008029716 -0.258252 0.0864862 -0.2040442 0.121558815
0.0060077873 0.226452 -0.18894392 0.16314581 -0.12303851 0.0996649 -0.07972457 -0.028651712
0.03522365 -0.050177466 -0.18853699 0.21541461 0.025284084 0.10828333 0.20629266 -0.15000004
0.46262947 0.14364748 0.3148559 0.37508562 0.26711306 -0.09424844 0.05291836 -0.16113017
-0.16293761 0.23023437 0.06374514 -0.059667766 -0.01154152 -0.053695034 -0.02432445 -0.16829607
-0.022881605 -0.22635306 -0.02817819 -0.29190218 -0.2580386 -0.11376034 0.17921707 -0.018749574
-0.19671325 0.21373099 -0.26153633 -0.09289217 -0.18064494 -0.004461105 -0.11823071 0.07077705
0.24146138 0.13294962 0.13935733 0.2074325 0.04054208 0.1707798 0.20543607 0.15055427
0.005319317 0.03248931 -0.092183165 -0.06782726 0.10950586 -0.102797866 0.06340016 -0.105351575
0.19876637 0.16133294 0.34776953 -0.053159043 0.12795983 -0.026612453 -0.119607314 -0.16774338
0.20267081 0.13753973 0.18362945 -0.125865 -0.058421303 -0.08362077 0.1820542 0.25116983
0.055479687 0.17431292 0.056783773 0.042305887 0.07387764 0.21263339 -0.14396212 -0.09400374
-0.099995226 -0.30838352 0.01812362 -0.08883067 -0.18588635 -0.028310068 0.32396153 -0.2225879
-0.07666853 -0.03925897 0.062077615 0.14051464 0.22722775 -0.09070453 0.050397612 0.17289156
-0.059577346 -0.013447588 0.20944495 -0.2817875 -0.083903894 -0.003130661 -0.18991703 -0.11586053
0.035304006 0.12219084 -0.10139183 0.2194175 0.26655367 0.1900028 0.04987788 0.16024305
0.18282688 -0.098493196 0.027391693 -0.17062914 0.046689056 -0.054257404 0.20426333 0.19180988
0.13297188 -0.19926026 0.16414553 0.090488 -0.11246941 -0.115682445 -0.22711395 -0.10296602
-0.07894059 0.106074564 -0.107268594 -0.14598723 0.08331457 0.15919314 -0.09529834 -0.05858584
-0.16244835 0.0023314944 0.03454253 0.007314572 0.114062734 -0.050131112 0.27037784 -0.1277366
-0.12603359 -0.087774344 0.22640204 -0.07368985 -0.09196538 -0.078619555 -0.11609875 -0.20713256
-0.24622661 0.08414521 -0.036357842 0.3957389 -0.14695579 0.30829337 -0.14597243 0.22522649
0.09476035 -0.01381521 -0.22379637 -0.007189974 0.19500902 0.05455638 0.11330305 0.06627535
0.41821438 0.1907432 0.003232852 -0.051030695 -0.04101861 0.19163299 0.12908356 0.0030731976
0.22094992 0.2045678 0.13674594 0.113915525 0.028006617 0.23319417 0.19350421 0.03405796
-0.19411317 -0.113452636 0.15810734 0.14547387 0.3693429 -0.07989109 0.1519382 0.4051177
0.29773745 -0.20133549 0.048505753 0.17688899 -0.1743997 0.25033793 0.3542933 0.19923832
0.6216813 0.42813838 0.33351576 0.092704184 0.28441182 -0.04216021 -0.15614195 0.28646266
0.35832968 -0.09039302 0.3199056 0.12604803 -0.050851684 -0.02685821 0.11560703 -0.06351446
0.17364195 0.21129167 -0.0026499066 -0.23468652 0.07096407 0.13281119 0.025103455 -0.17198774

cell.b_hh f4 [256]
00000000: 39c6 39bd aab0 f1bd 5ea5 92bd 848f 26be
00000010: 8873 6bbe 89d1 19bd 3c15 43bd 45b1 67bd
00000020: bae6 9abd b281 fbbd ecfa 45bd 9f56 01be
00000030: 4b2d 64bd d06a 2abe d616 18be 69df 1bbd
00000040: db9e f039 a857 8a3c 42fb 05be 2323 8dbd
00000050: 9036 eebd 9d18 e1bc 0532 26be 2195 1fbe
00000060: 95e8 b0bd dbb1 91bd 30a0 96bc 4bc9 16be
00000070: bac5 25be 9b03 2bbc 6882 4bbc 25a9 143d
00000080: 8976 d2bd 0c5d cfbd 9cca 29bd ed59 6bbd
00000090: e4a7 b3bd f586 5ebd 8852 6ebd 26a0 bcbd
000000a0: 941d abbd d827 0dbe 6d73 edbc 8791 90bd
000000b0: cd5b b7bd f582 49be 1a69 efbc 2614 ccbd
000000c0: 58fd cc3c eea6 653d f555 bfbd 6f55 9f3b
000000d0: 489d f2bc a704 39bd 9eeb b6bd 0d1a 02bd
000000e0: 2d17 68bd f8ca 4fbe 9bf2 2cbd b548 abbd
000000f0: 5a9d 83bd 4ecb 08bd 9408 42be 37c0 40bd
00000100: 7728 3a40 6fe8 3c40 c773 3d40 7f10 3840
00000110: 658c 2640 28ea 3c40 15d4 4040 5e78 3b40
00000120: a9ee 3640 bf6f 3d40 ca4a 4140 e4b6 3d40
00000130: 6344 3f40 fdd6 3240 3ea9 3940 dae0 3940
00000140: c45d 4140 4a6a 4040 1551 3d40 d959 3d40
00000150: 37fb 2b40 c3af 3a40 7938 3640 d90f 2f40
00000160: 8832 3240 b981 4440 e07d 3840 6431 3b40
00000170: 9f74 3240 179a 3a40 fbe4 3140 e317 3a40
00000180: 9d18 2b40 c8b9 3b40 f519 3540 924c 2c40
00000190: 6750 3540 a423 3f40 51c3 3d40 ebc7 2d40
000001a0: 8f33 3740 ed3b 3440 2eaa 2940 b571 3d40
000001b0: 60c7 3c40 9891 2c40 ead0 3e40 2ee6 3a40
000001c0: f476 3940 6906 3a40 0896 3440 2198 4040
000001d0: 17ec 3140 a72b 3c40 cc36 3940 a100 3240
000001e0: e5a9 3e40 c454 2440 67f2 3c40 3139 3140
000001f0: d38a 3940 4548 3340 5fb7 2e40 f140 2940
00000200: c49e 2e3c 0180 c8bc 2cdf 6cbd d773 02bd
00000210: c660 c9bc 5599 8cbd d9e3 c53c 621f 8a3a
00000220: b4bd 8ebd b3a4 1e3d c478 073c b555 14bc
00000230: 9c2c 803b 668d bcbc 1620 723c fee1 b63d
00000240: addd 48bc 0d84 873c b893 afbc a39c afbc
00000250: 738d 7abd c467 e4ba 3a6d 073d e1cd 2cbc
00000260: 7665 01bd 3a9d d13c f3d5 3abd 23a8 1f3d
00000270: 865f 2a3d 0f95 e23d 1528 48bd e78c 25bd
00000280: 9975 d73c d55d 773c 74fc 86bd 7108 30bd
00000290: 45dd 2e3d 6d6a e33c fc0f 63bd cb76 053c
000002a0: 5314 d13c 8410 913c be56 b23c 23da 88bd
000002b0: 1c2d 403d d705 233d 887a 10bc 425b a93d
000002c0: 27e9 a63c b6de e6bc e5fb b13c 2c3c a43c
000002d0: 3ff6 853d d396 583d 48d3 783d 2084 9bbd
000002e0: 2279 61bc 79ec 9f3c 5a36 633c 60d9 7b3d
000002f0: 1e06 90bc d53c a83c c0c8 6c3d 5564 17bd
00000300: 8aa9 c73c 7c7d 4dbd df79 a7bd d5c8 89bd
00000310: da7d 8ebc ea7c 03bd ce51 1abe 4e53 3bbd
00000320: dd1a 2abd 5ef0 d1bd 27d5 88bd 8243 b8bd
00000330: ca37 1ebd a1ac 3dbe cbf2 4abe 5eda 8f3b
00000340: d62e 64bc 3f69 58bd 077d 08be 43d4 4fbd
00000350: efb1 ffbd 6215 03be cf68 f4bd ad86 5ebd
00000360: 2053 6fbb 9ba1 94bd f1a8 8abd ac9d 36be
00000370: acf1 2abe dc8d a0bd 760e 01be 7625 59bd
00000380: a5a7 40bc 452b cfbd ce42 2abd ea82 e1bd
00000390: c355 20be d990 f4bd a6f7 34be 407c 13be
000003a0: ab1d e8bd fa4a 8bbd f819 4abd c85f 45bd
000003b0: cc4f f6bd 2b60 63bd 42e5 55bc f7e1 6fbd
000003c0: 4e73 56bd 6477 44bd d4ca 0cbe da8d 26be
000003d0: 16aa c33d a4b3 fd3c b501 0abe d426 2ebe
000003e0: 5c1f a9bd b096 b8bd 309e 9bbd 5a82 dbbd
000003f0: caef b1bd fdd3 a3bd 91b2 40be ee88 ffba
-0.045355055 -0.11801274 -0.071604475 -0.16265684 -0.2299329 -0.037553344 -0.047627673 -0.05656554
-0.07563539 -0.12280597 -0.048335 -0.126307 -0.055707257 -0.16642308 -0.14852461 -0.038054857
0.00045894724 0.0168875 -0.13084128 -0.068914674 -0.11631501 -0.027477557 -0.16230018 -0.15584232
-0.086381115 -0.07114001 -0.01838693 -0.14725225 -0.16188708 -0.010437871 -0.012421228 0.03629412
-0.10276515 -0.10125169 -0.04145299 -0.057458807 -0.08772257 -0.054327924 -0.058184177 -0.092102334
-0.08355251 -0.1378473 -0.028985703 -0.07059007 -0.089530565 -0.19678862 -0.029224921 -0.099647805
0.025023147 0.0560674 -0.09342567 0.0048624794 -0.029616013 -0.045170452 -0.08931659 -0.031763125
-0.056662727 -0.2029227 -0.042223554 -0.08363477 -0.06426497 -0.03339701 -0.18948585 -0.04705831
2.9087198 2.9516866 2.9601915 2.8760068 2.602319 2.9517918 3.0129445 2.9292216
2.8583167 2.9599454 3.0201898 2.9642878 2.988549 2.7943718 2.9009547 2.9043489
3.021348 3.0064874 2.9580739 2.9586089 2.687208 2.9169776 2.8471968 2.7353423
2.7843342 3.0704176 2.8826828 2.9248896 2.788368 2.915655 2.7796009 2.907708
2.6733773 2.9332142 2.8297093 2.6921735 2.8330324 2.9865503 2.9650462 2.715327
2.862522 2.8161576 2.651012 2.9600651 2.949669 2.6963863 2.981501 2.920299
2.8978853 2.9066412 2.8216572 3.0092852 2.7800348 2.9401643 2.8939695 2.7812884
2.9791195 2.5676737 2.952295 2.7691157 2.8990982 2.801286 2.729942 2.6445887
0.01065797 -0.0244751 -0.05783002 -0.031848755 -0.024582278 -0.06865183 0.024156498 0.0010537917
-0.06969777 0.03873129 0.008268539 -0.009053637 0.003911568 -0.023016643 0.014778158 0.08929823
-0.012259883 0.016542459 -0.021432742 -0.021436995 -0.061170053 -0.0017425944 0.03306315 -0.010547132
-0.0315909 0.025587667 -0.045614194 0.038978707 0.041595004 0.11063587 -0.04886635 -0.040417578
0.026301192 0.015098055 -0.0659112 -0.0429768 0.042691488 0.027760709 -0.055435166 0.008145998
0.025522387 0.01770807 0.021769878 -0.06682231 0.04691802 0.03980049 -0.008818276 0.08269359
0.020374848 -0.028182369 0.021726558 0.020048223 0.06541108 0.052878212 0.06074837 -0.0759356
-0.0137617905 0.019521939 0.013867939 0.0614866 -0.017581042 0.02053682 0.057808638 -0.03696092
0.024372835 -0.0501685 -0.08177542 -0.06727759 -0.017393995 -0.03210155 -0.15070269 -0.045733742
-0.041529525 -0.102509245 -0.066812806 -0.08997251 -0.038627423 -0.18522884 -0.1981918 0.004390045
-0.013927182 -0.052834745 -0.13328944 -0.050739538 -0.1248511 -0.12801126 -0.11934053 -0.054327656
-0.0036518052 -0.07257386 -0.06770504 -0.17833585 -0.16693753 -0.078395575 -0.12603173 -0.05301424
-0.01175872 -0.10115675 -0.041567616 -0.11011298 -0.15657715 -0.1194169 -0.17672595 -0.14402866
-0.11333784 -0.0680141 -0.049341172 -0.048187047 -0.12026939 -0.055511635 -0.013055148 -0.058565106
-0.052356057 -0.047965422 -0.13749248 -0.1626505 0.09553926 0.030969448 -0.13477214 -0.17006999
-0.082579345 -0.09013116 -0.07598531 -0.10718222 -0.08688314 -0.07999418 -0.18818118 -0.0019495764

cell.b_ih f4 [256]
00000000: 39c6 39bd aab0 f1bd 5ea5 92bd 848f 26be
00000010: 8873 6bbe 89d1 19bd 3c15 43bd 45b1 67bd
00000020: bae6 9abd b281 fbbd ecfa 45bd 9f56 01be
00000030: 4b2d 64bd d06a 2abe d616 18be 69df 1bbd
00000040: db9e f039 a857 8a3c 42fb 05be 2323 8dbd
00000050: 9036 eebd 9d18 e1bc 0532 26be 2195 1fbe
00000060: 95e8 b0bd dbb1 91bd 30a0 96bc 4bc9 16be
00000070: bac5 25be 9b03 2bbc 6882 4bbc 25a9 143d
00000080: 8976 d2bd 0c5d cfbd 9cca 29bd ed59 6bbd
00000090: e4a7 b3bd f586 5ebd 8852 6ebd 26a0 bcbd
000000a0: 941d abbd d827 0dbe 6d73 edbc 8791 90bd
000000b0: cd5b b7bd f582 49be 1a69 efbc 2614 ccbd
000000c0: 58fd cc3c eea6 653d f555 bfbd 6f55 9f3b
000000d0: 489d f2bc a704 39bd 9eeb b6bd 0d1a 02bd
000000e0: 2d17 68bd f8ca 4fbe 9bf2 2cbd b548 abbd
000000f0: 5a9d 83bd 4ecb 08bd 9408 42be 37c0 40bd
00000100: d2ef babd 0bec 45bd 380a 23bd abf2 fdbd
00000110: 419d cbbe 3877 45bd 110d 543c e5f4 90bd
00000120: 5614 11be ae12 24bd 805c a53c 7c44 12bd
00000130: 5495 3bbc 528f 52be 9ed6 cabd 0be1 c3bd
00000140: a2da ae3c 44ae d43b 20b4 2bbd 048b 29bd
00000150: 4c27 a0be 3307 aabd 6477 1cbe c27f 87be
00000160: 37d7 5cbe 2f38 903d dc45 f0bd 76d4 99bd
00000170: 98b5 58be 50bd acbd 71b1 61be c902 bdbd
00000180: 2d3b a7be 08c7 88bd b560 2ebe 139b 9dbe
00000190: 97f8 2abe 9b5e 5cbc 6025 0fbd b3c0 91be
000001a0: fac6 0cbe 0243 3cbe 9eae b2be b796 23bd
000001b0: 3d2b 4ebd 1473 9bbe d386 97bc e03c a3bd
000001c0: 8023 d1bd 7d32 bfbd 6aa0 36be 8039 183c
000001d0: d93e 61be cb18 75bd bc23 d9bd bbf6 5fbe
000001e0: c317 abbc 5559 ddbe b26a 43bd 846a 6cbe
000001f0: e5a4 cebd c77d 4bbe 9144 8abe 1df8 b5be
00000200: c49e 2e3c 0180 c8bc 2cdf 6cbd d773 02bd
00000210: c660 c9bc 5599 8cbd d9e3 c53c 621f 8a3a
00000220: b4bd 8ebd b3a4 1e3d c478 073c b555 14bc
00000230: 9c2c 803b 668d bcbc 1620 723c fee1 b63d
00000240: addd 48bc 0d84 873c b893 afbc a39c afbc
00000250: 738d 7abd c467 e4ba 3a6d 073d e1cd 2cbc
00000260: 7665 01bd 3a9d d13c f3d5 3abd 23a8 1f3d
00000270: 865f 2a3d 0f95 e23d 1528 48bd e78c 25bd
00000280: 9975 d73c d55d 773c 74fc 86bd 7108 30bd
00000290: 45dd 2e3d 6d6a e33c fc0f 63bd cb76 053c
000002a0: 5314 d13c 8410 913c be56 b23c 23da 88bd
000002b0: 1c2d 403d d705 233d 887a 10bc 425b a93d
000002c0: 27e9 a63c b6de e6bc e5fb b13c 2c3c a43c
000002d0: 3ff6 853d d396 583d 48d3 783d 2084 9bbd
000002e0: 2279 61bc 79ec 9f3c 5a36 633c 60d9 7b3d
000002f0: 1e06 90bc d53c a83c c0c8 6c3d 5564 17bd
00000300: 8aa9 c73c 7c7d 4dbd df79 a7bd d5c8 89bd
00000310: da7d 8ebc ea7c 03bd ce51 1abe 4e53 3bbd
00000320: dd1a 2abd 5ef0 d1bd 27d5 88bd 8243 b8bd
00000330: ca37 1ebd a1ac 3dbe cbf2 4abe 5eda 8f3b
00000340: d62e 64bc 3f69 58bd 077d 08be 43d4 4fbd
00000350: efb1 ffbd 6215 03be cf68 f4bd ad86 5ebd
00000360: 2053 6fbb 9ba1 94bd f1a8 8abd ac9d 36be
00000370: acf1 2abe dc8d a0bd 760e 01be 7625 59bd
00000380: a5a7 40bc 452b cfbd ce42 2abd ea82 e1bd
00000390: c355 20be d990 f4bd a6f7 34be 407c 13be
000003a0: ab1d e8bd fa4a 8bbd f819 4abd c85f 45bd
000003b0: cc4f f6bd 2b60 63bd 42e5 55bc f7e1 6fbd
000003c0: 4e73 56bd 6477 44bd d4ca 0cbe da8d 26be
000003d0: 16aa c33d a4b3 fd3c b501 0abe d426 2ebe
000003e0: 5c1f a9bd b096 b8bd 309e 9bbd 5a82 dbbd
000003f0: caef b1bd fdd3 a3bd 91b2 40be ee88 ffba
-0.045355055 -0.11801274 -0.071604475 -0.16265684 -0.2299329 -0.037553344 -0.047627673 -0.05656554
-0.07563539 -0.12280597 -0.048335 -0.126307 -0.055707257 -0.16642308 -0.14852461 -0.038054857
0.00045894724 0.0168875 -0.13084128 -0.068914674 -0.11631501 -0.027477557 -0.16230018 -0.15584232
-0.086381115 -0.07114001 -0.01838693 -0.14725225 -0.16188708 -0.010437871 -0.012421228 0.03629412
-0.10276515 -0.10125169 -0.04145299 -0.057458807 -0.08772257 -0.054327924 -0.058184177 -0.092102334
-0.08355251 -0.1378473 -0.028985703 -0.07059007 -0.089530565 -0.19678862 -0.029224921 -0.099647805
0.025023147 0.0560674 -0.09342567 0.0048624794 -0.029616013 -0.045170452 -0.08931659 -0.031763125
-0.056662727 -0.2029227 -0.042223554 -0.08363477 -0.06426497 -0.03339701 -0.18948585 -0.04705831
-0.09127773 -0.04832081 -0.039804667 -0.12399801 -0.39768413 -0.0482094 0.012942568 -0.0707796
-0.14167914 -0.040056877 0.020185709 -0.035709843 -0.011449177 -0.20562485 -0.09904216 -0.09564408
0.021344487 0.0064905006 -0.041919827 -0.04139234 -0.3127998 -0.083021544 -0.15279919 -0.2646466
-0.21566473 0.07041966 -0.117320746 -0.07511227 -0.21163023 -0.08434546 -0.22040345 -0.09229047
-0.32662335 -0.06678587 -0.17029078 -0.30782375 -0.16696392 -0.01345029 -0.034947753 -0.2846733
-0.13747779 -0.18384936 -0.34898847 -0.039938655 -0.050334204 -0.30361235 -0.018496906 -0.07970595
-0.10211849 -0.09335802 -0.1783463 0.009291053 -0.2199663 -0.059838098 -0.10602519 -0.21871464
-0.020885354 -0.43232217 -0.047709174 -0.23087507 -0.10090045 -0.19872199 -0.27005437 -0.35540858
0.01065797 -0.0244751 -0.05783002 -0.031848755 -0.024582278 -0.06865183 0.024156498 0.0010537917
-0.06969777 0.03873129 0.008268539 -0.009053637 0.003911568 -0.023016643 0.014778158 0.08929823
-0.012259883 0.016542459 -0.021432742 -0.021436995 -0.061170053 -0.0017425944 0.03306315 -0.010547132
-0.0315909 0.025587667 -0.045614194 0.038978707 0.041595004 0.11063587 -0.04886635 -0.040417578
0.026301192 0.015098055 -0.0659112 -0.0429768 0.042691488 0.027760709 -0.055435166 0.008145998
0.025522387 0.01770807 0.021769878 -0.06682231 0.04691802 0.03980049 -0.008818276 0.08269359
0.020374848 -0.028182369 0.021726558 0.020048223 0.06541108 0.052878212 0.06074837 -0.0759356
-0.0137617905 0.019521939 0.013867939 0.0614866 -0.017581042 0.02053682 0.057808638 -0.03696092
0.024372835 -0.0501685 -0.08177542 -0.06727759 -0.017393995 -0.03210155 -0.15070269 -0.045733742
-0.041529525 -0.102509245 -0.066812806 -0.08997251 -0.038627423 -0.18522884 -0.1981918 0.004390045
-0.013927182 -0.052834745 -0.13328944 -0.050739538 -0.1248511 -0.12801126 -0.11934053 -0.054327656
-0.0036518052 -0.07257386 -0.06770504 -0.17833585 -0.16693753 -0.078395575 -0.12603173 -0.05301424
-0.01175872 -0.10115675 -0.041567616 -0.11011298 -0.15657715 -0.1194169 -0.17672595 -0.14402866
-0.11333784 -0.0680141 -0.049341172 -0.048187047 -0.12026939 -0.055511635 -0.013055148 -0.058565106
-0.052356057 -0.047965422 -0.13749248 -0.1626505 0.09553926 0.030969448 -0.13477214 -0.17006999
-0.082579345 -0.09013116 -0.07598531 -0.10718222 -0.08688314 -0.07999418 -0.18818118 -0.0019495764

head.net.0.weight f4 [1, 64]
00000000: 6a1e e23c 05b8 373d 965a c5bc e23c b03c
00000010: 7928 01bf 3b34 043c 22cc d63d a261 37bd
00000020: 7961 e7bd eeed 6abd 89b7 1d3d 148a 2abd
00000030: 76e8 91bc f07b bfbe 8038 08be f92e 883b
00000040: 2bac 6f3d 8d81 abbc bc2a 93bc f849 503d
00000050: 109f 8cbe 9b15 1e3d 838f 193e 2d3a c6be
00000060: fdad ee3d 77da d4bc 2e77 b0bd 5629 a93d
00000070: b4d7 57be be23 e53d 9b60 8abe 8655 92bc
00000080: 46f5 df3e 0215 96bb 0226 29be 4b0d afbe
00000090: a1ae 02be 1409 68bd 5959 c4bd 5f97 8fbe
000000a0: 0244 25bd 70d4 b6bd f5b1 a73e 95e9 c43c
000000b0: 79f5 f63c 89c9 e13e 6355 b63c e187 37bc
000000c0: 90b6 ec3d 2462 fdbc 893c 083e bb15 2fbd
000000d0: 3c3c 6dbc 31cc 743c bf57 843d 0549 46be
000000e0: 79a8 22bd 5db3 b7be e40d 1cbd d79f a73e
000000f0: ada7 ea3b a3fe 963d 9654 583e 0ca1 1d3e
0.027602393 0.04485323 -0.024091046 0.021513406 -0.5045238 0.008069093 0.10488154 -0.044770844
-0.11297888 -0.057355814 0.03850511 -0.041635588 -0.017811041 -0.37399244 -0.13302803 0.00415599
0.0585138 -0.020935798 -0.017964713 0.050851792 -0.27465105 0.038594823 0.14996152 -0.3871626
0.116542794 -0.025983078 -0.08616482 0.08259837 -0.21078378 0.11188458 -0.2702683 -0.017863046
0.43741816 -0.004580141 -0.16518405 -0.3418983 -0.12761928 -0.056649283 -0.09587354 -0.28045174
-0.04034806 -0.08927238 0.32752958 0.024037162 0.030146347 0.44099072 0.022257512 -0.01120183
0.115582585 -0.030930586 0.13304342 -0.042745333 -0.014479693 0.014941261 0.06462049 -0.19363792
-0.03971145 -0.3587903 -0.038099185 0.32739136 0.007161102 0.07372787 0.21126017 0.15393466
