runs/lstm_camels_us_1901_235614/model_epoch005.pt (torch, 80974 bytes, 5 tensors)

cell.w_hh f4 [256, 64]
000000 f1 84 49 be f4 82 04 bd f5 4b 81 3d c7 0a 84 3d
       -0.1967962 -0.03235145 0.06313316 0.06447368
000010 5d f3 49 be c6 1b 3b be 3a 29 45 bd 6e 62 78 bd
       -0.19721742 -0.18272313 -0.04813502 -0.060640745
000020 38 c0 69 bb 3c 75 38 bd e5 ff 03 3d ce ba db 3c
       -0.003566755 -0.04503368 0.032226462 0.026822474
000030 fa d2 1f be fd b2 79 bd 96 65 24 3e 5b 9d c2 bd
       -0.15607825 -0.060961712 0.16054377 -0.095026694
000040 b3 96 2d 3e 68 b8 1c 3e f8 80 90 bd 37 d6 ca 3d
       0.16952018 0.1530472 -0.07055849 0.099041395
000050 44 52 42 3d 3b 76 fc 3d db 71 68 3d 91 6a bb 3c
       0.047441736 0.12327238 0.056749206 0.022877963
000060 f2 85 af bd 44 51 a1 3d bd 8a c0 3d 1e 55 e0 bc
       -0.0857047 0.07876828 0.09401462 -0.027384337
000070 26 a9 4d be 1e 00 b0 3d a6 82 3f be 36 3c 01 be
       -0.20084056 0.08593772 -0.18702182 -0.12620625
000080 f3 df 9c 3e 1e 9b 6d 3e 04 12 19 be 79 f6 b0 3d
       0.3063961 0.23203704 -0.14948279 0.08640761
000090 3f a6 9c bd 6f f9 fb 3d b8 b3 1e 3e 93 ad 9f 3d
       -0.076488964 0.12303435 0.15498245 0.077967785
0000a0 48 97 02 bd ff 9e b3 3d 1b 7d a3 3e f4 bb 21 be
       -0.031882554 0.087705605 0.31931385 -0.15794355
0000b0 ee bc ed bc fc 7e 0b 3e cd 2c 28 be 9e 6b 91 bd
       -0.029020753 0.1362266 -0.1642334 -0.071006045
0000c0 d2 2f de bd c4 87 af 39 cd 43 09 bd 16 8a 9e 3e
       -0.10848965 0.00033479754 -0.033511925 0.30964726
0000d0 97 2d 8b 3d 21 eb 49 3e e0 c9 23 3e 1d d6 a4 3d
       0.06795805 0.19718601 0.15994978 0.08048651
0000e0 7f e9 36 bd 80 79 2c 3d 99 62 37 bc 7e 82 28 3d
       -0.044656273 0.04210806 -0.011192941 0.041140072
0000f0 cc aa 6e be fd 0b 47 3e 1b b2 71 3c e9 f8 ff 3d
       -0.23307341 0.19438167 0.014751936 0.12498648
000100 8e 43 c4 3d 5f 4d e0 3d 6b 75 fb 3d ca 8d 76 bd
       0.095831975 0.10952257 0.12278255 -0.060193814
000110 2c b7 69 bb f3 ec a4 be 02 00 51 3e 9a 1a 7f be
       -0.0035662157 -0.32212028 0.20410159 -0.24912491
000120 3b 4f 96 bd 28 2a ff bd c1 04 a2 bd 4a 27 42 3d
       -0.07339331 -0.124592125 -0.07911063 0.04740075
000130 c9 4e 5c 3c 11 12 82 be ce 2f 25 3e 06 c5 15 3b
       0.013446518 -0.2540441 0.16131517 0.002285303
000140 48 7e 35 3d 7a 84 7e be 02 22 d5 3b e8 3b 90 bd
       0.044309884 -0.24855223 0.006504298 -0.07042676
000150 31 4e 17 3e 69 1e 68 be fa b3 09 3e 8c ef 3d 3d
       0.14775921 -0.2266785 0.13447562 0.046371028
000160 4c c7 aa 3e f7 2a 55 bd 14 e9 3e bc d9 26 81 be
       0.33355176 -0.052042928 -0.01165225 -0.2522495
000170 58 4e ea bd 3c 6e 31 3e 4a 60 96 3e f7 2e 1a 3e
       -0.11440724 0.17327207 0.29370338 0.15056978
000180 5a 69 43 be fa 0e 46 3e c8 c1 93 bc 5c 66 94 be
       -0.19083157 0.1934165 -0.018036738 -0.28984344
000190 b0 e5 04 3d cd 3b e2 bd 1d d0 99 bb b7 35 1a 3e
       0.03244561 -0.11046562 -0.0046939985 0.15059553
0001a0 18 fa 0d bd 63 c0 5b bd f8 7d ec bd 1f 7e e4 3d
       -0.034662336 -0.05365027 -0.11547464 0.11156868
0001b0 3d 67 17 bd 36 b9 a2 bd 8c c0 25 be 22 85 a6 bd
       -0.03696369 -0.079454824 -0.16186732 -0.08130862
0001c0 6d 7e 52 bd db fd 19 3e 76 69 32 3d ab d3 1d 3e
       -0.0513901 0.15038244 0.043557607 0.15412776
0001d0 4f 4a ae bd 4d 60 10 be bb 4c 63 3d d1 1a 30 be
       -0.08510267 -0.14099236 0.055493098 -0.1719773
0001e0 cc 02 b5 3d 51 fe 98 be 3a 5d 14 be b9 01 1f 3e
       0.08838424 -0.29881528 -0.14488688 0.15528001
0001f0 ea 45 9b be 58 16 03 be 30 27 a8 bd 8b 07 ff bd
       -0.30326778 -0.12801492 -0.082105994 -0.124526106
000200 73 3c e5 ba 53 8d 3a 3d de 39 90 bd a0 05 3e be
       -0.0017489329 0.045544934 -0.07042287 -0.18556833
000210 09 29 ef bd 1b 0f 59 be 21 a4 42 be c8 cf 9c 3e
       -0.11677749 -0.21197169 -0.19007923 0.30627275
000220 e2 2e c6 3d 49 94 a0 3e 43 24 46 3c a4 af 7f 3e
       0.09676911 0.31363133 0.012093606 0.24969345
000230 c7 6a 2f 3e 92 a2 1b bd 30 69 98 3d c4 af b4 be
       0.17130576 -0.037996836 0.07441938 -0.3529035
000240 ec 64 a1 bd e1 2b 5b be d0 ca 07 3d ed 2d 89 3e
       -0.078805774 -0.21403457 0.0331524 0.2679285
000250 1d fb 88 3c 8f 90 52 3c 6e 93 86 be 39 24 80 3e
       0.016721303 0.012851848 -0.26284355 0.25027636
000260 16 c7 3f 3d c1 f3 e4 bc 1a 96 4e 3d 3e 45 cb 3d
       0.046820723 -0.027948262 0.050436117 0.09925316
000270 83 40 37 be 80 7a da be b4 96 b8 3d 71 c5 1d 3e
       -0.17895703 -0.42671585 0.09013119 0.15407349
000280 47 71 06 be e5 cc c2 bd 51 62 c1 3e 0a aa 3b bd
       -0.1312915 -0.09511737 0.37770322 -0.04581646
000290 7b 86 4d 3e 05 42 1c 3e 31 80 e9 3d be fb a5 bd
       0.20070831 0.1525956 0.11401404 -0.08104657
0002a0 37 b2 7a 3e 92 43 b5 b9 5f aa 16 3d 3d 9e 55 3e
       0.24482046 -0.00034573354 0.036783572 0.20861144
0002b0 78 6f f3 bd 57 62 37 3d 5c b1 4c be 99 f3 39 3e
       -0.11886495 0.04477152 -0.19989532 0.18159331
0002c0 84 27 c2 be 24 0f c1 bd e8 e7 48 3e d3 b9 6b be
       -0.37920773 -0.09426716 0.19619715 -0.23020105
0002d0 11 19 06 be 68 2d da 3d 4d 25 ea bd 70 7b 80 3d
       -0.130955 0.10653192 -0.11432896 0.06273544
0002e0 d4 41 08 3e 20 1d 88 3e 57 f1 bc 3d 24 c9 9d be
       0.13306361 0.2658472 0.092257194 -0.3081752
0002f0 91 b9 74 3c 5d b6 12 be d0 8b c3 be 39 41 19 be
       0.014936821 -0.14327379 -0.38192606 -0.14966287
000300 97 87 68 be 6b d0 36 3e 45 c4 1b 3e fb 48 cd bc
       -0.22707973 0.17852943 0.1521159 -0.025059214
000310 f0 52 18 be 29 10 cd bd d7 71 d6 3d f9 a4 0a be
       -0.14875388 -0.10012848 0.10470932 -0.13539495
000320 7b a5 93 3c b7 85 90 be a5 a0 85 3d 62 ac 2d 3b
       0.018023243 -0.28227016 0.06524781 0.0026500453
000330 2a 18 ff 3d f9 13 f1 3d aa 8d 36 bd 33 de 97 be
       0.12455781 0.117713876 -0.044568695 -0.29661712
000340 d9 49 80 be 82 d4 49 3d a7 6b 2e be d7 2f 3d be
       -0.2505634 0.04927493 -0.17033254 -0.1847528
000350 67 cc 7b bb 7e e3 2f be 7c b1 12 3e 1c 8e d9 bb
       -0.0038421394 -0.17176625 0.14325517 -0.006639255
000360 fc c0 71 3e a0 24 69 bc 0d 5a 99 bd 77 3a df 3c
       0.23608774 -0.0142299235 -0.07487879 0.027249558
000370 d4 27 87 3e b1 6d 1a be ad 6f d3 3d 06 89 74 bd
       0.26397574 -0.15080906 0.10324035 -0.05970099
000380 b3 ac 20 3d 31 82 8c be 82 7d 3f be a3 a6 33 3d
       0.0392272 -0.27443078 -0.18700221 0.04386009
000390 1f fe 4d 3e 6e d6 ab bd 40 17 90 3e 9b cc 3f be
       0.20116471 -0.083905086 0.28142738 -0.18730395
0003a0 7b 93 ae 3d 9b 6c 26 bd d9 04 86 3c 65 b7 69 3c
       0.085242234 -0.040630918 0.016359733 0.014264916
0003b0 f5 50 f9 bd 67 30 4a 3e b4 56 0d be 9c f7 48 be
       -0.121736445 0.19745027 -0.13802606 -0.19625705
0003c0 7e de 88 3d c1 f0 e2 bd e3 36 d3 bd f9 bb 63 3d
       0.06683062 -0.110810764 -0.10313203 0.055599187
0003d0 b5 51 1c be a2 75 83 3d 45 2d ee 3c 21 5c 57 3d
       -0.15265544 0.06418921 0.02907432 0.052578095
0003e0 67 78 af bd d1 a6 04 3b a4 fa c9 bc 1c 85 a3 bd
       -0.08567887 0.0020241032 -0.024655648 -0.07984373
0003f0 6d 9f 85 be e5 8d b7 3d bc 68 89 bd 5f 44 fc 3d
       -0.26098195 0.08962611 -0.067094296 0.12317728

cell.w_ih f4 [256, 10]
000000 34 ba 8e bb f3 48 a8 be 14 75 9b 3d 2e 9c 67 3e
       -0.0043556932 -0.32868156 0.0759069 0.22618172
000010 58 7b a2 3e 38 97 d2 bc 10 7d b2 bd ee f8 57 3e
       0.3173473 -0.025706872 -0.0871526 0.21091053
000020 a8 05 96 bd 24 b0 ea bc 20 2d a5 3e 3c f5 ba bc
       -0.073252976 -0.028648444 0.3226099 -0.022822015
000030 8f 54 86 3e 4f c8 66 3e 89 8d aa 3b 45 80 31 be
       0.26236388 0.22537349 0.0052048606 -0.17334087
000040 17 f9 0f bc 55 75 c3 bc 88 90 b2 bd 52 3e d6 bc
       -0.008787415 -0.02385966 -0.087189734 -0.026152764
000050 08 bb 9e be ac 5b 0d 3e 1d bb 62 be 8c 5f d5 3d
       -0.3100207 0.13804501 -0.2214169 0.10418615
000060 d1 01 a7 3c 27 0d 19 3e 96 67 24 be 8a 64 5e 3e
       0.020386608 0.14946423 -0.1605514 0.2171804
000070 fe fb d6 bd 79 f5 dc 3d 65 88 24 be 1c 3b 64 3c
       -0.104972824 0.10789008 -0.16067655 0.013930108
000080 ac dd 8d 3c 52 6f 8b bd 6e 76 83 be b1 bc 7c 3e
       0.017317615 -0.06808342 -0.25676292 0.24681355
000090 02 ac fb 3c 30 00 c3 3d 69 72 5c 3e 07 4d f8 bd
       0.030721668 0.0952152 0.21528019 -0.12124067
0000a0 c2 29 f8 3e 6e 6c d6 3d b3 fd cc 3e 21 d4 eb 3e
       0.4846936 0.104699 0.40037307 0.4606028
0000b0 e2 a7 a6 3e 47 5d 6d bd e9 f1 5b 3d 7a 33 33 be
       0.3254996 -0.057950284 0.0536975 -0.17500106
0000c0 92 41 6a be 19 a8 85 3e da 82 da 3d 44 82 8e bd
       -0.22876576 0.2610481 0.10669489 -0.0695844
0000d0 1d 46 2d bd 8d f7 ac bd 54 eb 2d bd 76 4a 38 be
       -0.042303193 -0.08445654 -0.042460755 -0.17997155
0000e0 92 bd cf bd 68 d3 2c be 00 3a 9f 3d 98 4d a2 be
       -0.101435795 -0.1687752 0.077747345 -0.31699824
0000f0 0f e9 70 be e1 b5 f1 bd 04 df 20 3e ff 62 27 bd
       -0.23526405 -0.11802269 0.15710074 -0.040865894
000100 5d 4c 60 be 86 05 33 3e 87 fe 8a be fc 11 3c bd
       -0.2190413 0.17482576 -0.27147314 -0.04591559
000110 99 60 07 be 8a 61 af 3c 1e cf f8 bd 5a ac e4 ba
       -0.13220443 0.021408815 -0.121488795 -0.0017446384
000120 4e c2 87 3e cd 66 20 3e e7 b4 42 3e 05 e2 6e 3e
       0.2651543 0.15664215 0.19014321 0.23328407
000130 7b a3 d0 3c 29 7c 38 3e 58 fd 7f 3e 37 c3 0c 3e
       0.025468579 0.18016113 0.24998987 0.13746344
000140 58 85 18 3e 1b b9 ae bd d6 08 e4 bc 27 17 64 bb
       0.14894617 -0.085314 -0.027836245 -0.003480384
000150 b7 ec 29 3e 48 71 15 be d5 9f e7 3d 9e 72 d0 bd
       0.16594206 -0.14593995 0.113097824 -0.101781115
000160 f0 12 52 3e d3 9c 45 3e 6e a4 be 3e 5f 67 c2 bd
       0.20515037 0.19298105 0.37234825 -0.09492373
000170 b8 d8 54 3d 0b 24 d2 bd 94 ad 20 be 8c 7e 30 be
       0.05196449 -0.10260781 -0.15691215 -0.17235774
000180 5c 4a 18 3e d5 1c 28 3e a2 5d 50 3e 2e e3 01 be
       0.14872116 0.16417249 0.20348218 -0.12684318
000190 e1 24 d5 bd 24 0e d3 bd aa d7 4f 3e e3 4e 8b 3e
       -0.10407425 -0.103054315 0.20297113 0.27208623
0001a0 ae 24 c8 3d f9 f3 3b 3e 71 37 81 3d 60 39 ae 3d
       0.09772621 0.18354787 0.06309403 0.08507037
0001b0 90 30 fc 3c 8b 3a 62 3e 83 a7 f4 bd fc f1 15 be
       0.030784875 0.22092645 -0.11946013 -0.14643091
0001c0 70 ae 0c be 15 09 b1 be d0 21 d9 bc 7b d7 93 bd
       -0.13738418 -0.34577242 -0.02650538 -0.07218834
0001d0 ac 40 41 be 20 f5 5c bd e2 67 9f 3e 12 c1 79 be
       -0.18872327 -0.053944707 0.31133944 -0.24390057
0001e0 4b 5e d2 bc d2 39 b1 bd 80 55 d7 3d 84 fc 3b 3e
       -0.025679728 -0.086536065 0.10514355 0.18358046
0001f0 83 a3 82 3e 27 45 89 bd 2b 9c ad 3c f7 8e e1 3d
       0.25515375 -0.06702643 0.02119263 0.110135965
000200 00 83 65 bd dd 74 53 bd f8 d3 58 3e 93 75 58 be
       -0.056033134 -0.05162512 0.2117461 -0.21138601
000210 e0 a9 eb bd c9 7a 0c bd 0b 9f 76 be 7a 07 1b be
       -0.115070105 -0.034296785 -0.24084108 -0.15139571
000220 e7 01 93 3c 0f 54 dd 3d 67 dd 94 bd d6 42 77 3e
       0.017945243 0.108070485 -0.07268792 0.2414659
000230 1c e1 a1 3e 50 13 26 3e 9f bf 8a 3d 4e 63 36 3e
       0.31617057 0.16218305 0.0677483 0.17811319
000240 f6 d7 44 3e c8 e9 0b be f2 b8 51 3c 05 1c 12 be
       0.19223008 -0.13663399 0.012800442 -0.14268501
000250 b7 91 37 3d d1 97 ec bc fc 4d 32 3e fa a1 20 3e
       0.0448167 -0.028880985 0.17412561 0.15686789
000260 20 5d ff 3d 15 86 54 be 1f a9 32 3e d9 7e eb 3d
       0.12468934 -0.20754273 0.17447327 0.11498804
000270 6f 64 06 be 85 f9 00 be 6b 76 8b be 5e 28 c0 bd
       -0.1312425 -0.12595184 -0.27238783 -0.093826994
000280 55 f5 b2 bd af ad 65 3c 55 4c ac bd 10 98 fb bd
       -0.087381996 0.01401846 -0.08412997 -0.12284863
000290 c2 b8 d2 3d 8f 83 02 3e 23 c0 a0 bd 7a 53 7f bd
       0.10289146 0.12745498 -0.07849147 -0.06233547
0002a0 36 76 17 be 1a 63 43 bc 1d 5c 9a 3d bb b1 32 bd
       -0.14791188 -0.011925483 0.075371005 -0.04362653
0002b0 67 33 fc 3d 2c 23 28 bd 82 d1 88 3e ac cf 0b be
       0.12314492 -0.041049168 0.26722342 -0.1365344
0002c0 c2 74 2a be 7c e7 fb bc 9a 9e 94 3e 9b ef 47 bd
       -0.16646102 -0.030750029 0.29027253 -0.04881249
0002d0 d7 28 28 bd f8 8b ac bd 92 01 ee bd ba 38 54 be
       -0.041054573 -0.084251344 -0.11621393 -0.20724764
0002e0 3a 20 70 be ab 34 05 bc 06 0e 07 be f2 f4 00 3f
       -0.23449793 -0.008130233 -0.13188943 0.50373757
0002f0 cc 61 a3 bd cc bd 70 3e a4 d3 15 be d0 b0 56 3e
       -0.07977638 0.23509902 -0.14631516 0.20965886
000300 59 ed 0a 3d 13 e6 98 bd f3 15 82 be bc f7 00 be
       0.03391776 -0.07465758 -0.2540737 -0.12594503
000310 7b f2 66 3e e7 05 d5 3d 4f 30 49 3e 76 b5 ce 3d
       0.22553436 0.104015164 0.19647335 0.10093205
000320 c9 d1 e1 3e 70 b1 2f 3e f7 63 0d 3d fa be a1 bc
       0.44105366 0.17157531 0.034519162 -0.019744385
000330 83 1b 12 bd f6 43 6d 3e 8d 5e 4a 3e 8f 8a 05 bd
       -0.03567077 0.23170456 0.19762631 -0.032602843
000340 87 f3 33 3e 94 4e 4d 3e 40 6f 2b 3e 73 89 4d 3e
       0.17573367 0.20049506 0.16741657 0.20071964
000350 a6 c1 89 bc 82 e4 40 3e 34 fb f8 3d 8e d2 09 3d
       -0.016815972 0.18837169 0.12157288 0.033648066
000360 dc d2 48 be 96 5f 2a be 8b 05 15 3e 7e 8f ff 3d
       -0.19611686 -0.16638026 0.14552896 0.12478541
000370 31 9e c0 3e 7e 55 9a bc e4 22 60 3e 27 b2 f1 3e
       0.3762069 -0.018839594 0.2188831 0.47206232
000380 cc f1 a6 3e 5a db 6b be 5d 20 c6 3b 83 05 3d 3e
       0.3260635 -0.23032895 0.0060463385 0.18459134
000390 4d 35 18 be 1c 00 69 3e 0e bb 9d 3e bf 41 a1 3e
       -0.14864083 0.22753948 0.30806774 0.31495473
0003a0 d3 79 36 3f d6 ed 04 3f 3f c9 ba 3e 23 b7 1f 3e
       0.7127964 0.5192541 0.36481664 0.15597205
0003b0 0e a3 93 3e e5 c8 ab bd 87 12 1f be 9a a1 9c 3e
       0.28835338 -0.08387927 -0.15534411 0.30592042
0003c0 ca b2 e5 3e ab 0f e2 bd c2 da bc 3e f7 32 33 3e
       0.44862968 -0.11038145 0.3688565 0.1749991
0003d0 45 76 a8 bc 6d 36 30 bd 02 24 95 3d 6f cd 38 bd
       -0.020564208 -0.043020654 0.072822586 -0.04511779
0003e0 88 10 83 3e 40 49 5b 3e a3 d0 06 bd 5a 15 58 be
       0.2559855 0.21414661 -0.032913815 -0.21101895
0003f0 ae 01 56 3d 7f aa e9 3d ef fb 9b 3c f6 df 0a be
       0.052247696 0.11409473 0.01904103 -0.13561997

cell.b_hh f4 [256]
000000 23 17 61 bd ce df 1b be 61 f6 f7 bd 2b 0c 2e be
       -0.054953706 -0.15222093 -0.1210754 -0.16996829
000010 e9 ec 92 be a6 4b 33 bd 1e c0 85 3c c9 19 eb bd
       -0.28696373 -0.043773316 0.01632696 -0.114795275
000020 38 8b bc bd f5 a7 23 be a3 bd 90 bd 00 cb 2e be
       -0.09206241 -0.1598204 -0.0706742 -0.17069626
000030 77 c5 70 bd c5 ec 53 be 54 01 32 be 9c 68 11 bd
       -0.058782067 -0.20695789 -0.17383319 -0.035500154
000040 68 a5 34 bd ce 00 1b 3d c1 5a 09 be 47 ee af bd
       -0.044103056 0.037842564 -0.13413526 -0.0859037
000050 15 82 3e be d3 54 2d 3c 3f 4e 4e be 52 d6 45 be
       -0.1860431 0.010579306 -0.20147036 -0.19320038
000060 5b 2c 95 bd 63 4a 6e bd 02 b5 3e bd f4 4f 38 be
       -0.07283851 -0.05817641 -0.04655934 -0.1799925
000070 02 87 58 be de 3d b7 bc a5 71 16 bd 50 15 d8 3d
       -0.21145251 -0.022368368 -0.036729474 0.1055094
000080 d2 a5 fd bd f2 07 d1 bd f9 c2 18 bd 47 91 94 bd
       -0.12385143 -0.102065936 -0.037295315 -0.07254272
000090 e9 bb 0d be 15 57 c2 bd cd 32 2e bd fc a2 ec bd
       -0.13841213 -0.09489266 -0.042528916 -0.11554524
0000a0 77 fc 96 bd 51 3c 48 be b8 36 83 bd 60 94 03 be
       -0.073723726 -0.19554259 -0.06406921 -0.1284957
0000b0 11 de d9 bd 10 c3 88 be a5 61 00 bd 83 b5 13 be
       -0.10638059 -0.2671132 -0.03134312 -0.1442471
0000c0 a7 56 62 3d ca 44 ac 3d 0d 1d 58 bd 96 d6 87 3d
       0.05525842 0.08411558 -0.05276208 0.06632726
0000d0 54 95 50 3c 64 c3 96 bd 6e 38 cf bd 45 d4 06 bd
       0.012730915 -0.073614866 -0.10118185 -0.03291728
0000e0 bd 6b 8a bd 55 4d 74 be c7 8a 7f bd 12 ba c0 bd
       -0.06758831 -0.23857625 -0.062388208 -0.0941049
0000f0 6d d5 92 bd 9e f2 71 bd 77 3a 3b be 0a 80 a8 bd
       -0.07169614 -0.05906927 -0.18284021 -0.082275465
000100 a4 25 3a 40 07 bf 3c 40 9e 51 3b 40 02 bd 3a 40
       2.9085474 2.9491594 2.9268565 2.9177861
000110 c8 fa 24 40 75 5c 3f 40 ad 1f 42 40 eb f3 3b 40
       2.5778065 2.9900181 3.0331833 2.9367626
000120 00 f3 30 40 23 26 3f 40 d6 28 40 40 b7 b9 3d 40
       2.7648315 2.9867027 3.0024924 2.9644601
000130 bb 44 3f 40 71 90 31 40 fa e4 39 40 a0 b8 3a 40
       2.98857 2.774441 2.9046006 2.9175186
000140 ff e3 3e 40 ec da 40 40 65 18 3c 40 1f 62 40 40
       2.9826658 3.013362 2.938989 3.0059888
000150 52 78 29 40 5c 68 3a 40 d6 6b 35 40 79 35 2f 40
       2.6479688 2.9126196 2.8347068 2.7376387
000160 aa f7 31 40 a2 c2 45 40 ec 02 34 40 c2 e8 36 40
       2.7807412 3.0900044 2.8126783 2.8579564
000170 43 91 31 40 12 18 39 40 95 bc 2c 40 03 c1 37 40
       2.774491 2.8920941 2.6990101 2.8711555
000180 77 f0 2a 40 56 13 3d 40 d8 90 32 40 eb 94 2a 40
       2.6709268 2.9543052 2.7900906 2.6653392
000190 23 c2 35 40 20 83 3c 40 d8 0a 3d 40 91 ba 2b 40
       2.8399742 2.9455032 2.9537868 2.683262
0001a0 60 b2 34 40 4d 03 32 40 01 fd 27 40 fb e3 3a 40
       2.8233871 2.7814515 2.6248171 2.9201648
0001b0 92 9b 3c 40 7e 44 2a 40 53 45 3e 40 4f ca 3b 40
       2.9469953 2.6604304 2.9729812 2.934223
0001c0 25 ff 38 40 8d 48 3a 40 6a 94 31 40 8a 85 44 40
       2.8905728 2.9106781 2.7746835 3.0706506
0001d0 ff 54 33 40 38 87 3c 40 64 be 37 40 53 cb 2f 40
       2.8020627 2.945753 2.8709955 2.746785
0001e0 91 e4 3d 40 02 35 25 40 5d 6a 3c 40 5d 30 2e 40
       2.9670756 2.5813603 2.943992 2.7217019
0001f0 b8 2c 38 40 b2 ea 31 40 0a f5 2c 40 63 9d 29 40
       2.8777294 2.7799497 2.702456 2.6502311
000200 45 85 2d 3b c4 39 98 bc df 50 02 bd fd c9 46 bd
       0.002647714 -0.018582232 -0.031815406 -0.048532475
000210 99 af ee bc 57 7a b9 bd 52 e1 0a 3d 21 57 b3 bb
       -0.029136466 -0.090565376 0.03390629 -0.005473033
000220 c9 ab 62 bd 63 59 35 3d 65 24 d7 bb d6 82 0c bd
       -0.05533961 0.0442747 -0.006565618 -0.034304462
000230 87 d5 d8 3b 58 ef 6a bc 96 b9 eb 3c d9 54 e9 3d
       0.0066172513 -0.014339291 0.028775018 0.113931365
000240 4c 9c 4a bc de 73 27 3d 6d b0 3d bd d2 c5 07 bd
       -0.012366366 0.040881984 -0.04631083 -0.03314764
000250 5d 05 8d bd 57 f7 95 bc 70 91 14 3d 6d 83 d1 bc
       -0.068857886 -0.018306417 0.036271513 -0.025575364
000260 bf fe 12 bd 41 b2 2f 3d a1 fd a6 bc 4f 91 87 3d
       -0.035887476 0.042894606 -0.020384612 0.06619512
000270 5b b8 61 3c 37 ff f6 3d f2 49 7e bd 4a 02 6b bc
       0.013776864 0.12060397 -0.06208224 -0.0143438075
000280 0d 9a 1e 3d cc 40 1e 3d db c7 ad bd db b5 8d bd
       0.038721133 0.038636014 -0.08485385 -0.06919452
000290 01 4c 0d 3d 53 01 0a 3d 35 8c 9e bd 67 3b 95 3b
       0.03449631 0.03369267 -0.07741586 0.0045542005
0002a0 37 65 43 3d 5a 46 3e 3c b9 f8 1f 3d 96 e9 bc bd
       0.047703948 0.011613453 0.03905556 -0.092242405
0002b0 4b 0f 49 3d 06 43 15 3d fe e3 2a 3b 74 87 d7 3d
       0.04908685 0.03644087 0.0026075835 0.105238825
0002c0 3e 1a 8a 3c 18 c9 f5 bc ae 73 b2 3c 70 55 04 3d
       0.016858216 -0.030003116 0.021783676 0.032308042
0002d0 a5 f1 87 3d 81 21 6a 3d 14 09 c0 3d b5 fa bb bd
       0.06637887 0.057160858 0.093767315 -0.09178678
0002e0 d6 59 92 bb 8c b5 1f bc 6e 83 a2 3c 93 69 99 3d
       -0.0044662757 -0.009747874 0.019838061 0.0749084
0002f0 7a d4 ee bc fb 39 16 3c 6c 14 94 3d 3f 34 1f bd
       -0.029154051 0.009169097 0.07230458 -0.038868185
000300 02 00 a1 3c c5 7a 1d bd 24 fd b0 bd e3 29 06 bd
       0.019653324 -0.03844716 -0.08642033 -0.03275479
000310 10 b2 ad bd 63 23 25 bd c7 11 30 be d3 64 f6 bd
       -0.08481228 -0.04031695 -0.17194282 -0.120309494
000320 97 94 66 bd a3 4c d8 bd 39 30 80 bd b9 b0 09 be
       -0.05629405 -0.10561492 -0.06259198 -0.1344632
000330 52 32 1d bd 53 66 89 be 74 ea 94 be 37 3a 56 3b
       -0.038378067 -0.2683588 -0.29085124 0.0032688507
000340 c8 93 47 bc 0f 49 3d bd c9 28 07 be 02 b4 46 bd
       -0.01218123 -0.046212252 -0.13199152 -0.048511513
000350 f2 d1 27 be c0 af 04 be 70 f6 44 be 3d 66 a4 bd
       -0.16388682 -0.12957668 -0.19234633 -0.08027313
000360 1f c8 79 3c 9d 38 83 bd ab ab d7 bd 6e 19 91 be
       0.0152454665 -0.064072825 -0.1053079 -0.28339714
000370 fd 83 90 be c1 84 c7 bd 1d d0 01 be 36 f2 28 bd
       -0.282257 -0.09742118 -0.12677045 -0.041246615
000380 2e c9 56 bd 14 22 fe bd ef 62 2d bd 5a 43 27 be
       -0.052437954 -0.12408844 -0.04233068 -0.16334286
000390 c4 c0 5a be e9 2c 1d be 43 48 72 be c0 79 57 be
       -0.21362597 -0.15349163 -0.23660378 -0.21042538
0003a0 32 75 07 be d9 c6 d1 bd b2 77 91 bd 0f 85 97 bd
       -0.132283 -0.10243005 -0.07102908 -0.07398426
0003b0 9a c6 10 be 9b f5 ab bd 67 6e ca 3b b8 c3 40 bd
       -0.1413826 -0.08396455 0.0061777118 -0.047061652
0003c0 b0 94 26 bd dd 8c 2a bd cd 49 1e be 4c 83 59 be
       -0.040669143 -0.041638244 -0.1545784 -0.21241492
0003d0 2d 37 1c 3e 6b 47 ac 3d 7d 1b 39 be 7d 20 25 be
       0.15255423 0.084120594 -0.18076892 -0.16125675
0003e0 67 b2 c9 bd 8c 41 02 be 78 58 7c bd 06 e8 f8 bd
       -0.09848481 -0.12720317 -0.061607808 -0.1215363
0003f0 76 8e c4 bd 3b d5 ef bd 17 fc 31 be af 6d 2a 3b
       -0.09597485 -0.11710592 -0.17381321 0.0026005318

cell.b_ih f4 [256]
000000 23 17 61 bd ce df 1b be 61 f6 f7 bd 2b 0c 2e be
       -0.054953706 -0.15222093 -0.1210754 -0.16996829
000010 e9 ec 92 be a6 4b 33 bd 1e c0 85 3c c9 19 eb bd
       -0.28696373 -0.043773316 0.01632696 -0.114795275
000020 38 8b bc bd f5 a7 23 be a3 bd 90 bd 00 cb 2e be
       -0.09206241 -0.1598204 -0.0706742 -0.17069626
000030 77 c5 70 bd c5 ec 53 be 54 01 32 be 9c 68 11 bd
       -0.058782067 -0.20695789 -0.17383319 -0.035500154
000040 68 a5 34 bd ce 00 1b 3d c1 5a 09 be 47 ee af bd
       -0.044103056 0.037842564 -0.13413526 -0.0859037
000050 15 82 3e be d3 54 2d 3c 3f 4e 4e be 52 d6 45 be
       -0.1860431 0.010579306 -0.20147036 -0.19320038
000060 5b 2c 95 bd 63 4a 6e bd 02 b5 3e bd f4 4f 38 be
       -0.07283851 -0.05817641 -0.04655934 -0.1799925
000070 02 87 58 be de 3d b7 bc a5 71 16 bd 50 15 d8 3d
       -0.21145251 -0.022368368 -0.036729474 0.1055094
000080 d2 a5 fd bd f2 07 d1 bd f9 c2 18 bd 47 91 94 bd
       -0.12385143 -0.102065936 -0.037295315 -0.07254272
000090 e9 bb 0d be 15 57 c2 bd cd 32 2e bd fc a2 ec bd
       -0.13841213 -0.09489266 -0.042528916 -0.11554524
0000a0 77 fc 96 bd 51 3c 48 be b8 36 83 bd 60 94 03 be
       -0.073723726 -0.19554259 -0.06406921 -0.1284957
0000b0 11 de d9 bd 10 c3 88 be a5 61 00 bd 83 b5 13 be
       -0.10638059 -0.2671132 -0.03134312 -0.1442471
0000c0 a7 56 62 3d ca 44 ac 3d 0d 1d 58 bd 96 d6 87 3d
       0.05525842 0.08411558 -0.05276208 0.06632726
0000d0 54 95 50 3c 64 c3 96 bd 6e 38 cf bd 45 d4 06 bd
       0.012730915 -0.073614866 -0.10118185 -0.03291728
0000e0 bd 6b 8a bd 55 4d 74 be c7 8a 7f bd 12 ba c0 bd
       -0.06758831 -0.23857625 -0.062388208 -0.0941049
0000f0 6d d5 92 bd 9e f2 71 bd 77 3a 3b be 0a 80 a8 bd
       -0.07169614 -0.05906927 -0.18284021 -0.082275465
000100 40 4b bb bd 1c 42 50 bd 99 ca 95 bd e3 62 a8 bd
       -0.09145212 -0.050844297 -0.07314033 -0.08221986
000110 dd 29 d8 be c3 95 23 bc 06 f0 07 3d 1a 84 81 bd
       -0.4221944 -0.009984436 0.03318789 -0.063240245
000120 e4 ce 70 be be ea 59 bc fd d2 22 3b ad 8c 11 bd
       -0.23516423 -0.013300596 0.0024844997 -0.03553455
000130 48 3e 3b bc 16 f8 66 be 6b 5e c3 bd f8 e4 a8 bd
       -0.011428423 -0.22555575 -0.09539493 -0.08246797
000140 48 0a 8e bc 91 04 5b 3c de de 79 bd 47 53 c4 3b
       -0.017338887 0.013367788 -0.06100356 0.0059913727
000150 89 3f b4 be 54 f3 b2 bd cc 42 29 be a9 52 86 be
       -0.35204723 -0.087378174 -0.16529387 -0.2623494
000160 c7 85 60 be f2 52 b8 3d c2 d2 3f be f5 74 11 be
       -0.21926032 0.090001956 -0.18732741 -0.14204772
000170 9e eb 66 be a8 fb dc bd 70 1b 9a be c3 f0 03 be
       -0.22550818 -0.10790187 -0.30099058 -0.12884812
000180 e0 7c a8 be a2 27 3b bd d8 f4 56 be d1 58 ab be
       -0.32907772 -0.045692094 -0.20991838 -0.334662
000190 78 dc 23 be ba 39 5f bd d7 43 3d bd 97 2b a2 be
       -0.16002071 -0.05449841 -0.046207275 -0.3167388
0001a0 bc d9 34 be 95 cb 5f be 4e 17 c0 be bd 81 a3 bd
       -0.17661184 -0.21855004 -0.3751778 -0.0798373
0001b0 d0 1b 59 bd a5 db ad be 93 54 dd bc c3 b6 86 bd
       -0.05300504 -0.33956638 -0.027017867 -0.06577828
0001c0 32 1b e0 bd 80 ec b6 bd a1 b8 66 be 4a b3 90 3d
       -0.10942687 -0.089318275 -0.22531368 0.07065447
0001d0 44 b1 4a be 29 35 5e bd ed 17 04 be e2 a5 81 be
       -0.19794184 -0.054249916 -0.12899752 -0.2532187
0001e0 93 e2 06 bd 83 57 d6 be 4c 6d 65 bd b7 7b 8e be
       -0.03293092 -0.4186364 -0.056012437 -0.27828762
0001f0 a3 67 fa bd a7 59 61 be 25 57 98 be 1a 15 b3 be
       -0.122267984 -0.22006856 -0.29753986 -0.34977037
000200 45 85 2d 3b c4 39 98 bc df 50 02 bd fd c9 46 bd
       0.002647714 -0.018582232 -0.031815406 -0.048532475
000210 99 af ee bc 57 7a b9 bd 52 e1 0a 3d 21 57 b3 bb
       -0.029136466 -0.090565376 0.03390629 -0.005473033
000220 c9 ab 62 bd 63 59 35 3d 65 24 d7 bb d6 82 0c bd
       -0.05533961 0.0442747 -0.006565618 -0.034304462
000230 87 d5 d8 3b 58 ef 6a bc 96 b9 eb 3c d9 54 e9 3d
       0.0066172513 -0.014339291 0.028775018 0.113931365
000240 4c 9c 4a bc de 73 27 3d 6d b0 3d bd d2 c5 07 bd
       -0.012366366 0.040881984 -0.04631083 -0.03314764
000250 5d 05 8d bd 57 f7 95 bc 70 91 14 3d 6d 83 d1 bc
       -0.068857886 -0.018306417 0.036271513 -0.025575364
000260 bf fe 12 bd 41 b2 2f 3d a1 fd a6 bc 4f 91 87 3d
       -0.035887476 0.042894606 -0.020384612 0.06619512
000270 5b b8 61 3c 37 ff f6 3d f2 49 7e bd 4a 02 6b bc
       0.013776864 0.12060397 -0.06208224 -0.0143438075
000280 0d 9a 1e 3d cc 40 1e 3d db c7 ad bd db b5 8d bd
       0.038721133 0.038636014 -0.08485385 -0.06919452
000290 01 4c 0d 3d 53 01 0a 3d 35 8c 9e bd 67 3b 95 3b
       0.03449631 0.03369267 -0.07741586 0.0045542005
0002a0 37 65 43 3d 5a 46 3e 3c b9 f8 1f 3d 96 e9 bc bd
       0.047703948 0.011613453 0.03905556 -0.092242405
0002b0 4b 0f 49 3d 06 43 15 3d fe e3 2a 3b 74 87 d7 3d
       0.04908685 0.03644087 0.0026075835 0.105238825
0002c0 3e 1a 8a 3c 18 c9 f5 bc ae 73 b2 3c 70 55 04 3d
       0.016858216 -0.030003116 0.021783676 0.032308042
0002d0 a5 f1 87 3d 81 21 6a 3d 14 09 c0 3d b5 fa bb bd
       0.06637887 0.057160858 0.093767315 -0.09178678
0002e0 d6 59 92 bb 8c b5 1f bc 6e 83 a2 3c 93 69 99 3d
       -0.0044662757 -0.009747874 0.019838061 0.0749084
0002f0 7a d4 ee bc fb 39 16 3c 6c 14 94 3d 3f 34 1f bd
       -0.029154051 0.009169097 0.07230458 -0.038868185
000300 02 00 a1 3c c5 7a 1d bd 24 fd b0 bd e3 29 06 bd
       0.019653324 -0.03844716 -0.08642033 -0.03275479
000310 10 b2 ad bd 63 23 25 bd c7 11 30 be d3 64 f6 bd
       -0.08481228 -0.04031695 -0.17194282 -0.120309494
000320 97 94 66 bd a3 4c d8 bd 39 30 80 bd b9 b0 09 be
       -0.05629405 -0.10561492 -0.06259198 -0.1344632
000330 52 32 1d bd 53 66 89 be 74 ea 94 be 37 3a 56 3b
       -0.038378067 -0.2683588 -0.29085124 0.0032688507
000340 c8 93 47 bc 0f 49 3d bd c9 28 07 be 02 b4 46 bd
       -0.01218123 -0.046212252 -0.13199152 -0.048511513
000350 f2 d1 27 be c0 af 04 be 70 f6 44 be 3d 66 a4 bd
       -0.16388682 -0.12957668 -0.19234633 -0.08027313
000360 1f c8 79 3c 9d 38 83 bd ab ab d7 bd 6e 19 91 be
       0.0152454665 -0.064072825 -0.1053079 -0.28339714
000370 fd 83 90 be c1 84 c7 bd 1d d0 01 be 36 f2 28 bd
       -0.282257 -0.09742118 -0.12677045 -0.041246615
000380 2e c9 56 bd 14 22 fe bd ef 62 2d bd 5a 43 27 be
       -0.052437954 -0.12408844 -0.04233068 -0.16334286
000390 c4 c0 5a be e9 2c 1d be 43 48 72 be c0 79 57 be
       -0.21362597 -0.15349163 -0.23660378 -0.21042538
0003a0 32 75 07 be d9 c6 d1 bd b2 77 91 bd 0f 85 97 bd
       -0.132283 -0.10243005 -0.07102908 -0.07398426
0003b0 9a c6 10 be 9b f5 ab bd 67 6e ca 3b b8 c3 40 bd
       -0.1413826 -0.08396455 0.0061777118 -0.047061652
0003c0 b0 94 26 bd dd 8c 2a bd cd 49 1e be 4c 83 59 be
       -0.040669143 -0.041638244 -0.1545784 -0.21241492
0003d0 2d 37 1c 3e 6b 47 ac 3d 7d 1b 39 be 7d 20 25 be
       0.15255423 0.084120594 -0.18076892 -0.16125675
0003e0 67 b2 c9 bd 8c 41 02 be 78 58 7c bd 06 e8 f8 bd
       -0.09848481 -0.12720317 -0.061607808 -0.1215363
0003f0 76 8e c4 bd 3b d5 ef bd 17 fc 31 be af 6d 2a 3b
       -0.09597485 -0.11710592 -0.17381321 0.0026005318

head.net.0.weight f4 [1, 64]
000000 89 a2 9c 3c 10 fc 3e 3d f1 a3 6d bd 3e 32 bd 3c
       0.019120472 0.046627104 -0.058017675 0.023095246
000010 5c c9 17 bf 1d d7 f1 3b 8b 95 f6 3d dc fc 4d bd
       -0.59291625 0.00738038 0.12040242 -0.050289974
000020 71 97 51 be 43 e6 1d bd e2 08 1d 3d a2 67 9f bd
       -0.20467927 -0.038549673 0.03833855 -0.07783438
000030 f5 40 20 bc 48 b1 f4 be fe 33 46 be 73 8c 76 ba
       -0.009781112 -0.47791505 -0.19355771 -0.0009405084
000040 9c 2d ec 3c 85 b8 ab bc 67 8d 79 bb 4b c9 f9 3c
       0.028830342 -0.02096201 -0.0038078667 0.030491492
000050 04 7f ac be 66 dd b8 3c 54 ef 4c 3e aa d2 f7 be
       -0.33690655 0.022566509 0.20013171 -0.4840291
000060 83 e1 e8 3d ff f9 72 bc e7 7d c0 bd 1c e4 38 3e
       0.11371138 -0.0148301115 -0.09399014 0.18055767
000070 88 2d 95 be 28 c3 41 3e 4d b9 b6 be 3d 72 b0 bc
       -0.291363 0.18922102 -0.35688248 -0.021538848
000080 84 9d 10 3f d6 41 c4 bc 6b 42 3b be 59 bc e1 be
       0.5649035 -0.023957174 -0.18287055 -0.4408901
000090 b9 0d 0b be ae d5 13 bd 30 1b 29 be a8 c7 c3 be
       -0.13579454 -0.036092453 -0.16514277 -0.38238263
0000a0 e5 d6 b9 bc ce 68 ca bd b6 de d2 3e fc 8f 63 3c
       -0.022685478 -0.09883271 0.4118554 0.013889309
0000b0 c0 e9 d5 3c 54 c6 08 3f 9e 88 8d 3c 92 41 f8 bb
       0.026112437 0.53427625 0.017277058 -0.007576176
0000c0 35 27 4f 3d c9 23 ed bc 7f 09 63 3e 31 8b 3f bd
       0.0505745 -0.028947728 0.22171591 -0.046763603
0000d0 f0 09 37 bc db e9 eb bb 72 fd 15 3e d6 90 9a be
       -0.011171803 -0.0071995086 0.14647463 -0.30188626
0000e0 42 59 a2 bc 0c 10 f4 be 2c 80 0d bd 38 6b c2 3e
       -0.019817952 -0.47668493 -0.034546062 0.37972426
0000f0 4e 2d 12 bc bf 35 29 3d 85 85 a4 3e 67 da 1b 3e
       -0.008921934 0.041311022 0.32133117 0.15220033
