runs/lstm_camels_us_2001_000652/model_epoch002.pt (torch, 80974 bytes, 5 tensors)

cell.w_hh f4 [256, 64]
0.047729526 0.10882568 0.02570519 -0.11887489 -0.21497826 -0.065661736 -0.1233459 0.2213123
0.04685863 -0.16423632 0.13128978 0.043578032 0.1649604 0.10549328 -0.12299953 0.067937955
0.12079065 0.004037246 0.068427145 -0.18522348 -0.06448276 0.053973842 0.10289446 0.07553261
-0.14172937 0.07496955 0.07607693 -0.022726635 -0.08586232 0.11529587 -0.005246867 0.26659182
0.046110053 -0.26805916 0.09730152 0.054171894 0.12507266 -0.09771099 -0.12215324 0.00074234355
-0.13474134 -0.091416135 -0.0010766922 -0.18707943 -0.16700935 -0.090156704 -0.0054329056 0.0103399595
0.042465366 -0.17116195 0.16152474 0.22780716 -0.006472575 0.17716101 0.13260755 -0.0038372544
-0.14192201 0.015035021 -0.07508033 0.22941175 -0.04087951 0.1198364 -0.029637745 0.0039040449
-0.1697248 -0.15430324 0.05547206 -0.27051437 0.15257615 0.020201541 0.0514378 -0.0557304
-0.045912907 0.081524685 -0.14608946 0.09488862 -0.24501611 -0.24449007 -0.0067277574 0.14002743
0.12643941 0.027133808 -0.046135534 -0.027409105 -0.09462036 0.1262342 0.042261723 0.14593405
-0.05002572 0.032557618 -0.07709009 0.06236261 0.09739404 -0.22130014 -0.13188401 -0.26105028
-0.053573895 -0.22494525 -0.10571267 0.09563094 0.027847487 -0.20112541 -0.10507428 -0.023103068
-0.14270477 -0.0749951 0.2705658 0.105635755 -0.059803568 -0.112393014 -0.053332865 0.09052462
0.16856292 0.1363507 -0.1463019 0.026475675 -0.22970168 -0.09655339 -0.038722318 0.08795248
-0.21780811 -0.13851637 0.12692407 0.17924866 0.30924723 -0.14423971 -0.1885866 0.1628765
-0.22456312 0.14445622 -0.08870341 0.043143302 -0.05943542 0.047702566 -0.20641266 -0.115291566
-0.29767555 -0.06622738 -0.27063018 -0.07137157 0.1545794 0.1089568 -0.03431898 -0.051097386
-0.049769916 -0.045921646 0.15391828 0.13442524 -0.27710316 0.040906437 -0.15096337 0.26417455
0.21911374 -0.106050506 0.02034678 -0.13252921 -0.33814564 0.11332074 0.051455066 0.1454823
-0.14970998 0.08368714 -0.049119156 0.037465848 -0.21109726 0.22428311 0.16202533 -0.22473726
-0.1693142 -0.23680086 0.2902715 -0.028459636 -0.10655374 -0.1035009 -0.19816421 -0.04205794
-0.009074667 0.0062614274 0.071839824 -0.13488334 -0.11635206 0.04402968 -0.080025494 0.0058681592
-0.30931428 -0.013737179 -0.22592126 0.16630653 -0.110208385 0.108457066 0.06023045 0.13755836
0.12703751 0.08875945 -0.09914235 -0.3033216 0.10366774 0.18514332 0.023515152 0.036565527
0.011580777 0.039453547 0.07335589 -0.18545267 0.1079077 -0.018869666 -0.23969358 -0.042840462
0.18198694 -0.2877451 0.070661366 0.16912942 -0.09891076 0.10419685 -0.02921279 0.08064878
0.17316218 -0.18353873 -0.011703076 0.1573409 0.087683275 0.21409908 -0.0906933 -0.062459316
-0.15226227 -0.2782812 -0.2674205 0.016256697 0.03145232 0.08022198 0.22547057 0.30312347
0.10359136 0.118435495 0.19081073 -0.0141039565 0.014283188 0.12474651 0.17676347 0.13366194
0.24962804 0.27888545 -0.023596032 -0.17666091 -0.26046866 0.039333567 -0.091166385 0.085788436
0.11132953 0.026547693 0.10254582 0.21221974 0.10888152 0.14803062 -0.04326907 -0.06564913
00000000: 0980 433d 00e0 de3d b193 d23c ae74 f3bd
00000010: 4323 5cbe a979 86bd c69c fcbd b19f 623e
00000020: d6ee 3f3d 912d 28be d470 063e e17e 323d
00000030: 61eb 283e dc0c d83d 2de7 fbbd 0e23 8b3d
00000040: 1761 f73d e04a 843b 8823 8c3d 39ab 3dbe
00000050: 8a0f 84bd ad13 5d3d 55ba d23d d7b0 9a3d
00000060: 8121 11be a389 993d 39ce 9b3d 352d babc
00000070: 96d8 afbd 3e20 ec3d e9ed abbb b97e 883e
00000080: e5dd 3c3d 0d3f 89be 0546 c73d 59e3 5d3d
00000090: 0c13 003e b31c c8bd 7a2b fabd d599 423a
000000a0: a2f9 09be 6238 bbbd cc1f 8dba c091 3fbe
000000b0: 8004 2bbe 14a4 b8bd 8406 b2bb ef68 293c
000000c0: 2af0 2d3d 1445 2fbe be66 253e 4846 693e
000000d0: e517 d4bb b269 353e 46ca 073e 727a 7bbb
000000e0: 0154 11be 7355 763c b7c3 99bd eaea 6a3e
000000f0: 4671 27bd c96c f53d dbca f2bc 01db 7f3b
00000100: 57cc 2dbe ab01 1ebe ac36 633d dc80 8abe
00000110: ec3c 1c3e b47d a53c 71b0 523d 8f45 64bd
00000120: 2c0f 3cbd 6af6 a63d 7a98 15be f754 c23d
00000130: 81e5 7abe 9b5b 7abe 8574 dcbb 5a63 0f3e
00000140: 5579 013e b847 de3c 9df8 3cbd 0f89 e0bc
00000150: 52c8 c1bd 8a43 013e a11a 2d3d bc6f 153e
00000160: c5e7 4cbd 235b 053d 69e1 9dbd f06f 7f3d
00000170: 8776 c73d 819c 62be 9a0c 07be 62a8 85be
00000180: 4d70 5bbd 0c58 66be e27f d8bd 27da c33d
00000190: 6a20 e43c d2f3 4dbe 2f31 d7bd a542 bdbc
000001a0: 3321 12be 0897 99bd 9a87 8a3e 8f57 d83d
000001b0: 96f4 74bd 4f2e e6bd 9073 5abd f964 b93d
000001c0: c29b 2c3e 859f 0b3e 2ad0 15be 84e3 d83c
000001d0: eb36 6bbe c9bd c5bd 4b9b 1ebd 6e20 b43d
000001e0: 1709 5fbe 3cd7 0dbe 62f8 013e f68c 373e
000001f0: a755 9e3e 93b3 13be d81c 41be 19c9 263e
00000200: e0f3 65be 55ec 133e 22aa b5bd 08b7 303d
00000210: 8e72 73bd c463 433d d75d 53be fc1d ecbd
00000220: ee68 98be 38a2 87bd 0a90 8abe 422b 92bd
00000230: 104a 1e3e be24 df3d 0f92 0cbd 7e4b 51bd
00000240: 8adb 4bbd 5618 3cbd c19c 1d3e c5a6 093e
00000250: 77e0 8dbe 828d 273d 2496 1abe e341 873e
00000260: 5a5f 603e 0231 d9bd 4aae a63c bdb5 07be
00000270: 6d21 adbe b414 e83d 8cc2 523d 50f9 143e
00000280: 934d 19be 2a64 ab3d 2b31 49bd ca75 193d
00000290: e129 58be 79aa 653e f8e9 253e 8621 66be
000002a0: b460 2dbe ed7b 72be 779e 943e 2f24 e9bc
000002b0: d938 dabd 48f8 d3bd 8feb 4abe f244 2cbd
000002c0: e9ad 14bc a92c cd3b c220 933d dc1e 0abe
000002d0: fd49 eebd 7758 343d 68e4 a3bd b049 c03b
000002e0: 715e 9ebe e811 61bc e757 67be 424c 2a3e
000002f0: efb4 e1bd bd1e de3d 34b4 763d 19dc 0c3e
00000300: 1f16 023e 84c7 b53d 250b cbbd f84c 9bbe
00000310: c14f d43d 3696 3d3e d9a2 c03c bcc5 153d
00000320: 4dbd 3d3c 0b9a 213d 9d3b 963d 4ee7 3dbe
00000330: b6fe dc3d 8f94 9abc 3c72 75be 7b79 2fbd
00000340: c95a 3a3e 5353 93be e8b6 903d 4330 2d3e
00000350: b991 cabd 2865 d53d a94f efbc 302b a53d
00000360: 6d51 313e 94f1 3bbe 42be 3fbc f91d 213e
00000370: 4a93 b33d ca3c 5b3e 69bd b9bd 57d5 7fbd
00000380: a4ea 1bbe e07a 8ebe 57eb 88be c42c 853c
00000390: 26d4 003d 6c4b a43d c2e1 663e 0033 9b3e
000003a0: b527 d43d 4f8e f23d e363 433e 4814 67bc
000003b0: 0804 6a3c 197b ff3d 7c01 353e adde 083e
000003c0: 7e9e 7f3e 13ca 8e3e 774c c1bc 99e6 34be
000003d0: 265c 85be 3c1c 213d 71b5 babd d9b1 af3d
000003e0: bd00 e43d 8c7a d93c 8b03 d23d 2250 593e
000003f0: 46fd de3d 5795 173e e93a 31bd 0d73 86bd

cell.w_ih f4 [256, 10]
-0.19540961 -0.022327874 -0.14468302 -0.17525451 -0.09510962 -0.0751787 -0.1722744 -0.094026975
-0.027775288 -0.115856186 -0.088676706 -0.17696944 -0.10272531 0.23305738 0.13298853 0.0055585015
0.10814587 0.263081 0.19225243 0.19262172 -0.01588579 0.010218128 -0.27761656 0.037728157
-0.22131419 -0.073460154 -0.059696548 -0.11140371 -0.11689868 -0.1690763 0.34376982 0.16943452
0.16208647 0.12515594 0.19460183 0.08141581 -0.0823616 0.15004294 0.010462771 -0.1274596
0.16324134 -0.1645614 -0.007946416 0.1742559 0.008102548 0.21573032 -0.16528824 -0.08193724
-0.1630909 0.18646728 -0.10309072 0.2306685 0.08904166 0.23803443 0.09378323 0.09669401
0.11821248 0.13548973 0.12750418 -0.11268574 0.23827086 -0.24919888 -0.005063382 -0.108665876
0.0056020524 -0.12838349 0.041127183 0.09505031 -0.10355236 0.17008752 0.24409828 -0.0044891415
0.39478394 0.3602053 0.10375434 0.023960892 0.25253418 0.054400813 -0.09029308 0.12644239
0.18496428 -0.25754178 -0.039361876 -0.02750534 -0.036680415 0.06711588 -0.2042228 0.2661919
-0.074610695 0.005482075 0.26964775 0.19630429 0.39227122 0.28347343 0.12630157 -0.0125485
0.027289819 -0.014903689 0.17987601 0.24817109 0.064622365 -0.052792985 0.1954022 0.25328112
0.11849445 -0.06328247 -0.20341142 -0.011919641 0.069699995 -0.051210348 -0.17902285 -0.042883728
0.1929404 0.25155976 0.27711055 0.12879877 -0.01604856 0.11116973 0.16668858 0.1545555
-0.0371018 0.25182578 -0.03148038 0.20100926 0.0029257967 0.0052246647 -0.19006822 -0.14874929
0.086252905 0.20103621 0.17979318 0.16098484 0.13948536 -0.035735738 0.10459753 -0.14508682
-0.06217829 0.048064835 -0.04704205 0.1572305 -0.007405753 -0.23455548 -0.2241616 0.08819759
-0.14183816 0.06949467 0.13506192 -0.0810158 -0.08837345 0.08019221 0.2877346 -0.0783101
-0.0064222477 0.25138858 0.17736275 0.15393242 0.040880542 0.11822668 0.10853361 -0.033696327
0.29262635 0.18416183 0.39679724 0.046262685 -0.046670653 0.14365083 -0.085577264 -0.058687694
-0.015281756 0.13371782 -0.04195619 -0.13027604 0.19257261 -0.07542138 0.17812702 -0.030327523
-0.13241537 0.023266988 0.20548825 -0.059965536 -0.17899625 0.09590548 -0.1046254 0.16938931
0.2203709 -0.13585855 -0.045108106 -0.0025837703 -0.04390292 -0.09756583 0.11888382 -0.0657476
-0.10445856 -0.08129083 -0.00097625726 0.22607344 0.006102771 0.14454351 -0.10126453 -0.21643333
-0.1368679 -0.12315923 -0.167038 -0.31026456 -0.091179565 0.06335048 -0.08949428 0.16508847
0.14557615 -0.09112287 0.18259892 0.058005154 0.2240865 -0.038372826 0.14698465 -0.11810844
-0.17644823 -0.0006490744 -0.03361007 0.19250105 0.0111311795 -0.15691747 -0.008808531 0.26333058
0.258267 0.10549814 0.12499521 0.19443618 0.01286664 0.03042421 -0.0008412847 0.22460559
-0.19752009 -0.16526406 0.015309633 0.09448205 -0.0046352115 -0.066403985 0.017033413 0.044918094
-0.079185665 -0.10171462 -0.096964926 -0.026250176 0.16328189 -0.17380567 -0.18899728 -0.18323806
0.05985319 0.07886935 0.35713995 0.08174826 0.3735089 0.32458448 0.10549792 -0.160304
00000000: 7519 48be f2e8 b6bc c927 14be eb75 33be
00000010: d5c8 c2bd 4af7 99bd b368 30be 3791 c0bd
00000020: 0089 e3bc 0246 edbd 229c b5bd 7a37 35be
00000030: a661 d2bd 98a6 6e3e 252e 083e 1724 b63b
00000040: 957b dd3d 8eb2 863e d2dd 443e a13e 453e
00000050: eb22 82bc ef69 273c c223 8ebe d788 1a3d
00000060: 30a0 62be 4772 96bd 5e84 74bd a127 e4bd
00000070: 9368 efbd 5622 2dbe 9902 b03e 3e80 2d3e
00000080: fff9 253e e128 003e b445 473e 55bd a63d
00000090: 33ad a8bd dba4 193e 0b6c 2b3c c584 02be
000000a0: bd28 273e c982 28be af31 02bc 2370 323e
000000b0: 8dc0 043c 69e8 5c3e 5241 29be b6ce a7bd
000000c0: 4d01 27be 47f1 3e3e 3a21 d3bd 5d34 6c3e
000000d0: 795b b63d 4cbf 733e 6c11 c03d 8207 c63d
000000e0: 6219 f23d d2bd 0a3e 7590 023e c8c7 e6bd
000000f0: 47fd 733e fe2d 7fbe baea a5bb 378c debd
00000100: 6c91 b73b f676 03be fa74 283d bda9 c23d
00000110: 4213 d4bd 6c2b 2e3e e6f4 793e a619 93bb
00000120: 1f21 ca3e d46c b83e 287d d43d a249 c43c
00000130: 294c 813e 63d3 5e3d 94eb b8bd 1d7a 013e
00000140: 4767 3d3e 84dc 83be eb39 21bd e152 e1bc
00000150: 343e 16bd 0d74 893d c81f 51be 4e4a 883e
00000160: 7ecd 98bd faa2 b33b 450f 8a3e fe03 493e
00000170: c6d7 c83e 6e23 913e 3355 013e 3998 4dbc
00000180: e68e df3c 9a2e 74bc 6b31 383e 9020 7e3e
00000190: bb58 843d 753d 58bd 8417 483e 10ae 813e
000001a0: 38ad f23d 3d9a 81bd 154b 50be 994a 43bc
000001b0: dfbe 8e3d f1c1 51bd c451 37be d9a6 2fbd
000001c0: 2b92 453e 71cc 803e 6fe1 8d3e d3e3 033e
000001d0: 4578 83bc f5ac e33d 69b0 2a3e cc43 1e3e
000001e0: 0ff8 17bd 4fef 803e 92f1 00bd 5fd5 4d3e
000001f0: b9be 3f3b aa33 ab3b 3ea1 42be bc51 18be
00000200: 5da5 b03d 70dc 4d3e b41b 383e 36d9 243e
00000210: 40d5 0e3e a35f 12bd 3b37 d63d a491 14be
00000220: aaae 7ebd a2df 443d 2aaf 40bd 0801 213e
00000230: f5ab f2bb 502f 70be 9e8a 65be f0a0 b43d
00000240: 063e 11be 3953 8e3d ac4d 0a3e 9deb a5bd
00000250: 24fd b4bd d03b a43d f351 933e 0c61 a0bd
00000260: b871 d2bb 01b6 803e 959e 353e 76a0 1d3e
00000270: 5b72 273d d420 f23d df46 de3d 2905 0abd
00000280: 1fd3 953e eb94 3c3e 0229 cb3e f17d 3d3d
00000290: ba29 3fbd 3419 133e 2243 afbd 8262 70bd
000002a0: 5560 7abc 53ed 083e 41da 2bbd 1567 05be
000002b0: c131 453e 8676 9abd ee66 363e 6d71 f8bc
000002c0: e597 07be 699a be3c 836b 523e 6c9e 75bd
000002d0: cb4a 37be 186a c43d d745 d6bd 6474 2d3e
000002e0: e9a8 613e 811e 0bbe 47c3 38bd 7954 29bb
000002f0: 8cd3 33bd 98d0 c7bd 5c79 f33d ada6 86bd
00000300: 5fee d5bd cf7b a6bd 84eb 7fba cc7f 673e
00000310: c1f9 c73b 3703 143e c763 cfbd b3a0 5dbe
00000320: 1927 0cbe e83a fcbd 020c 2bbe ffda 9ebe
00000330: 5abc babd e5bd 813d c748 b7bd f40c 293e
00000340: ea11 153e a19e babd 36fb 3a3e d096 6d3d
00000350: ee76 653e d32c 1dbd 2583 163e d6e2 f1bd
00000360: d8ae 34be a526 2aba b6aa 09bd ff1e 453e
00000370: 8d5f 363c f9ae 20be a851 10bc 44d3 863e
00000380: 923b 843e 690f d83d 7dfd ff3d 471a 473e
00000390: 9ace 523c 313c f93c a989 5cba 02ff 653e
000003a0: b542 4abe fb3a 29be 41d5 7a3c ce7f c13d
000003b0: f9e2 97bb d0fe 87bd a889 8b3c 09fc 373d
000003c0: 182c a2bd c14f d0bd 8c95 c6bd 9c0a d7bc
000003d0: 5e33 273e 1dfa 31be 8188 41be c2a2 3bbe
000003e0: 9e28 753d 4186 a13d 0cdb b63e a26b a73d
000003f0: 8f3c bf3e f02f a63e 4b0f d83d bb26 24be

cell.b_hh f4 [256]
-0.102841884 -0.05752869 -0.082482554 -0.12486805 -0.040690564 -0.07481085 -0.09808363 -0.07921153
-0.083301686 -0.13612854 -0.11388499 0.010780333 -0.06291546 -0.093055256 -0.028767293 -0.008006575
-0.12907046 -0.02645172 -0.09103306 -0.062381674 -0.063272305 -0.000887106 -0.10183293 -0.031158127
-0.07508786 -0.18162231 -0.11767389 0.02613032 -0.08288516 -0.020202799 -0.004165005 -0.12868594
-0.02995259 -0.17650768 -0.0338852 -0.020754078 -0.060673505 -0.09222077 -0.075888656 -0.030388875
-0.03652723 -0.05289282 -0.0015100385 0.005893076 -0.09634091 0.010999576 -0.052594256 0.00085558475
-0.19013485 -0.08195121 -0.07377425 -0.0495903 -0.12944166 0.0047327615 -0.031198232 -0.072173804
-0.08626861 -0.05702235 -0.043870337 -0.11003724 0.00327518 -0.027366705 -0.028256543 -0.03470498
2.8464851 2.767426 2.984918 2.728534 2.9306605 2.8923266 2.9609437 2.7266421
2.7931247 2.7279036 2.9203784 3.03325 2.9184113 2.8914466 2.9882343 2.8631704
2.702172 2.988203 2.992199 2.8555996 3.0053058 2.9943361 2.9025927 2.9450922
2.9744098 2.7170982 2.7132995 2.7626674 2.9180253 2.9888988 2.8026206 2.9553769
2.892243 2.869124 2.9768484 2.7793407 3.0064118 3.0219736 2.9268744 2.7594233
2.8687267 2.9937844 2.9338365 2.7999976 2.9642432 2.8924265 2.820508 2.8124955
2.8163455 2.9167364 2.903234 2.968229 2.8508449 3.040004 2.9507284 2.9805212
2.9523351 3.0662472 2.9118443 2.8015246 2.728058 3.0482721 2.9577968 2.9348145
-0.04520388 -0.014780705 0.07779562 -8.229652e-05 -0.041741483 -0.0033988662 0.014102784 0.019094668
0.019801766 0.017603345 0.036194127 0.096370734 -0.037789956 0.0065179947 0.052934635 -0.04856216
-0.0155211575 -0.010478862 -0.01659347 0.06766113 -0.013579845 -0.06855483 -0.0076371925 -0.02492803
0.0198006 0.0028458124 0.016358638 -0.020088064 0.020837557 -0.05626112 0.025045587 0.021448007
0.01876091 -0.005001387 0.00730787 -0.01818202 0.05199538 -0.002222857 -0.038661066 -0.0079790205
0.0068695135 0.018147444 0.0063180733 0.047105413 0.030304875 0.043478154 0.05222714 0.065011516
-0.011003187 0.008815927 -0.020605985 0.0127830645 -0.02981566 -0.0332134 0.063129865 0.009688575
0.039739624 -0.04504838 0.070891626 0.0072768917 0.031442117 0.013596988 -0.06661504 0.03359938
-0.142685 -0.050142195 -0.06708871 -0.16745897 -0.038821295 -0.09730725 -0.10429872 -0.017017849
-0.046256617 -0.07307927 -0.07394112 0.0013177322 -0.06244969 -0.059364248 -0.07887891 0.00044598436
-0.07905956 -0.0089310175 -0.1253626 -0.06269351 -0.019129235 -0.0048115803 -0.06782325 -0.082384154
-0.14769675 0.07598812 -0.07953541 -0.023206353 -0.051953014 -0.06298059 -0.1282982 -0.09996758
-0.042820033 -0.13258117 -0.1291076 -0.1423132 -0.040196814 -0.08592951 -0.08594194 -0.017065536
-0.07300617 -0.07707831 -0.047663357 0.016398821 -0.042818397 -0.06632632 -0.085058466 -0.16208294
-0.049179185 -0.0865401 -0.08062389 -0.06582207 -0.14885278 0.03460848 -0.026423497 -0.09607252
-0.026181987 0.018536579 -0.037099186 -0.05390009 0.023879247 -0.018401507 -0.12893078 -0.1341096
00000000: c49e d2bd 34a3 6bbd 9dec a8bd d2ba ffbd
00000010: 26ab 26bd 6e36 99bd 12e0 c8bd a839 a2bd
00000020: 139a aabd 4865 0bbe 893c e9bd fe9f 303c
00000030: d2d9 80bd c193 bebd 63a9 ebbc 022e 03bc
00000040: 0c2b 04be 47b1 d8bc 8a6f babd ed83 7fbd
00000050: e994 81bd ad8c 68ba c98d d0bd 543f ffbc
00000060: aac7 99bd 33fb 39be 02ff f0bd 410f d63c
00000070: b2bf a9bd 5780 a5bc 987a 88bb 3fc6 03be
00000080: 225f f5bc 6ebe 34be 35cb 0abd 7504 aabc
00000090: c884 78bd 3ede bcbd 836b 9bbd 17f2 f8bc
000000a0: 949d 15bd 24a6 58bd 7cec c5ba b41a c13b
000000b0: 624e c5bd 9137 343c 136d 57bd 5249 603a
000000c0: b6b2 42be 09d6 a7bd f416 97bd 331f 4bbd
000000d0: 5b8c 04be 4815 9b3b 6f93 ffbc dccf 93bd
000000e0: 99ad b0bd 4590 69bd 62b1 33bd 345b e1bd
000000f0: 67a4 563b 2430 e0bc 447a e7bc cf26 0ebd
00000100: d02c 3640 821d 3140 e608 3f40 4da0 2e40
00000110: f18f 3b40 e11b 3940 1a80 3d40 4e81 2e40
00000120: 8ec2 3240 f995 2e40 7be7 3a40 c520 4240
00000130: 40c7 3a40 760d 3940 3b3f 3f40 2f3e 3740
00000140: 63f0 2c40 b83e 3f40 3080 3f40 25c2 3640
00000150: ee56 4040 34a3 3f40 14c4 3940 647c 3c40
00000160: bb5c 3e40 f0e4 2d40 b3a6 2d40 8bcf 3040
00000170: edc0 3a40 1e4a 3f40 235e 3340 e524 3d40
00000180: 821a 3940 ba9f 3740 af84 3e40 b8e0 3140
00000190: 0d69 4040 0468 4140 e951 3b40 649a 3040
000001a0: 3899 3740 2a9a 3f40 fac3 3b40 2933 3340
000001b0: 29b6 3d40 841d 3940 3483 3440 edff 3340
000001c0: 013f 3440 cfab 3a40 96ce 3940 77f7 3d40
000001d0: 3e74 3640 6d8f 4240 bcd8 3c40 dcc0 3e40
000001e0: 0ff3 3c40 653d 4440 a85b 3a40 2e4c 3340
000001f0: 8198 2e40 e416 4340 8b4c 3d40 00d4 3b40
00000200: b427 39bd c52a 72bc 4f53 9f3d 9c96 acb8
00000210: 1ef9 2abd 83bf 5ebb 5d0f 673c 6c6c 9c3c
00000220: 5037 a23c e434 903c 4b40 143d 055e c53d
00000230: a4c9 1abd e794 d53b fdd1 583d 1ee9 46bd
00000240: 744c 7ebc 88af 2bbc 07ef 87bc eb91 8a3d
00000250: 007e 5ebc 7a66 8cbd 6a41 fabb de35 ccbc
00000260: de34 a23c cf80 3a3b 8d02 863c b98f a4bc
00000270: 86b3 aa3c 0f72 66bd 672c cd3c bbb3 af3c
00000280: 7bb0 993c ade2 a3bb db76 ef3b 76f2 94bc
00000290: 1cf9 543d 5aad 11bb 115b 1ebd 70ba 02bc
000002a0: a819 e13b f3a9 943c d707 cf3b 9bf1 403d
000002b0: ee41 f83c 2616 323d 20ec 553d c224 853d
000002c0: b646 34bc ae70 103c e2cd a8bc 0f70 513c
000002d0: f93f f4bc c60a 08bd 3b4a 813d d4bc 1e3c
000002e0: 04c6 223d a684 38bd a12f 913d fe72 ee3b
000002f0: 73c9 003d e7c5 5e3c 776d 88bd 819f 093d
00000300: 041c 12be e761 4dbd ce65 89bd 5d7a 2bbe
00000310: 1403 1fbd 0649 c7bd 919a d5bd 0469 8bbc
00000320: 9477 3dbd 96aa 95bd 716e 97bd c1b7 ac3a
00000330: 3fcb 7fbd ed27 73bd 448b a1bd 02d3 e939
00000340: fbe9 a1bd 6753 12bc 0e5f 00be 7465 80bd
00000350: eab4 9cbc 76aa 9dbb ebe6 8abd 06b9 a8bd
00000360: d13d 17be a99f 9b3d 76e3 a2bd 401b bebc
00000370: afcc 54bd f8fb 80bd 9a60 03be cdbb ccbd
00000380: 0f64 2fbd 5cc3 07be c834 04be 8dba 11be
00000390: 6aa5 24bd d0fb afbd 5402 b0bd 06cd 8bbc
000003a0: 4284 95bd 3cdb 9dbd a73a 43bd d256 863c
000003b0: 5862 2fbd 18d6 87bd 2233 aebd 12f9 25be
000003c0: 1d70 49bd f03b b1bd 231e a5bd b9cd 86bd
000003d0: dd6c 18be 9fc1 0d3d 1776 d8bc abc1 c4bd
000003e0: 9b7b d6bc 06da 973c 51f5 17bd 57c6 5cbd
000003f0: 699e c33c c2be 96bc 6e06 04be 0754 09be

cell.b_ih f4 [256]
-0.102841884 -0.05752869 -0.082482554 -0.12486805 -0.040690564 -0.07481085 -0.09808363 -0.07921153
-0.083301686 -0.13612854 -0.11388499 0.010780333 -0.06291546 -0.093055256 -0.028767293 -0.008006575
-0.12907046 -0.02645172 -0.09103306 -0.062381674 -0.063272305 -0.000887106 -0.10183293 -0.031158127
-0.07508786 -0.18162231 -0.11767389 0.02613032 -0.08288516 -0.020202799 -0.004165005 -0.12868594
-0.02995259 -0.17650768 -0.0338852 -0.020754078 -0.060673505 -0.09222077 -0.075888656 -0.030388875
-0.03652723 -0.05289282 -0.0015100385 0.005893076 -0.09634091 0.010999576 -0.052594256 0.00085558475
-0.19013485 -0.08195121 -0.07377425 -0.0495903 -0.12944166 0.0047327615 -0.031198232 -0.072173804
-0.08626861 -0.05702235 -0.043870337 -0.11003724 0.00327518 -0.027366705 -0.028256543 -0.03470498
-0.15351704 -0.23257175 -0.015082692 -0.2714634 -0.069337964 -0.10766973 -0.039059315 -0.2733556
-0.20687462 -0.27209324 -0.0796207 0.033249427 -0.08159037 -0.10855139 -0.0117625585 -0.13683142
-0.2978259 -0.01180132 -0.007804194 -0.14441103 0.0053072926 -0.0056670792 -0.09740224 -0.054904886
-0.025593255 -0.28290257 -0.2867032 -0.23733582 -0.08197764 -0.011098702 -0.19737644 -0.044625897
-0.10775228 -0.13086994 -0.023147993 -0.2206564 0.0064086295 0.021974117 -0.07312502 -0.24057633
-0.13127467 -0.006221606 -0.06616255 -0.2000072 -0.035753787 -0.10757471 -0.1794872 -0.18751056
-0.1836615 -0.08326098 -0.09677123 -0.03177908 -0.14915554 0.039999176 -0.04927592 -0.019475617
-0.047664355 0.0662449 -0.08815632 -0.19847262 -0.27194232 0.048270453 -0.042203624 -0.06518907
-0.04520388 -0.014780705 0.07779562 -8.229652e-05 -0.041741483 -0.0033988662 0.014102784 0.019094668
0.019801766 0.017603345 0.036194127 0.096370734 -0.037789956 0.0065179947 0.052934635 -0.04856216
-0.0155211575 -0.010478862 -0.01659347 0.06766113 -0.013579845 -0.06855483 -0.0076371925 -0.02492803
0.0198006 0.0028458124 0.016358638 -0.020088064 0.020837557 -0.05626112 0.025045587 0.021448007
0.01876091 -0.005001387 0.00730787 -0.01818202 0.05199538 -0.002222857 -0.038661066 -0.0079790205
0.0068695135 0.018147444 0.0063180733 0.047105413 0.030304875 0.043478154 0.05222714 0.065011516
-0.011003187 0.008815927 -0.020605985 0.0127830645 -0.02981566 -0.0332134 0.063129865 0.009688575
0.039739624 -0.04504838 0.070891626 0.0072768917 0.031442117 0.013596988 -0.06661504 0.03359938
-0.142685 -0.050142195 -0.06708871 -0.16745897 -0.038821295 -0.09730725 -0.10429872 -0.017017849
-0.046256617 -0.07307927 -0.07394112 0.0013177322 -0.06244969 -0.059364248 -0.07887891 0.00044598436
-0.07905956 -0.0089310175 -0.1253626 -0.06269351 -0.019129235 -0.0048115803 -0.06782325 -0.082384154
-0.14769675 0.07598812 -0.07953541 -0.023206353 -0.051953014 -0.06298059 -0.1282982 -0.09996758
-0.042820033 -0.13258117 -0.1291076 -0.1423132 -0.040196814 -0.08592951 -0.08594194 -0.017065536
-0.07300617 -0.07707831 -0.047663357 0.016398821 -0.042818397 -0.06632632 -0.085058466 -0.16208294
-0.049179185 -0.0865401 -0.08062389 -0.06582207 -0.14885278 0.03460848 -0.026423497 -0.09607252
-0.026181987 0.018536579 -0.037099186 -0.05390009 0.023879247 -0.018401507 -0.12893078 -0.1341096
00000000: c49e d2bd 34a3 6bbd 9dec a8bd d2ba ffbd
00000010: 26ab 26bd 6e36 99bd 12e0 c8bd a839 a2bd
00000020: 139a aabd 4865 0bbe 893c e9bd fe9f 303c
00000030: d2d9 80bd c193 bebd 63a9 ebbc 022e 03bc
00000040: 0c2b 04be 47b1 d8bc 8a6f babd ed83 7fbd
00000050: e994 81bd ad8c 68ba c98d d0bd 543f ffbc
00000060: aac7 99bd 33fb 39be 02ff f0bd 410f d63c
00000070: b2bf a9bd 5780 a5bc 987a 88bb 3fc6 03be
00000080: 225f f5bc 6ebe 34be 35cb 0abd 7504 aabc
00000090: c884 78bd 3ede bcbd 836b 9bbd 17f2 f8bc
000000a0: 949d 15bd 24a6 58bd 7cec c5ba b41a c13b
000000b0: 624e c5bd 9137 343c 136d 57bd 5249 603a
000000c0: b6b2 42be 09d6 a7bd f416 97bd 331f 4bbd
000000d0: 5b8c 04be 4815 9b3b 6f93 ffbc dccf 93bd
000000e0: 99ad b0bd 4590 69bd 62b1 33bd 345b e1bd
000000f0: 67a4 563b 2430 e0bc 447a e7bc cf26 0ebd
00000100: 9233 1dbe 4a27 6ebe 651d 77bc 40fd 8abe
00000110: 1001 8ebd f381 dcbd a9fc 1fbd 44f5 8bbe
00000120: f1d6 53be ce4f 8bbe 2d10 a3bd 8d30 083d
00000130: da18 a7bd 3150 debd bfb7 40bc 891d 0cbe
00000140: a37c 98be 535a 41bc 53ba ffbb 7ce0 13be
00000150: cce8 ad3b e8b2 b9bb d37a c7bd f2e3 60bd
00000160: f2a8 d1bc 9bd8 90be c3ca 92be 2908 73be
00000170: e5e3 a7bd 55d7 35bc 0d1d 4abe a5c9 36bd
00000180: 3aad dcbd c502 06be dca0 bdbc c0f3 61be
00000190: 7bff d13b 1003 b43c 92c2 95bd a459 76be
000001a0: de6c 06be 9dde cbbb 3b80 87bd b0ce 4cbe
000001b0: 9072 12bd 2150 dcbd 7ecb 37be c502 40be
000001c0: c311 3cbe bc84 aabd ff2f c6bd c82a 02bd
000001d0: 3bbc 18be 2dd6 233d 8cd5 49bd 548b 9fbc
000001e0: b33b 43bd 68ab 873d 4d8b b4bd 683c 4bbe
000001f0: 063c 8bbe 3db7 453d b5dd 2cbd d981 85bd
00000200: b427 39bd c52a 72bc 4f53 9f3d 9c96 acb8
00000210: 1ef9 2abd 83bf 5ebb 5d0f 673c 6c6c 9c3c
00000220: 5037 a23c e434 903c 4b40 143d 055e c53d
00000230: a4c9 1abd e794 d53b fdd1 583d 1ee9 46bd
00000240: 744c 7ebc 88af 2bbc 07ef 87bc eb91 8a3d
00000250: 007e 5ebc 7a66 8cbd 6a41 fabb de35 ccbc
00000260: de34 a23c cf80 3a3b 8d02 863c b98f a4bc
00000270: 86b3 aa3c 0f72 66bd 672c cd3c bbb3 af3c
00000280: 7bb0 993c ade2 a3bb db76 ef3b 76f2 94bc
00000290: 1cf9 543d 5aad 11bb 115b 1ebd 70ba 02bc
000002a0: a819 e13b f3a9 943c d707 cf3b 9bf1 403d
000002b0: ee41 f83c 2616 323d 20ec 553d c224 853d
000002c0: b646 34bc ae70 103c e2cd a8bc 0f70 513c
000002d0: f93f f4bc c60a 08bd 3b4a 813d d4bc 1e3c
000002e0: 04c6 223d a684 38bd a12f 913d fe72 ee3b
000002f0: 73c9 003d e7c5 5e3c 776d 88bd 819f 093d
00000300: 041c 12be e761 4dbd ce65 89bd 5d7a 2bbe
00000310: 1403 1fbd 0649 c7bd 919a d5bd 0469 8bbc
00000320: 9477 3dbd 96aa 95bd 716e 97bd c1b7 ac3a
00000330: 3fcb 7fbd ed27 73bd 448b a1bd 02d3 e939
00000340: fbe9 a1bd 6753 12bc 0e5f 00be 7465 80bd
00000350: eab4 9cbc 76aa 9dbb ebe6 8abd 06b9 a8bd
00000360: d13d 17be a99f 9b3d 76e3 a2bd 401b bebc
00000370: afcc 54bd f8fb 80bd 9a60 03be cdbb ccbd
00000380: 0f64 2fbd 5cc3 07be c834 04be 8dba 11be
00000390: 6aa5 24bd d0fb afbd 5402 b0bd 06cd 8bbc
000003a0: 4284 95bd 3cdb 9dbd a73a 43bd d256 863c
000003b0: 5862 2fbd 18d6 87bd 2233 aebd 12f9 25be
000003c0: 1d70 49bd f03b b1bd 231e a5bd b9cd 86bd
000003d0: dd6c 18be 9fc1 0d3d 1776 d8bc abc1 c4bd
000003e0: 9b7b d6bc 06da 973c 51f5 17bd 57c6 5cbd
000003f0: 699e c33c c2be 96bc 6e06 04be 0754 09be

head.net.0.weight f4 [1, 64]
-0.089668445 0.07044808 0.08207716 -0.21819241 0.026998447 0.018092295 -0.22684148 0.32091826
0.13564236 -0.33460492 -0.047044907 0.018552668 -0.049620576 -0.045104034 0.011808637 -0.109312475
0.37148342 -0.013263846 -0.055681605 -0.0016240265 -0.008035535 -0.0244178 -0.015953813 0.04387126
0.0770202 -0.3010415 0.20831375 0.22876948 -0.0050638197 -0.027123787 0.1706958 -0.025055842
-0.11771101 -0.19451013 -0.15181006 -0.3082757 -0.029135691 0.035736818 -0.0398362 0.11895336
-0.0729207 0.004398752 0.09002723 -0.20910408 -0.04684712 0.0268462 0.11179058 0.20774806
0.14281493 0.13738501 0.011241542 -0.0013996032 -0.17116669 -0.00113431 0.008296464 0.0027883342
0.015804142 -0.03843806 0.04134886 0.20077056 0.22599567 0.04842164 -0.14468443 -0.07081182
00000000: 17a4 b7bd 1547 903d 1218 a83d d56d 5fbe
00000010: d92b dd3c 4b36 943c 2249 68be 664f a43e
00000020: d5e5 0a3e 5651 abbe 29b2 40bd c4fb 973c
00000030: f23e 4bbd 02bf 38bd 0379 413c 38df dfbd
00000040: 1333 be3e 9a50 59bc 6512 64bd 49dd d4ba
00000050: 7aa7 03bc d707 c8bc 92b1 82bc 5ab2 333d
00000060: c4bc 9d3d 1d22 9abe 3350 553e 8c42 6a3e
00000070: 66ee a5bb b432 debc e1ca 2e3e e941 cdbc
00000080: 7812 f1bd aa2d 47be 1974 1bbe 50d6 9dbe
00000090: f9ad eebc c560 123d 492b 23bd d29d f33d
000000a0: 7357 95bd 6823 903b 3260 b83d 611f 56be
000000b0: c4e2 3fbd 90ec db3c 76f2 e43d e8bb 543e
000000c0: 143e 123e a8ae 0c3e 722e 383c e472 b7ba
000000d0: 5246 2fbe 21ad 94ba e4ed 073c 7cbc 363b
000000e0: b077 813c 3a71 1dbd 6c5d 293d cc96 4d3e
000000f0: 696b 673e c555 463d 2828 14be ca05 91bd
