runs/lstm_camels_us_2001_000652/model_epoch003.pt (torch, 80974 bytes, 5 tensors)

cell.w_hh f4 [256, 64]
0.006495545 0.15214312 0.06768929 -0.16326828 -0.18805549 -0.03773931 -0.18333678 0.2883338
0.08884985 -0.21249908 0.09710332 0.024631713 0.16617931 0.0513273 -0.11220867 0.04548127
0.17462993 0.013688574 0.022644665 -0.20334372 -0.078837596 0.057327624 0.078061625 0.10093165
-0.10131486 0.012406668 0.12589933 0.035137128 -0.062743805 0.113514185 0.044646136 0.24681434
-0.016303508 -0.32730612 0.05733155 -0.0013754726 0.11838236 -0.07458553 -0.105787694 0.059061382
-0.11996761 -0.11048519 0.031241227 -0.23609602 -0.20348698 -0.051958892 0.024701435 0.044257365
0.10950293 -0.11622065 0.16487396 0.19906583 -0.055639222 0.19747622 0.120939195 -0.035083793
-0.14073533 -0.050528202 -0.05161708 0.29693723 0.026720122 0.12573975 -0.09854208 -0.059556875
-0.22445148 -0.15868321 0.094114445 -0.27154982 0.12143195 0.016497687 0.0053872797 -0.021035148
-0.02878111 0.019982193 -0.16429424 0.10487926 -0.2640692 -0.23704264 -0.019220708 0.08217329
0.1569852 -0.03577419 -0.06031852 -0.012644446 -0.09184135 0.07762482 0.023345016 0.1763963
-0.061703376 -0.01679301 -0.046906598 0.12342901 0.14658655 -0.24014403 -0.08929557 -0.24580222
-0.13165224 -0.30078974 -0.15970403 0.054720968 0.005069769 -0.16692525 -0.120198175 0.01940695
-0.15013078 -0.05005999 0.34478232 0.078783214 -0.09844632 -0.112033375 -0.04585869 0.0908278
0.20586692 0.20733874 -0.14220168 0.02729988 -0.2802154 -0.0795423 -0.035533164 0.08797913
-0.21544172 -0.21141927 0.1867347 0.26043016 0.38833162 -0.15872619 -0.21609269 0.19635053
-0.21653023 0.13828005 -0.053788193 0.026969884 -0.067799315 0.015233341 -0.22284794 -0.120981686
-0.32452363 -0.059599888 -0.24099727 -0.05716106 0.10527262 0.10256195 -0.0044816183 -0.048878532
-0.04016495 -0.043307927 0.12461094 0.19317125 -0.2901124 0.046239186 -0.15762287 0.26575476
0.2652269 -0.12692882 0.03199814 -0.13703689 -0.32074845 0.110624135 0.056270845 0.12793007
-0.14210795 0.057826675 -0.07235055 0.043971058 -0.20397612 0.23284684 0.16903804 -0.22095342
-0.14111072 -0.22057655 0.28656292 -0.061786957 -0.117870584 -0.08469038 -0.16998422 -0.028652819
0.0019852053 0.06873092 0.012292882 -0.098435745 -0.1265017 0.058682323 -0.049218927 -0.035694085
-0.29065546 -0.02066374 -0.21217263 0.15861261 -0.11261382 0.15679964 0.013210721 0.15050085
0.12648222 0.116466835 -0.07431321 -0.27976003 0.097075075 0.16611375 0.002206601 0.04590606
-0.0015096008 0.05275114 0.08050794 -0.15908769 0.09637795 -0.037652344 -0.23300944 -0.08670594
0.18613215 -0.31590042 0.04330468 0.17374004 -0.07973498 0.06435441 -0.0207144 0.08121905
0.19658594 -0.1692736 -0.013228696 0.14801963 0.116215035 0.20231158 -0.11027388 -0.056596182
-0.19954407 -0.31708333 -0.27687672 0.032830305 0.01447246 0.07833638 0.28793558 0.33833736
0.1249078 0.1374555 0.24176349 0.0028450352 -0.021385798 0.13769066 0.18444815 0.13228273
0.25297663 0.31260407 -0.023211561 -0.24215497 -0.24998096 0.035670877 -0.07405072 0.0961961
0.1468492 -0.042119056 0.13334809 0.221838 0.11113394 0.1413337 -0.06961248 -0.04596163
00000000: 95d8 d43b 68cb 1b3e afa0 8a3d cd2f 27be
00000010: 9e91 40be 8994 1abd a3bc 3bbe 7da0 933e
00000020: e9f6 b53d 5c99 59be 1bde c63d 72c8 c93c
00000030: e92a 2a3e 933c 523d a9cd e5bd 914a 3a3d
00000040: 30d2 323e 0a46 603c 4e81 b93c 5639 50be
00000050: 9b75 a1bd 5fd0 6a3d c6de 9f3d 41b5 ce3d
00000060: 2a7e cfbd 5645 4b3c c1eb 003e f3eb 0f3d
00000070: d37f 80bd 207a e83d dede 363d e6bc 7c3e
00000080: ef8e 85bc ab94 a7be 7dd4 6a3d 3449 b4ba
00000090: 7372 f23d 4cc0 98bd 38a7 d8bd 59ea 713d
000000a0: 94b1 f5bd 0f46 e2bd 9aed ff3c 28c3 71be
000000b0: e45e 50be d9d2 54bd aa5a ca3c 3647 353d
000000c0: 1243 e03d 1805 eebd b8d4 283e ead7 4b3e
000000d0: f4e5 63bd 3537 4a3e f8ae f73d 06b4 0fbd
000000e0: ec1c 10be a9f6 4ebd 6e6c 53bd 2808 983e
000000f0: 28e4 da3c ecc1 003e 6ed0 c9bd e9f1 73bd
00000100: 9cd6 65be da7d 22be 13bf c03d 9408 8bbe
00000110: 50b1 f83d 2826 873c c787 b03b e751 acbc
00000120: 5dc6 ebbc b2b1 a33c c03c 28be f0ca d63d
00000130: 1434 87be 4ebb 72be bf74 9dbc 784a a83d
00000140: bac0 203e f587 12bd 8d10 77bd a72a 4fbc
00000150: 5117 bcbd c3f9 9e3d 0c3e bf3c 3ba1 343e
00000160: aebc 7cbd 7f91 89bc 2221 40bd 59c8 fc3d
00000170: c91a 163e 51e8 75be 99e0 b6bd 94b3 7bbe
00000180: d8cf 06be 1d01 9abe 7489 23be 1823 603d
00000190: 4e20 a63b 74ee 2abe 762a f6bd 53fb 9e3c
000001a0: e2bb 19be b40b 4dbd 4f87 b03e 1859 a13d
000001b0: 399e c9bd c171 e5bd 52d6 3bbd ed03 ba3d
000001c0: c7ce 523e 9b50 543e 519d 11be ffa3 df3c
000001d0: 6578 8fbe 13e7 a2bd 398b 11bd 672e b43d
000001e0: c19c 5cbe 4b7e 58be 6237 3f3e 1a57 853e
000001f0: 67d3 c63e 1e89 22be 6747 5dbe 1d10 493e
00000200: 1aba 5dbe 4999 0d3e 0251 5cbd f2ef dc3c
00000210: 5eda 8abd 4395 793c 4032 64be 3fc5 f7bd
00000220: f627 a6be 031f 74bd fdc7 76be b721 6abd
00000230: 2c99 d73d 000c d23d 8ada 92bb db34 48bd
00000240: 0184 24bd a763 31bd 0534 ff3d afce 453e
00000250: 9d89 94be 4d65 3d3d e467 21be 0211 883e
00000260: d2cb 873e a1f9 01be 7b10 033d 6653 0cbe
00000270: 2439 a4be e88e e23d 427c 663d 1a00 033e
00000280: bf84 11be aadb 6c3d 862c 94bd ff1a 343d
00000290: 1edf 50be 676f 6e3e 4f18 2d3e 9d41 62be
000002a0: 547f 10be d2de 61be 60b8 923e 5214 7dbd
000002b0: 2266 f1bd 2672 adbd 5810 2ebe 51b9 eabc
000002c0: 381a 023b ccc2 8c3d 1668 493c ae98 c9bd
000002d0: a989 01be e05c 703d c999 49bd f633 12bd
000002e0: cbd0 94be 0147 a9bc c843 59be 586b 223e
000002f0: 13a2 e6bd 1690 203e c871 583c e51c 1a3e
00000300: 8e84 013e 2a86 ee3d 8631 98bd b53c 8fbe
00000310: 4ccf c63d b919 2a3e 9f9c 103b fe07 3c3d
00000320: ccdd c5ba 9411 583d 59e1 a43d e2e7 22be
00000330: cd61 c53d 5839 1abd 079a 6ebe e292 b1bd
00000340: 6d99 3e3e b3bd a1be 4060 313d e9e8 313e
00000350: 184c a3bd 3fcc 833d 3fb1 a9bc 2c56 a63d
00000360: d34d 493e 0f56 2dbe 2cbd 58bc 7592 173e
00000370: 2602 ee3d c42a 4f3e 46d7 e1bd 66d1 67bd
00000380: 4855 4cbe bf58 a2be c9c2 8dbe 1279 063d
00000390: e61d 6d3c d36e a03d 4b6c 933e 8e3a ad3e
000003a0: a9cf ff3d 22c1 0c3e d990 773e c573 3a3b
000003b0: 4531 afbc c8fe 0c3e fadf 3c3e 2075 073e
000003c0: 2786 813e a40d a03e 2c26 bebc 79f7 77be
000003d0: 02fb 7fbe a01b 123d e7a7 97bd 7602 c53d
000003e0: a35f 163e 0885 2cbd 678c 083e 8029 633e
000003f0: 319a e33d c8b9 103e fd90 8ebd 4342 3cbd

cell.w_ih f4 [256, 10]
-0.08775541 -0.05206606 -0.121538356 -0.15210983 -0.0641799 -0.07365443 -0.15552706 -0.07144976
-0.009333365 -0.087495126 -0.0618215 -0.16390792 -0.08403 0.25175264 0.11926704 0.007103516
0.12961148 0.24664256 0.1870609 0.22176977 0.08739181 0.026482364 -0.28854924 0.026796201
-0.2513102 -0.04454305 -0.05549906 -0.1103549 -0.14142247 -0.16811578 0.31226745 0.23422118
0.19717626 0.16024573 0.19915438 0.07241399 -0.04573172 0.13919209 -0.010678277 -0.10714993
0.22171597 -0.17045324 -0.007247772 0.17495444 0.009318138 0.22306141 -0.17021546 -0.069110274
-0.1727807 0.1910506 -0.075205065 0.22480224 0.10490381 0.25389653 0.11452112 0.119205825
0.11931832 0.13083816 0.08398717 -0.115377784 0.21784906 -0.2546788 -0.029354177 -0.13295674
-0.035612535 -0.13411836 0.08142326 0.08899542 -0.06344702 0.18307307 0.24978867 -0.02148194
0.49245617 0.45787752 0.17400438 0.005472053 0.30041292 0.025967652 -0.15922652 0.18000335
0.19043623 -0.24818924 -0.02769789 -0.015841344 -0.036548838 -0.008839107 -0.20693506 0.2664811
0.011238256 0.0073221694 0.23742944 0.23537007 0.56330866 0.4545109 0.24124132 0.01443825
0.0007585962 -0.03109954 0.19493075 0.23558792 0.053939424 -0.06034362 0.18421958 0.24209861
0.10729626 -0.049441848 -0.18254802 -0.00057577813 0.049614936 -0.03306177 -0.19201638 -0.0609483
0.2144802 0.2730998 0.27852875 0.14325973 -0.051186755 0.122392476 0.16389559 0.13678205
-0.0233944 0.27402517 -0.051027976 0.18146165 -0.018672206 -0.045785036 -0.13743633 -0.111923695
0.10652426 0.2585391 0.21473438 0.14018185 0.12924701 -0.045974024 0.08608804 -0.15626785
-0.085037544 0.036515843 -0.07022701 0.14432152 0.0016923517 -0.23382357 -0.24468672 0.06767244
-0.15009946 0.07213482 0.1678062 -0.07469089 -0.0785229 0.10208884 0.4242556 -0.101675384
0.055194087 0.31300455 0.2424018 0.10063295 0.08290612 0.16399087 0.18865708 -0.012982212
0.29438186 0.23749152 0.44353753 0.093003586 -0.0440687 0.19129473 -0.03437076 -0.06005366
-0.08137789 0.19946802 -0.019325027 -0.14013559 0.19210173 -0.07589223 0.19866587 -0.04781796
-0.11131759 0.03994725 0.25250295 -0.05281603 -0.19252025 0.077084504 -0.09544933 0.17856543
0.24034205 -0.16102435 -0.08559221 0.004763552 -0.023209885 -0.096948944 0.08271142 -0.08407605
-0.14431554 -0.121147856 -0.044388674 0.24779819 0.013445055 0.12403913 -0.12996615 -0.23301773
-0.11583692 -0.11345261 -0.16291119 -0.30613735 -0.10556338 0.07097333 -0.076406956 0.17673053
0.13173793 -0.09607051 0.14418839 0.055320274 0.24413826 -0.018321136 0.16709962 -0.14759244
-0.15089822 0.0061059897 -0.010592557 0.21062675 -0.016024822 -0.16993733 0.021502782 0.29364148
0.2882326 0.1067326 0.14125668 0.21140851 0.014052251 0.03750819 0.059834313 0.18724467
-0.20857011 -0.17631407 0.016853247 0.06581309 -0.011810926 -0.06893004 0.07611832 0.035785787
-0.0210866 -0.13129123 -0.07433346 -0.003618611 0.18560359 -0.1681931 -0.20409603 -0.16793646
0.091617696 0.08826092 0.359599 0.12594296 0.4568994 0.407975 0.17385408 -0.15879242
00000000: 1cb9 b3bd 3943 55bd 1ae9 f8bd aec2 1bbe
00000010: c070 83bd 22d8 96bd 7c42 1fbe 4054 92bd
00000020: f8ea 18bc a530 b3bd 8b38 7dbd 7ad7 27be
00000030: ec17 acbd b9e5 803e 4742 f43d 9cc4 e83b
00000040: dfb8 043e de8f 7c3e e48c 3f3e 9d17 633e
00000050: 7afa b23d 8bf1 d83c babc 93be b583 db3c
00000060: bbab 80be c672 36bd fb52 63bd c001 e2bd
00000070: 0dd1 10be 8b26 2cbe 85e1 9f3e add7 6f3e
00000080: 93e8 493e 7517 243e 20ef 4b3e c94d 943d
00000090: 2f51 3bbd 5f88 0e3e f1f3 2ebc 6c71 dbbd
000000a0: 8309 633e 4b8b 2ebe b87e edbb 4227 333e
000000b0: 1aab 183c 366a 643e f64c 2ebe b089 8dbd
000000c0: 6ced 30be c5a2 433e 1d05 9abd 8f32 663e
000000d0: cfd7 d63d bafe 813e 0d8a ea3d 2f22 f43d
000000e0: 2a5d f43d 70fa 053e 7701 ac3d 304b ecbd
000000f0: d313 5f3e 4265 82be 2c78 f0bc d025 08be
00000100: 73de 11bd 5356 09be 3dc1 a63d 3b43 b63d
00000110: 83f0 81bd 8277 3b3e 9ac8 7f3e e5fa afbc
00000120: 3723 fc3e ec6e ea3e 342e 323e e84e b33b
00000130: b9cf 993e 1dba d43c 470c 23be cc52 383e
00000140: b701 433e 5225 7ebe afe6 e2bc b5c5 81bc
00000150: 3cb4 15bd e7d1 10bc c9e6 53be 3670 883e
00000160: a920 383c cfee ef3b b420 733e da04 713e
00000170: ff34 103f a7b5 e83e f707 773e 698e 6c3c
00000180: 87dc 463a 76c4 febc ed9b 473e f63d 713e
00000190: 96ef 5c3d df2a 77bd 0fa4 3c3e b3e8 773e
000001a0: 24be db3d 8983 4abd deed 3abe d1ef 16ba
000001b0: 0839 4b3d c76b 07bd f19f 44be eda4 79bd
000001c0: b3a0 5b3e bdd3 8b3e 529b 8e3e aeb2 123e
000001d0: 34a9 51bd e8a8 fa3d 3fd4 273e 9810 0c3e
000001e0: 9da5 bfbc 074d 8c3e b602 51bd 15d1 393e
000001f0: 74f6 98bc 1789 3bbd 1cbc 0cbe 4038 e5bd
00000200: 6429 da3d 3d5f 843e 54e3 5b3e d58b 0f3e
00000210: 5459 043e 424f 3cbd ed4e b03d ae04 20be
00000220: 2a28 aebd a391 153d 2ed3 8fbd 05c9 133e
00000230: e6d1 dd3a 726f 6fbe 288f 7abe d997 8a3d
00000240: acb3 19be 6cbb 933d 63d5 2b3e 8af7 98bd
00000250: 9dd0 a0bd f413 d13d 0838 d93e 2f3b d0bd
00000260: 3213 623d 2242 a03e 2d38 783e a618 ce3d
00000270: afca a93d 39ed 273e 522f 413e 58b3 54bc
00000280: 38b9 963e fa30 733e 5a17 e33e aa78 be3d
00000290: 6281 34bd c4e2 433e 5bc8 0cbd d4fa 75bd
000002a0: 74a9 a6bd 5841 4c3e 854f 9ebc b47f 0fbe
000002b0: 51b6 443e 636d 9bbd 116f 4b3e c4dc 43bd
000002c0: 7afa e3bd ba9f 233d 1148 813e 9f55 58bd
000002d0: 0724 45be 7bde 9d3d f07a c3bd dbd9 363e
000002e0: 3a1c 763e 91e3 24be f84a afbd 9217 9c3b
000002f0: a822 bebc 2b8d c6bd 9b64 a93d 1030 acbd
00000300: 74c7 13be 5e1c f8bd e6d0 35bd cfbe 7d3e
00000310: a648 5c3c 3a08 fe3d d915 05be 339c 6ebe
00000320: e83b edbd d859 e8bd 31d2 26be 09be 9cbe
00000330: 9d31 d8bd 775a 913d 407b 9cbd d9f8 343e
00000340: 4fe6 063e 9ec0 c4bd 1fa6 133e 8397 623d
00000350: 61ff 793e 3516 96bc 2a1c 2b3e 7922 17be
00000360: 1085 1abe c114 c83b 678c 2dbc 8aae 573e
00000370: 7d46 83bc 0d04 2ebe 9a26 b03c 2d58 963e
00000380: 3993 933e 9f96 da3d 97a5 103e 797b 583e
00000390: 6a3b 663c 30a2 193d d314 753d 11bd 3f3e
000003a0: 6793 55be ad8b 34be d20f 8a3c 03c9 863d
000003b0: 9d82 41bc 312b 8dbd ece3 9b3d 1e94 123d
000003c0: cebd acbc 3571 06be 243c 98bd 3826 6dbb
000003d0: de0e 3e3e d03a 2cbe 8dfe 50be 89f7 2bbe
000003e0: 0fa2 bb3d 24c2 b43d 5c1d b83e 31f7 003e
000003f0: b8ee e93e 19e2 d03e ce06 323e 7b9a 22be

cell.b_hh f4 [256]
-0.10866819 -0.03256795 -0.047095016 -0.09286112 -0.05157807 -0.0831448 -0.13880694 -0.11346058
-0.064283624 -0.19380064 -0.12400922 0.027031211 -0.059125476 -0.09813368 -0.041373834 -0.0106755085
-0.1638914 -0.058547262 -0.10900078 -0.05684487 -0.059233706 0.00020506373 -0.1239674 -0.049179498
-0.10549915 -0.24009086 -0.12833619 -0.029887076 -0.09005682 -0.018091742 0.05037628 -0.13279341
-0.0662868 -0.23088399 -0.038298376 -0.060761143 -0.07307605 -0.11961079 -0.06859529 -0.05705956
-0.047447503 -0.07345825 -0.008417048 -0.008677698 -0.12640616 -0.006334205 -0.061317787 -0.0021239333
-0.22271407 -0.10067051 -0.062364366 -0.054695375 -0.17009427 -0.025083907 -0.021273004 -0.08892395
-0.12091516 -0.083102606 -0.033453286 -0.14055768 -0.054779597 0.036808033 -0.020516235 -0.06011692
2.8021767 2.7165189 3.0077865 2.7425253 2.9452922 2.882839 2.9713688 2.7105079
2.7870548 2.706844 2.907561 3.047425 2.9004242 2.886973 2.9882424 2.8446848
2.6909387 2.966856 2.989118 2.8878763 3.0182202 3.0117168 2.9155529 2.9113326
2.9314506 2.684322 2.6690648 2.755391 2.9138415 3.0329027 2.7346783 2.9579751
2.8751528 2.8298483 2.9962058 2.7812352 2.9649763 3.0376723 2.9506836 2.7054403
2.810139 2.9978127 2.9629462 2.7821057 2.9693627 2.8818028 2.766331 2.7886035
2.8153977 2.8681617 2.8932652 2.9614768 2.8392136 3.0262659 2.9455278 2.9903045
2.92583 3.0491717 2.8835785 2.7823794 2.7043808 3.078542 2.95303 2.889049
-0.050172653 0.00034473423 0.09480704 0.004920614 -0.049620412 0.007067247 0.017698314 0.013812233
0.022212658 0.020366343 0.044733822 0.11596673 -0.040493067 0.025770416 0.0708262 -0.05071276
-0.027660707 -0.007005215 -0.0193135 0.09853852 -0.028725876 -0.07741738 -0.00012862115 -0.03347167
0.027678693 0.0041650184 0.019113885 -0.01077547 0.020394888 -0.060576294 0.039300308 0.018829137
0.0135279335 0.0030579811 0.011749836 -0.036902234 0.06302391 -0.019317959 -0.036577776 -0.013829075
0.009510032 0.025242368 0.009307576 0.04434513 0.04785802 0.032498598 0.048174407 0.070273355
-0.012440848 0.008469127 0.0020206731 0.014393698 -0.028853912 -0.051080514 0.096487924 0.014303415
0.039982066 -0.03664217 0.08581654 0.009919344 0.042370565 -0.000281426 -0.07618446 0.036645316
-0.1785029 -0.023511862 -0.09118037 -0.20697501 -0.03387819 -0.10813087 -0.15144338 -0.068451
-0.048655458 -0.118620396 -0.075506285 0.017109483 -0.063097775 -0.0877987 -0.096086465 -0.027085217
-0.11361173 -0.027806662 -0.18984595 -0.05976367 -0.021334864 -0.007160209 -0.095881544 -0.1326187
-0.17187601 0.054232467 -0.070108056 -0.04295928 -0.08417294 -0.07738068 -0.14703292 -0.08897287
-0.07962759 -0.18218575 -0.17371471 -0.20709981 -0.052940577 -0.10821849 -0.09920928 -0.023700044
-0.09387072 -0.121548705 -0.07124482 0.004559063 -0.040530033 -0.10470249 -0.11153828 -0.21556203
-0.093391284 -0.11904043 -0.067949355 -0.07731053 -0.20841666 0.030184923 -0.0026334978 -0.10053407
-0.04251755 -0.008982029 -0.05902357 -0.074482396 0.015896806 -0.024809431 -0.13778512 -0.17044851
00000000: 6e8d debd f965 05bd b4e6 40bd f92d bebd
00000010: 8743 53bd d247 aabd 6823 0ebe 055e e8bd
00000020: 22a7 83bd ad73 46be 8cf8 fdbd 8f70 dd3c
00000030: 8e2d 72bd 50fa c8bd 9c77 29bd 54e8 2ebc
00000040: 26d3 27be 41cf 6fbd cd3b dfbd 2bd6 68bd
00000050: 0b9f 72bd 6006 5739 9fe2 fdbd 7170 49bd
00000060: f00f d8bd 61da 75be 906a 03be bed5 f4bc
00000070: b66f b8bd 2235 94bc 5c57 4e3d fffa 07be
00000080: 60c1 87bd da6c 6cbe c2de 1cbd ade0 78bd
00000090: e5a8 95bd 80f6 f4bd b07b 8cbd 49b7 69bd
000000a0: 5058 42bd 4771 96bd a8e7 09bc e72c 0ebc
000000b0: 9e70 01be 2a8f cfbb 5c28 7bbd b031 0bbb
000000c0: 280f 64be 572c cebd c771 7fbd 4208 60bd
000000d0: 312d 2ebe c47c cdbc b944 aebc c31d b6bd
000000e0: 5ea2 f7bd b331 aabd 5006 09bd 5aee 0fbe
000000f0: 9260 60bd 05c4 163d aa11 a8bc 293d 76bd
00000100: dd56 3340 72db 2d40 937f 4040 8985 2f40
00000110: ab7f 3c40 6f80 3840 e82a 3e40 f678 2d40
00000120: 1b5f 3240 ef3c 2d40 7b15 3a40 0309 4340
00000130: 8da0 3940 2ac4 3840 5d3f 3f40 510f 3640
00000140: 5738 2c40 f8e0 3d40 b64d 3f40 f7d2 3840
00000150: 852a 4140 f8bf 4040 6b98 3a40 4653 3a40
00000160: e39c 3b40 efcb 2b40 f5d1 2a40 5358 3040
00000170: 617c 3a40 141b 4240 f804 2f40 774f 3d40
00000180: 8102 3840 3c1c 3540 d6c1 3f40 c2ff 3140
00000190: 2cc2 3d40 3969 4240 00d8 3c40 ef25 2d40
000001a0: 51d9 3340 2adc 3f40 e9a0 3d40 050e 3240
000001b0: 0a0a 3e40 756f 3840 910b 3140 7b78 3240
000001c0: 7a2f 3440 f68f 3740 422b 3940 d688 3d40
000001d0: adb5 3540 57ae 4140 8783 3c40 2661 3f40
000001e0: cc40 3b40 a125 4340 8d8c 3840 8112 3240
000001f0: 9314 2d40 d506 4540 72fe 3c40 2ee6 3840
00000200: d781 4dbd 72bd b439 322a c23d 1a3d a13b
00000210: c63e 4bbd 5d94 e73b 0efc 903c b44c 623c
00000220: 52f7 b53c 51d7 a63c d03a 373d f77f ed3d
00000230: 0fdc 25bd 7b1c d33c 540d 913d 2fb8 4fbd
00000240: b598 e2bc 018c e5bb 5837 9ebc 90ce c93d
00000250: 8752 ebbc 018d 9ebd 7ade 06b9 9719 09bd
00000260: 6dbe e23c b57a 883b b994 9c3c 998b 30bc
00000270: 2e13 a73c d91e 78bd 5cf9 203d 903f 9a3c
00000280: 44a4 5d3c 6968 483b 6282 403c cc26 17bd
00000290: ae12 813d b240 9ebc 94d2 15bd 5893 62bc
000002a0: f7cf 1b3c 15c9 ce3c ce7e 183c 3da3 353d
000002b0: c506 443d 401d 053d 8752 453d 7aeb 8f3d
000002c0: b3d4 4bbc 18c2 0a3c 456d 043b 8cd3 6b3c
000002d0: 0a5f ecbc cd39 51bd 769b c53d df58 6a3c
000002e0: 3cc4 233d 1a16 16bd 95c0 af3d bf84 223c
000002f0: c28c 2d3d 5c8c 93b9 9906 9cbd 6619 163d
00000300: 77c9 36be f39b c0bc c6bc babd 42f1 53be
00000310: dbc3 0abd b873 ddbd f913 1bbe 0a30 8cbd
00000320: f24a 47bd 40ef f2bd 0aa3 9abd 3029 8c3c
00000330: 6839 81bd cecf b3bd fbc8 c4bd d1e1 ddbc
00000340: 44ad e8bd ccca e3bc fa66 42be c0ca 74bd
00000350: 74c6 aebc 30a0 eabb 8b5d c4bd 32cd 07be
00000360: 4400 30be dd22 5e3d d094 8fbd 12f6 2fbd
00000370: dd62 acbd c379 9ebd cc8f 16be 6837 b6bd
00000380: ca13 a3bd e78e 3abe 45e2 31be f911 54be
00000390: 38d8 58bd a8a1 ddbd 3c2e cbbd 9826 c2bc
000003a0: 4b3f c0bd 87ee f8bd cee8 91bd 3164 953b
000003b0: d202 26bd 426e d6bd 2f6e e4bd 4bbc 5cbe
000003c0: ee43 bfbd 78cb f3bd 0829 8bbd fc54 9ebd
000003d0: 2d6b 55be 5f46 f73c c396 2cbb cee4 cdbd
000003e0: e226 2ebd 5c29 13bc b3c2 71bd 3a8a 98bd
000003f0: 053a 823c 263d cbbc 8b17 0dbe 0e8a 2ebe

cell.b_ih f4 [256]
-0.10866819 -0.03256795 -0.047095016 -0.09286112 -0.05157807 -0.0831448 -0.13880694 -0.11346058
-0.064283624 -0.19380064 -0.12400922 0.027031211 -0.059125476 -0.09813368 -0.041373834 -0.0106755085
-0.1638914 -0.058547262 -0.10900078 -0.05684487 -0.059233706 0.00020506373 -0.1239674 -0.049179498
-0.10549915 -0.24009086 -0.12833619 -0.029887076 -0.09005682 -0.018091742 0.05037628 -0.13279341
-0.0662868 -0.23088399 -0.038298376 -0.060761143 -0.07307605 -0.11961079 -0.06859529 -0.05705956
-0.047447503 -0.07345825 -0.008417048 -0.008677698 -0.12640616 -0.006334205 -0.061317787 -0.0021239333
-0.22271407 -0.10067051 -0.062364366 -0.054695375 -0.17009427 -0.025083907 -0.021273004 -0.08892395
-0.12091516 -0.083102606 -0.033453286 -0.14055768 -0.054779597 0.036808033 -0.020516235 -0.06011692
-0.19782512 -0.28348032 0.0077889306 -0.25747284 -0.05470689 -0.11715724 -0.028636897 -0.2894895
-0.21294068 -0.29315028 -0.09243562 0.04742275 -0.09958254 -0.113027975 -0.011749204 -0.15531872
-0.30905774 -0.0331469 -0.010886531 -0.11213489 0.018222405 0.01171407 -0.08444053 -0.088666044
-0.06855409 -0.31567737 -0.33093494 -0.24461588 -0.08616907 0.032904472 -0.2653149 -0.042028476
-0.12484592 -0.17014678 -0.0037923844 -0.21875952 -0.035026226 0.037673384 -0.049317885 -0.29455775
-0.18986128 -0.0021927513 -0.03705375 -0.21789761 -0.030634759 -0.11819644 -0.2336659 -0.21140617
-0.18460944 -0.13183819 -0.106743164 -0.038527858 -0.16078831 0.026256777 -0.05447407 -0.009690674
-0.074163236 0.049166393 -0.11641901 -0.21761425 -0.2956218 0.07854219 -0.04697098 -0.11095296
-0.050172653 0.00034473423 0.09480704 0.004920614 -0.049620412 0.007067247 0.017698314 0.013812233
0.022212658 0.020366343 0.044733822 0.11596673 -0.040493067 0.025770416 0.0708262 -0.05071276
-0.027660707 -0.007005215 -0.0193135 0.09853852 -0.028725876 -0.07741738 -0.00012862115 -0.03347167
0.027678693 0.0041650184 0.019113885 -0.01077547 0.020394888 -0.060576294 0.039300308 0.018829137
0.0135279335 0.0030579811 0.011749836 -0.036902234 0.06302391 -0.019317959 -0.036577776 -0.013829075
0.009510032 0.025242368 0.009307576 0.04434513 0.04785802 0.032498598 0.048174407 0.070273355
-0.012440848 0.008469127 0.0020206731 0.014393698 -0.028853912 -0.051080514 0.096487924 0.014303415
0.039982066 -0.03664217 0.08581654 0.009919344 0.042370565 -0.000281426 -0.07618446 0.036645316
-0.1785029 -0.023511862 -0.09118037 -0.20697501 -0.03387819 -0.10813087 -0.15144338 -0.068451
-0.048655458 -0.118620396 -0.075506285 0.017109483 -0.063097775 -0.0877987 -0.096086465 -0.027085217
-0.11361173 -0.027806662 -0.18984595 -0.05976367 -0.021334864 -0.007160209 -0.095881544 -0.1326187
-0.17187601 0.054232467 -0.070108056 -0.04295928 -0.08417294 -0.07738068 -0.14703292 -0.08897287
-0.07962759 -0.18218575 -0.17371471 -0.20709981 -0.052940577 -0.10821849 -0.09920928 -0.023700044
-0.09387072 -0.121548705 -0.07124482 0.004559063 -0.040530033 -0.10470249 -0.11153828 -0.21556203
-0.093391284 -0.11904043 -0.067949355 -0.07731053 -0.20841666 0.030184923 -0.0026334978 -0.10053407
-0.04251755 -0.008982029 -0.05902357 -0.074482396 0.015896806 -0.024809431 -0.13778512 -0.17044851
00000000: 6e8d debd f965 05bd b4e6 40bd f92d bebd
00000010: 8743 53bd d247 aabd 6823 0ebe 055e e8bd
00000020: 22a7 83bd ad73 46be 8cf8 fdbd 8f70 dd3c
00000030: 8e2d 72bd 50fa c8bd 9c77 29bd 54e8 2ebc
00000040: 26d3 27be 41cf 6fbd cd3b dfbd 2bd6 68bd
00000050: 0b9f 72bd 6006 5739 9fe2 fdbd 7170 49bd
00000060: f00f d8bd 61da 75be 906a 03be bed5 f4bc
00000070: b66f b8bd 2235 94bc 5c57 4e3d fffa 07be
00000080: 60c1 87bd da6c 6cbe c2de 1cbd ade0 78bd
00000090: e5a8 95bd 80f6 f4bd b07b 8cbd 49b7 69bd
000000a0: 5058 42bd 4771 96bd a8e7 09bc e72c 0ebc
000000b0: 9e70 01be 2a8f cfbb 5c28 7bbd b031 0bbb
000000c0: 280f 64be 572c cebd c771 7fbd 4208 60bd
000000d0: 312d 2ebe c47c cdbc b944 aebc c31d b6bd
000000e0: 5ea2 f7bd b331 aabd 5006 09bd 5aee 0fbe
000000f0: 9260 60bd 05c4 163d aa11 a8bc 293d 76bd
00000100: ab92 4abe 5524 91be 493a ff3b 7bd3 83be
00000110: 5514 60bd 23f0 efbd ed97 eabc f837 94be
00000120: 1f0d 5abe cb17 96be e34e bdbd 5c3e 423d
00000130: eef1 cbbd 367b e7bd bc7f 40bc df0b 1fbe
00000140: d13c 9ebe 0bc5 07bd 6c5d 32bc faa6 e5bd
00000150: 2747 953c 5fec 3f3c 28ef acbd 8b96 b5bd
00000160: 1666 8cbd 77a0 a1be 4e70 a9be 967c 7abe
00000170: 6979 b0bd d7c6 063d 5bd7 87be 0d26 2cbd
00000180: 38af ffbd f53a 2ebe a789 78bb 7f02 60be
00000190: a977 0fbd 684f 1a3d 8d01 4abd 46d0 96be
000001a0: ff6a 42be 43b4 0fbb acc5 17bd 8d20 5fbe
000001b0: bff5 fabc fa10 f2bd 1d46 6fbe dc7a 58be
000001c0: 420a 3dbe 9700 07be 299c dabd 63cf 1dbd
000001d0: b1a5 24be 7418 d73c 3420 5fbd a2c5 1ebc
000001e0: e5e2 97bd b362 493d 176d eebd 45d6 5ebe
000001f0: be5b 97be bada a03d a464 40bd 4e3b e3bd
00000200: d781 4dbd 72bd b439 322a c23d 1a3d a13b
00000210: c63e 4bbd 5d94 e73b 0efc 903c b44c 623c
00000220: 52f7 b53c 51d7 a63c d03a 373d f77f ed3d
00000230: 0fdc 25bd 7b1c d33c 540d 913d 2fb8 4fbd
00000240: b598 e2bc 018c e5bb 5837 9ebc 90ce c93d
00000250: 8752 ebbc 018d 9ebd 7ade 06b9 9719 09bd
00000260: 6dbe e23c b57a 883b b994 9c3c 998b 30bc
00000270: 2e13 a73c d91e 78bd 5cf9 203d 903f 9a3c
00000280: 44a4 5d3c 6968 483b 6282 403c cc26 17bd
00000290: ae12 813d b240 9ebc 94d2 15bd 5893 62bc
000002a0: f7cf 1b3c 15c9 ce3c ce7e 183c 3da3 353d
000002b0: c506 443d 401d 053d 8752 453d 7aeb 8f3d
000002c0: b3d4 4bbc 18c2 0a3c 456d 043b 8cd3 6b3c
000002d0: 0a5f ecbc cd39 51bd 769b c53d df58 6a3c
000002e0: 3cc4 233d 1a16 16bd 95c0 af3d bf84 223c
000002f0: c28c 2d3d 5c8c 93b9 9906 9cbd 6619 163d
00000300: 77c9 36be f39b c0bc c6bc babd 42f1 53be
00000310: dbc3 0abd b873 ddbd f913 1bbe 0a30 8cbd
00000320: f24a 47bd 40ef f2bd 0aa3 9abd 3029 8c3c
00000330: 6839 81bd cecf b3bd fbc8 c4bd d1e1 ddbc
00000340: 44ad e8bd ccca e3bc fa66 42be c0ca 74bd
00000350: 74c6 aebc 30a0 eabb 8b5d c4bd 32cd 07be
00000360: 4400 30be dd22 5e3d d094 8fbd 12f6 2fbd
00000370: dd62 acbd c379 9ebd cc8f 16be 6837 b6bd
00000380: ca13 a3bd e78e 3abe 45e2 31be f911 54be
00000390: 38d8 58bd a8a1 ddbd 3c2e cbbd 9826 c2bc
000003a0: 4b3f c0bd 87ee f8bd cee8 91bd 3164 953b
000003b0: d202 26bd 426e d6bd 2f6e e4bd 4bbc 5cbe
000003c0: ee43 bfbd 78cb f3bd 0829 8bbd fc54 9ebd
000003d0: 2d6b 55be 5f46 f73c c396 2cbb cee4 cdbd
000003e0: e226 2ebd 5c29 13bc b3c2 71bd 3a8a 98bd
000003f0: 053a 823c 263d cbbc 8b17 0dbe 0e8a 2ebe

head.net.0.weight f4 [1, 64]
-0.15244663 0.1130577 0.048009116 -0.2608206 0.027956335 0.0123789925 -0.2803882 0.4177455
0.1557005 -0.41489214 -0.028674472 0.007194298 -0.0452513 -0.049394682 0.013830506 -0.17241293
0.46231785 -0.011637334 -0.05267149 0.031768065 -0.0014854274 -0.005682147 -0.013087992 0.049540903
0.08610282 -0.36050156 0.29969287 0.2862144 -0.02484962 -0.037800174 0.22594194 -0.031428695
-0.1053693 -0.24355793 -0.14536414 -0.3743697 -0.013136574 0.028728383 -0.038165096 0.090355255
-0.11083894 0.0021909024 0.0730304 -0.28222117 -0.033073552 0.0105807325 0.14038797 0.30274245
0.15717925 0.15507874 0.023126476 0.0037955604 -0.21854703 0.027438693 0.01315658 -0.020812145
-0.002067022 -0.030631432 0.06967054 0.26408064 0.31665418 0.031950966 -0.19147165 -0.06527223
00000000: f81a 1cbe cc8a e73d 35a5 443d 478a 85be
00000010: af04 e53c 42d1 4a3c 0b8f 8fbe bde2 d53e
00000020: f46f 1f3e be6c d4be bae6 eabc 25be eb3b
00000030: 6d59 39bd 1452 4abd 5999 623c 048d 30be
00000040: edb4 ec3e 84aa 3ebc 0fbe 57bd 3b1f 023d
00000050: acb2 c2ba 4e31 babb 046f 56bc 67eb 4a3d
00000060: ad56 b03d a993 b8be 5871 993e b28a 923e
00000070: 6e91 cbbc 5bd4 1abd 535d 673e 60bb 00bd
00000080: dccb d7bd 4067 79be 56da 14be 63ad bfbe
00000090: c93a 57bc c957 eb3c 0153 1cbd 2d0c b93d
000000a0: 87ff e2bd 3e95 0f3b f690 953d 4b7f 90be
000000b0: 2278 07bd cf5a 2d3c ddc1 0f3e 0f01 9b3e
000000c0: 99f3 203e f6cc 1e3e bc73 bd3c f0be 783b
000000d0: cbca 5fbe 1cc7 e03c b28e 573c 3b7e aabc
000000e0: e076 07bb c5ee fabc 6eaf 8e3d 9435 873e
000000f0: 7f20 a23e 04df 023d 2511 44be 72ad 85bd
