runs/lstm_camels_us_2001_000652/model_epoch004.pt (torch, 80974 bytes, 5 tensors)

cell.w_hh f4 [256, 64]
0	0x3b3b0f12	0.0028542918
1	0x3e1731e6	0.14765128
2	0x3db58792	0.088637486
3	0xbe3eb671	-0.18624283
4	0xbe1a5b9f	-0.15074013
5	0xbd4205dc	-0.04736887
6	0xbe61f254	-0.22065097
7	0x3eaaaa92	0.3333326
8	0x3ddfe147	0.1093164
9	0xbe604daf	-0.21904634
10	0x3de2676c	0.110548824
11	0xb7b79080	-2.1882588e-05
12	0x3e3aadd5	0.18230374
13	0x3c9c3ffd	0.01907348
14	0xbdbdb59e	-0.09263156
15	0x3d4e1726	0.050315045
16	0x3e5c64a3	0.21522765
17	0x3cd0e98c	0.025501989
18	0xbc6d71f1	-0.014492498
19	0xbe5bed8d	-0.21477337
20	0xbd7c8ff6	-0.06166073
21	0x3d9c4035	0.07629434
22	0x3d472437	0.04861852
23	0x3df20e72	0.118191615
24	0xbd558bba	-0.052135207
25	0xbd2f4ceb	-0.042797964
26	0x3e062d70	0.1310327
27	0x3d9850a7	0.07437258
28	0xbd5d4076	-0.054016553
29	0x3e0528ab	0.13003795
30	0x3d4823af	0.048862156
31	0x3e64a902	0.22330096
32	0xbcdcaefe	-0.026938912
33	0xbec56201	-0.38551334
34	0x3cf913ad	0.03040489
35	0xbc159ceb	-0.00913165
36	0x3dda62fe	0.106634125
37	0xbd757d35	-0.05993386
38	0xbda4d3d5	-0.08048216
39	0x3de39ad2	0.11113514
40	0xbdac1a32	-0.08403434
41	0xbe020526	-0.12697276
42	0x3d1777a9	0.03697935
43	0xbe8fb9a8	-0.28071332
44	0xbe72f83a	-0.23727503
45	0xbc8d2c91	-0.017233165
46	0x3d3fa72b	0.046790283
47	0x3d60988e	0.054832987
48	0x3e0d58fc	0.13803476
49	0xbd7a6590	-0.061132014
50	0x3e1cb2d9	0.153026
51	0x3e4a2c9b	0.19743578
52	0xbd956211	-0.07294095
53	0x3e5a5d96	0.21324763
54	0x3dbb990f	0.09160053
55	0xbd916bb1	-0.07100619
56	0xbe152e93	-0.14568548
57	0xbda5b969	-0.08092005
58	0xbd7ae687	-0.061255004
59	0x3ead8447	0.33889982
60	0x3d38607c	0.04501389
61	0x3e045252	0.12922028
62	0xbde204b3	-0.110360526
63	0xbd6ffe36	-0.058592044
64	0xbe709181	-0.23493005
65	0xbe331135	-0.17487033
66	0x3e09d13c	0.13458723
67	0xbe830dff	-0.25596616
68	0x3dc4d1f4	0.09610358
69	0x3c541cca	0.012946317
70	0xbca88a7c	-0.020573847
71	0x3b760306	0.0037538423
72	0xbd7173a6	-0.05894818
73	0xbba0b841	-0.0049047773
74	0xbe10182a	-0.14071718
75	0x3dcec7f3	0.10096731
76	0xbe6d9622	-0.23201802
77	0xbe682405	-0.2266999
78	0xbd02f13a	-0.031968333
79	0x3db4fe6d	0.0883759
80	0x3e2d9b45	0.16953762
81	0xbd0d96ce	-0.034567647
82	0xbd5e6646	-0.054296754
83	0xbba47096	-0.005018304
84	0xbdc72d2a	-0.09725411
85	0x3db5434b	0.08850726
86	0x3c2f17f7	0.010686866
87	0x3e536cd4	0.20646983
88	0xbd7bb9fd	-0.06145667
89	0xbd5e0c26	-0.054210804
90	0xbd33d416	-0.043903433
91	0x3e2b0352	0.16700485
92	0x3e33611a	0.1751751
93	0xbe7f7f67	-0.24950944
94	0xbdb5ff29	-0.088865586
95	0xbe60319f	-0.21893929
96	0xbe0bacf5	-0.13640197
97	0xbeb47df2	-0.3525234
98	0xbe41cc36	-0.18925557
99	0x3d1145d6	0.03546699
100	0x3b273cfe	0.0025518532
101	0xbe1930d1	-0.14960028
102	0xbe10c516	-0.14137682
103	0x3cee20fe	0.029068466
104	0xbdcb0879	-0.099137254
105	0xbcc9485b	-0.024570635
106	0x3eccdcfa	0.40012342
107	0x3d01f22b	0.03172509
108	0xbdf4e510	-0.11957753
109	0xbdd04a62	-0.101704374
110	0xbd3d460f	-0.04620939
111	0x3d81c4e3	0.06336381
112	0x3e70ba86	0.23508653
113	0x3e905722	0.28191477
114	0xbe22f964	-0.15915447
115	0x3d052526	0.03250613
116	0xbea54b03	-0.32283792
117	0xbd9ce233	-0.076603316
118	0xbcfa0b5a	-0.030522991
119	0x3d8dabac	0.069175094
120	0xbe6597ff	-0.22421263
121	0xbe7df30e	-0.2479975
122	0x3e4c8b8a	0.19975105
123	0x3e8990df	0.2686834
124	0x3ee128f1	0.43976548
125	0xbe3471da	-0.17621556
126	0xbe4005b9	-0.18752183
127	0x3e5a857c	0.21339983
128	0xbe5680f2	-0.20947626
129	0x3e01dea7	0.12682591
130	0xbd68ca60	-0.056833625
131	0x3cd31f8b	0.025771877
132	0xbda2dd62	-0.07952382
133	0x3b4c2da5	0.0031155136
134	0xbe693089	-0.22772421
135	0xbdfaa765	-0.12238959
136	0xbead81cb	-0.33888087
137	0xbd420893	-0.04737146
138	0xbe74ce15	-0.23906739
139	0xbd89e8db	-0.06733867
140	0x3db88c68	0.09011155
141	0x3ddb6665	0.107128896
142	0x3cd08713	0.025455033
143	0xbd13863d	-0.03601669
144	0xbd0c4ce9	-0.034253035
145	0xbd8a23d9	-0.06745119
146	0x3dfd39b9	0.12364525
147	0x3e5eb846	0.21749982
148	0xbe927ad6	-0.2860934
149	0x3d513b90	0.051082194
150	0xbe24c4fd	-0.1609077
151	0x3e8cecaf	0.27524325
152	0x3e8ccfaa	0.27502185
153	0xbdff7f20	-0.12475419
154	0x3cc50320	0.024049342
155	0xbe18ece1	-0.14934112
156	0xbea6064d	-0.32426682
157	0x3dedf8bf	0.1161971
158	0x3d2471f4	0.040147737
159	0x3ded5e47	0.115902476
160	0xbe162095	-0.14660867
161	0x3d3c3f65	0.045958895
162	0xbd9b052c	-0.07569346
163	0x3d4df59b	0.050283056
164	0xbe5b8450	-0.21437192
165	0x3e5f6281	0.2181492
166	0x3e3edec3	0.18639664
167	0xbe685a4a	-0.22690693
168	0xbe072793	-0.1319869
169	0xbe6576a2	-0.22408536
170	0x3e9211c5	0.28529182
171	0xbd71f328	-0.059069782
172	0xbdefd88d	-0.11711226
173	0xbdc89123	-0.09793308
174	0xbe2a1e75	-0.16613181
175	0xbccb7629	-0.024836617
176	0xbad0aa20	-0.0015919842
177	0x3db2389f	0.08702206
178	0x3cc3f1fa	0.023919094
179	0xbd9092bf	-0.070592396
180	0xbde6cb9c	-0.11269304
181	0x3d99b052	0.075043336
182	0xbd168770	-0.036750257
183	0xbcc29117	-0.023750825
184	0xbe9656c7	-0.2936308
185	0xbd34b189	-0.044114623
186	0xbe5bd4f2	-0.21467951
187	0x3e2aaf64	0.16668469
188	0xbe07cbdc	-0.1326136
189	0x3e49cb93	0.19706564
190	0x3c7ebb09	0.015547522
191	0x3e26a4b3	0.16273765
192	0x3e2b1925	0.1670881
193	0x3df21299	0.118199535
194	0xbd50f5a6	-0.05101552
195	0xbe6a23b5	-0.22865184
196	0x3da7bd41	0.08190394
197	0x3e0fc408	0.14039624
198	0xba95329f	-0.0011382884
199	0x3da631d8	0.08114976
200	0xbc595935	-0.0132658975
201	0x3d9156ca	0.07096632
202	0x3d55d819	0.05220804
203	0xbe275bed	-0.1634366
204	0x3da6bffb	0.08142086
205	0xbcce4f44	-0.025184281
206	0xbe8469a3	-0.25861844
207	0xbdca08ba	-0.09864946
208	0x3e2f44c2	0.17116073
209	0xbea5ee98	-0.32408595
210	0x3d4953a3	0.049152028
211	0x3e3a5937	0.18198095
212	0xbd97a361	-0.07404209
213	0x3d6c4502	0.057683
214	0xbaa4a3c4	-0.0012561013
215	0x3d87a5c1	0.06623412
216	0x3e252a3d	0.16129394
217	0xbe24cab9	-0.16092958
218	0xbd885930	-0.06657636
219	0x3e264e1a	0.16240731
220	0x3dd9eebe	0.106412396
221	0x3e645556	0.22298178
222	0xbe3614da	-0.17781392
223	0xbd6eb552	-0.05827839
224	0xbe49d7cf	-0.1971123
225	0xbeac9b29	-0.33712128
226	0xbe95c41f	-0.2925119
227	0x3d9fcb87	0.07802492
228	0xbb8a5d31	-0.004222535
229	0x3db7f544	0.089823276
230	0x3e97075b	0.294978
231	0x3eb7b9a2	0.35883814
232	0x3e11a68e	0.14223692
233	0x3de2a435	0.11066476
234	0x3e8fd992	0.2809568
235	0x3cbeb7f9	0.023281084
236	0xbd5ba561	-0.053624514
237	0x3e01c77f	0.12673758
238	0x3e445349	0.19172396
239	0x3dd0ba8d	0.10191832
240	0x3e6b8410	0.22999597
241	0x3ead5889	0.3385661
242	0xbc32a6df	-0.010904043
243	0xbe87879f	-0.26470658
244	0xbe4b9f46	-0.19884977
245	0x3d9b1957	0.075731926
246	0xbd94d2f3	-0.07266798
247	0x3da9291e	0.082597956
248	0x3e08a63e	0.13344666
249	0xbdb39818	-0.08769244
250	0x3e0314c4	0.1280089
251	0x3e6cabae	0.23112366
252	0x3de8a272	0.11359109
253	0x3e267bd6	0.16258177
254	0xbd8e1e49	-0.0693937
255	0xbca6e1b7	-0.020371301

cell.w_ih f4 [256, 10]
0	0x3c9de5b3	0.019274568
1	0xbddbdfdc	-0.10736057
2	0xbdd15dfe	-0.10223006
3	0xbe07fd19	-0.13280143
4	0xbd0f3cca	-0.034970082
5	0xbdba9e58	-0.09112233
6	0xbe15427e	-0.14576146
7	0xbd732ded	-0.05936997
8	0xbb5cb269	-0.0033675677
9	0xbd99d3df	-0.07511114
10	0xbdbb4e31	-0.09145773
11	0xbe2aaaad	-0.1666667
12	0xbdb5cba0	-0.08876729
13	0x3e7cf1a8	0.2470156
14	0x3dbdf8b8	0.09275955
15	0x3c2d47a4	0.0105761625
16	0x3df5704f	0.11984312
17	0x3e8992bc	0.26869762
18	0x3e531220	0.20612383
19	0x3e70ab6c	0.23502892
20	0x3dfe1bbb	0.12407633
21	0x3ce09ca1	0.027418436
22	0xbe9dec3a	-0.3084429
23	0x3be23149	0.006902848
24	0xbe8f7b12	-0.28023583
25	0xbd22b972	-0.039727636
26	0xbd3e3899	-0.046440694
27	0xbe05d045	-0.1306773
28	0xbe4b874b	-0.19875829
29	0xbe32eed0	-0.17473912
30	0x3ea5d641	0.32390025
31	0x3e86d56d	0.26334706
32	0x3e6a15df	0.22859906
33	0x3e4444c1	0.19166853
34	0x3e5808ba	0.21097079
35	0x3dbcc0e0	0.092164755
36	0xbd0003d1	-0.03125364
37	0x3dbf12e2	0.093297735
38	0xbd5f14f1	-0.05446333
39	0xbdf4415c	-0.11926529
40	0x3e838c8b	0.25693163
41	0xbe461045	-0.19342144
42	0x3c13974d	0.009008241
43	0x3e43ccaf	0.1912105
44	0x3cbd806d	0.023132527
45	0x3e729fe5	0.23693807
46	0xbe2968d4	-0.16543895
47	0xbd473d20	-0.048642278
48	0xbe4270f2	-0.18988398
49	0x3e54f32a	0.20795885
50	0xbd64694b	-0.055764478
51	0x3e75371c	0.23946804
52	0x3deba0e4	0.11505297
53	0x3e8730fc	0.2640456
54	0x3e018e1c	0.12651867
55	0x3def712b	0.11691507
56	0x3ddca194	0.10773006
57	0x3df2ef44	0.118620425
58	0x3d3d9392	0.046283312
59	0xbde595ab	-0.112101875
60	0x3e4159fc	0.18881983
61	0xbe91ca59	-0.28474692
62	0xbd89e304	-0.06732753
63	0xbe2f084e	-0.17093012
64	0xbd871d33	-0.06597366
65	0xbe0518ed	-0.1299779
66	0x3dd66e50	0.10470259
67	0x3da4169c	0.08012125
68	0xbd4ba67d	-0.049719322
69	0x3e36b9c7	0.17844306
70	0x3e5e3836	0.2170113
71	0xbd9338ca	-0.07188566
72	0x3f1144da	0.56745684
73	0x3f086ab0	0.5328779
74	0x3e767d53	0.24071245
75	0x3c818f4a	0.015815396
76	0x3e94410e	0.28955883
77	0xbade5c5a	-0.0016964779
78	0xbe4db0f7	-0.20087038
79	0x3e09fc72	0.13475206
80	0x3e3d5d6d	0.1849267
81	0xbe6ce8f8	-0.23135746
82	0xbcee67a0	-0.029102147
83	0xbc8d46a6	-0.017245602
84	0xbd3e9cb2	-0.046536155
85	0xbb6039bc	-0.00342141
86	0xbe5f4403	-0.21803288
87	0x3e7a9388	0.24470341
88	0x3c0cc492	0.008591788
89	0xbab55a50	-0.0013836119
90	0x3e524cfc	0.2053718
91	0x3e779bf0	0.24180579
92	0x3f26711a	0.6501633
93	0x3f0a96f3	0.5413658
94	0x3e981f56	0.29711407
95	0x3d2e3263	0.04252852
96	0x3b7f10bc	0.0038919887
97	0xbd1b0ba5	-0.037852902
98	0x3e343877	0.17599665
99	0x3e7aac90	0.2447989
100	0x3d55ffcb	0.052245896
101	0xbd90ce1e	-0.07070564
102	0x3e5acc14	0.21366912
103	0x3e8b0854	0.2715479
104	0x3e06497d	0.13113971
105	0xbd2b322d	-0.0417959
106	0xbe3e78f2	-0.18600824
107	0xbc032877	-0.008005253
108	0x3c9faa30	0.019490331
109	0xbd3ed00c	-0.046585128
110	0xbe4ccf90	-0.20001054
111	0xbe02cdff	-0.12773894
112	0x3e802d62	0.25034624
113	0x3e9e30c6	0.30896586
114	0x3ea0161e	0.31266874
115	0x3e3d9285	0.18512924
116	0xbdb74889	-0.08949382
117	0x3db2817d	0.08716104
118	0x3e29bf9b	0.16576998
119	0x3de39b18	0.11113566
120	0x3c0abaac	0.008467358
121	0x3e9115f5	0.28337064
122	0xbdad64ad	-0.08466468
123	0x3e175f7a	0.14782515
124	0xbd05038e	-0.032474093
125	0xbd767715	-0.06017216
126	0xbe02e9c4	-0.12784487
127	0xbdbbe94c	-0.09175357
128	0x3dbd1ed4	0.092343956
129	0x3e88e2f7	0.2673566
130	0x3e7b71b8	0.24555099
131	0x3e1f518c	0.15558451
132	0x3e244d93	0.16045217
133	0xbc71f993	-0.014768976
134	0x3dda9e02	0.10674669
135	0xbe477a24	-0.19480187
136	0xbda48522	-0.080332056
137	0x3cf20c63	0.029546922
138	0xbd8d404a	-0.06897028
139	0x3e2881c5	0.16455753
140	0x3cc05f0f	0.023482827
141	0xbe775875	-0.24154837
142	0xbe8b45ae	-0.272016
143	0x3d253f54	0.040343598
144	0xbe2ad426	-0.1668249
145	0x3db369fd	0.0876045
146	0x3e2fd68d	0.17171688
147	0xbd994bff	-0.07485198
148	0xbdb1a198	-0.086734
149	0x3dcc885c	0.09986946
150	0x3ef859ab	0.4850591
151	0xbe1b97c5	-0.15194614
152	0x3de53d6f	0.11193358
153	0x3ebd4f1f	0.36974427
154	0x3e9e4017	0.30908272
155	0x3db5b958	0.08873242
156	0x3dad5b6d	0.08464704
157	0x3e23d34b	0.1599857
158	0x3e5b538f	0.21418594
159	0xbd41c051	-0.047302548
160	0x3ea37a6b	0.31929335
161	0x3e876fb9	0.26452425
162	0x3efbd7c8	0.49188066
163	0x3e10bd25	0.14134653
164	0xbc444921	-0.011980326
165	0x3e520fa8	0.20513785
166	0xbd5f7b73	-0.05456109
167	0xbdb541c1	-0.08850432
168	0xbdf04f84	-0.117339164
169	0x3e43562e	0.19075844
170	0xbd545655	-0.051840145
171	0xbe0a0680	-0.13479042
172	0x3e57b45b	0.21064894
173	0xbd6ae27b	-0.057344895
174	0x3e69b491	0.22822787
175	0xbd38b950	-0.045098603
176	0xbdb3dc3f	-0.08782243
177	0x3d0c389b	0.03423367
178	0x3e70665f	0.23476551
179	0xbcf4c3b7	-0.02987848
180	0xbe42f1e7	-0.19037591
181	0x3dd99ca0	0.10625577
182	0xbdcd99f5	-0.100391306
183	0x3e31ca5f	0.17362355
184	0x3e6ddd78	0.23229015
185	0xbe331782	-0.17489436
186	0xbdb08086	-0.08618264
187	0x3cb5b49a	0.022180844
188	0xbd20a8fb	-0.039223652
189	0xbdea688e	-0.114457235
190	0x3d439298	0.047747225
191	0xbdc1396e	-0.09434782
192	0xbe0e7fdb	-0.1391596
193	0xbded8d40	-0.11599207
194	0xbd726047	-0.05917385
195	0x3e510fc5	0.20416172
196	0x3ca93d80	0.020659208
197	0x3ddce06a	0.10784991
198	0xbdd11e49	-0.102108546
199	0xbe580a51	-0.21097685
200	0xbde093b5	-0.10965673
201	0xbe00878c	-0.12551707
202	0xbe1f47bc	-0.15554708
203	0xbe98f8ba	-0.29877263
204	0xbdbeffa1	-0.09326101
205	0x3dac48ab	0.08412298
206	0xbdf25551	-0.11832679
207	0x3e147353	0.14497118
208	0x3e188aa8	0.14896643
209	0xbe0ddaa8	-0.13852942
210	0x3df53598	0.11973113
211	0x3d014dde	0.0315684
212	0x3e8db7f9	0.27679422
213	0x3c6adc92	0.014334815
214	0x3e5f88e4	0.21829563
215	0xbe3d056b	-0.18459098
216	0xbe166c7d	-0.14689822
217	0x3c3f943c	0.011693057
218	0x3d174aaf	0.03693646
219	0x3e6cbafb	0.23118202
220	0xba918d59	-0.0011104747
221	0xbe3f5faa	-0.18688837
222	0x3d462417	0.04837426
223	0x3ea41a46	0.32051295
224	0x3e9b3cbd	0.30319777
225	0x3df0e18d	0.117617704
226	0x3dd9b1b6	0.10629599
227	0x3e68670c	0.2269556
228	0x3cca7b98	0.024717137
229	0x3c1959c3	0.00935978
230	0x3d6e143b	0.058124762
231	0x3e48dcd5	0.1961549
232	0xbe642c3e	-0.22282502
233	0xbe432484	-0.19056898
234	0xbbb781f2	-0.0056002075
235	0x3d750ca1	0.059826497
236	0xbc987df0	-0.01861474
237	0xbdbb29d8	-0.091388404
238	0x3d9594f0	0.07303798
239	0x3c97e36b	0.018541059
240	0x3cddca76	0.02707408
241	0xbe025f2e	-0.1273162
242	0xbd6714fd	-0.0564165
243	0x3c6a438b	0.01429833
244	0x3e556020	0.2083745
245	0xbe3053ee	-0.17219517
246	0xbe2ea794	-0.17056113
247	0xbe410986	-0.18851289
248	0x3d4106a4	0.047125474
249	0x3d9e31b8	0.07724327
250	0x3ebd213d	0.3693942
251	0x3e127b22	0.14304784
252	0x3efd4b77	0.49471638
253	0x3ee43ed7	0.44579193
254	0x3e52e634	0.20595628
255	0xbe188ff7	-0.14898668

cell.b_hh f4 [256]
0	0xbde38af1	-0.11110485
1	0xbc1256c6	-0.008931821
2	0xbd006369	-0.031344805
3	0xbda25c40	-0.079277515
4	0xbd6821dc	-0.056672916
5	0xbdc34993	-0.095355175
6	0xbe31821c	-0.17334789
7	0xbe221411	-0.15827967
8	0xbd92088e	-0.07130538
9	0xbe524abf	-0.20536326
10	0xbe289b8a	-0.16465583
11	0xbb06247f	-0.002046853
12	0xbd824d6e	-0.06362425
13	0xbdabb9f5	-0.08385078
14	0xbd95545a	-0.072914794
15	0xbcaf2b25	-0.021382878
16	0xbe3f8bd9	-0.18705691
17	0xbd9cf26c	-0.07663426
18	0xbdd3e20c	-0.103458494
19	0xbd274356	-0.0408357
20	0xbddb1191	-0.1069671
21	0xbcfca32a	-0.030839521
22	0xbdf12243	-0.11774113
23	0xbd51ddda	-0.051236965
24	0xbdd9243c	-0.10602614
25	0xbe8bc5d9	-0.27299383
26	0xbe12b1ab	-0.14325587
27	0xbd87286b	-0.06599506
28	0xbdc992c6	-0.09842448
29	0xbc4adaea	-0.012381295
30	0x3d83d161	0.0643642
31	0xbe13b5f2	-0.14424875
32	0xbda440d6	-0.08020179
33	0xbe7dfcf8	-0.24803531
34	0xbcfc831d	-0.030824238
35	0xbd8b14c7	-0.06791072
36	0xbd977ead	-0.07397208
37	0xbdf3a0a6	-0.11895876
38	0xbd8a04f8	-0.06739229
39	0xbce0c4e6	-0.027437638
40	0xbd659426	-0.05604949
41	0xbdc8a62c	-0.0979732
42	0x3beae2bf	0.0071681435
43	0xbd3316c3	-0.04372288
44	0xbe168112	-0.14697674
45	0xbd2e5f03	-0.04257108
46	0xbd76f522	-0.06029237
47	0x3b113906	0.0022159233
48	0xbe633f21	-0.2219205
49	0xbdd6e483	-0.10492804
50	0xbd4f4a3a	-0.050607897
51	0xbd5e7ac3	-0.054316293
52	0xbe3386f5	-0.17531951
53	0xbd510739	-0.05103228
54	0xbd0e514a	-0.034745492
55	0xbd95b3d6	-0.073096916
56	0xbde9b8f6	-0.114122316
57	0xbd946905	-0.072465934
58	0xbce2e339	-0.027696239
59	0xbe2ea1bf	-0.17053889
60	0xbde9af91	-0.1141044
61	0x3d2e67b7	0.04257938
62	0xbd1dbf0d	-0.03851228
63	0xbd3d4724	-0.046210423
64	0x4031d495	2.7786
65	0x402cd4be	2.7004848
66	0x404118a2	3.0171285
67	0x402e479f	2.7231214
68	0x403c3b2e	2.941112
69	0x4037b73e	2.8705592
70	0x403e488d	2.9731781
71	0x402badb2	2.6824765
72	0x403129d8	2.768179
73	0x402c676c	2.6938124
74	0x4039606c	2.8965101
75	0x40416e93	3.022374
76	0x4038989c	2.8843145
77	0x403964db	2.8967807
78	0x403ccf9a	2.950171
79	0x4034443f	2.8166654
80	0x402bcc6a	2.6843514
81	0x403de0e3	2.966851
82	0x40411d12	3.0173993
83	0x403b48ea	2.9263253
84	0x40406dd7	3.006704
85	0x404100f6	3.0156837
86	0x403c2baf	2.9401662
87	0x403ab207	2.917116
88	0x403b178b	2.923312
89	0x402bfa71	2.6871607
90	0x4028daf6	2.6383643
91	0x402f62f1	2.740414
92	0x4038806d	2.8828385
93	0x40452fb1	3.0810359
94	0x402e1366	2.719934
95	0x403dac57	2.9636438
96	0x4034abec	2.8229933
97	0x4033db30	2.8102531
98	0x403f9c3b	2.9939106
99	0x403063fe	2.756103
100	0x403c45c6	2.9417586
101	0x40435a63	3.0523918
102	0x403ce30b	2.9513576
103	0x402d09a7	2.7037141
104	0x403168d9	2.7720244
105	0x403f5749	2.9897025
106	0x403f2ae5	2.986993
107	0x40304b92	2.7546124
108	0x403dbf39	2.9647963
109	0x4036f75f	2.8588483
110	0x4030a478	2.7600384
111	0x40319ae2	2.7750783
112	0x40340d26	2.8133025
113	0x4037f6b7	2.8744333
114	0x403917c7	2.8920763
115	0x40400b7f	3.0007017
116	0x403525fe	2.8304439
117	0x40425ffd	3.0371087
118	0x403d2272	2.9552274
119	0x4040b268	3.010889
120	0x403b78dc	2.9292517
121	0x40448d62	3.0711293
122	0x4035940f	2.8371618
123	0x4031646e	2.7717547
124	0x402c0ee6	2.6884093
125	0x40458f43	3.086869
126	0x403875df	2.8821943
127	0x40395552	2.8958325
128	0xbd5147eb	-0.051093977
129	0x3c9cafd0	0.019126803
130	0x3db914ff	0.09037208
131	0xbb8d58c8	-0.004313562
132	0xbd58d32e	-0.05293577
133	0xbbb43bfc	-0.0055003148
134	0x3c3a8de6	0.01138637
135	0x3a3e225c	0.0007253045
136	0x3cc4084b	0.023929736
137	0x3d079da8	0.033109337
138	0x3d381e3b	0.044950705
139	0x3df26a6e	0.11836706
140	0xbd3721bd	-0.04470991
141	0x3d0c6911	0.034279887
142	0x3d9e4327	0.07727652
143	0xbd8f523a	-0.06998105
144	0xbce6d1b1	-0.02817616
145	0x3c547774	0.012967933
146	0xbc1c8500	-0.009553194
147	0x3dfb11a0	0.12259221
148	0xbcf02da8	-0.029318646
149	0xbd84912b	-0.06473001
150	0xbb0c91b8	-0.002144916
151	0xbd312d40	-0.043256044
152	0x3d0030a7	0.0312964
153	0xbbe2ec3f	-0.0069251354
154	0x3cc2c627	0.023776127
155	0xbc445dd2	-0.011985259
156	0x3d1aec0d	0.03782277
157	0xbd3db0f9	-0.046311352
158	0x3d2adb9f	0.041713353
159	0x3d0a5b06	0.033778213
160	0x3bb69096	0.005571435
161	0x3aadb616	0.0013253118
162	0x3cb9227b	0.02259945
163	0xbd3d8f64	-0.046279326
164	0x3d883f57	0.06652706
165	0xbc3258da	-0.010885442
166	0xbd57fa86	-0.052729152
167	0xbccc2c2a	-0.024923403
168	0x3c8d57e2	0.01725382
169	0x3cfde95b	0.030995062
170	0x3b3bdca2	0.0028665443
171	0x3d32ab50	0.043620408
172	0x3d6be72d	0.057593513
173	0x3cd4ab66	0.025960635
174	0x3d4163f7	0.047214475
175	0x3da63a8a	0.08116634
176	0xbcc2484a	-0.02371611
177	0x3a8de5ed	0.001082597
178	0x3b5eaaba	0.0033976273
179	0x3cf3b795	0.029750625
180	0xbd015255	-0.03157266
181	0xbd19903e	-0.037491076
182	0x3dd62584	0.10456374
183	0x3c9960a6	0.018722843
184	0x3d53c9bf	0.051706072
185	0xbd2e2fef	-0.04252618
186	0x3d974f56	0.07388179
187	0xbbd08a1c	-0.00636412
188	0x3d2c350d	0.04204278
189	0x3b2cb4d9	0.002635291
190	0xbdb9b345	-0.09067396
191	0x3d44f07b	0.048080903
192	0xbe4f3462	-0.20234826
193	0xbbfe4e70	-0.0077608153
194	0xbdb10103	-0.08642771
195	0xbe5622df	-0.2091174
196	0xbb82028f	-0.00396759
197	0xbdf2041b	-0.11817189
198	0xbe58ec56	-0.21183905
199	0xbdf2bed8	-0.11852807
200	0xbd7c1e1c	-0.061552152
201	0xbe002fde	-0.1251826
202	0xbdd289aa	-0.102801636
203	0x3cf3cee2	0.029761735
204	0xbd757dfc	-0.0599346
205	0xbdb7f5bd	-0.08982418
206	0xbdbca734	-0.09211579
207	0xbcaac7c8	-0.020847216
208	0xbe075681	-0.13216592
209	0xbd131eb6	-0.03591796
210	0xbe5e6a88	-0.21720326
211	0xbd34e1f4	-0.0441608
212	0xbcb0a36b	-0.021562299
213	0x3bb9bbd9	0.005668145
214	0xbdf7271d	-0.12068007
215	0xbe2cdb12	-0.16880444
216	0xbe586aaf	-0.21134447
217	0x3d1ffba7	0.039058354
218	0xbd94504d	-0.07241879
219	0xbd8ac8ad	-0.06776557
220	0xbd9b19aa	-0.075732544
221	0xbdad3445	-0.08457235
222	0xbe1a5f26	-0.15075359
223	0xbd93aff4	-0.07211295
224	0xbdc5dc1e	-0.09661125
225	0xbe5636c7	-0.20919333
226	0xbe736601	-0.2376938
227	0xbe69be05	-0.22826393
228	0xbd76f909	-0.060296092
229	0xbdf459b0	-0.11931169
230	0xbdd88f21	-0.10574175
231	0x3b8b1b93	0.0042452305
232	0xbde5f4e9	-0.112283535
233	0xbe15363a	-0.14571467
234	0xbd9e8ef6	-0.077421114
235	0xbc94c145	-0.018158564
236	0xbd555f40	-0.05209279
237	0xbdd47f1e	-0.10375808
238	0xbde12bae	-0.10994659
239	0xbe847352	-0.25869232
240	0xbe0c4a5b	-0.1370024
241	0xbdfee38d	-0.124457456
242	0xbd997513	-0.07493033
243	0xbd90e471	-0.07074822
244	0xbe69a25d	-0.22815843
245	0x3d1fe2cd	0.039034653
246	0x3c9ee8f5	0.019398192
247	0xbdbdf72c	-0.0927566
248	0xbcc2239e	-0.023698624
249	0xbcddf6d4	-0.027095236
250	0xbdbbd4c0	-0.09171438
251	0xbe074c6d	-0.13212748
252	0xbcf1800b	-0.029480001
253	0xbc065a74	-0.008200277
254	0xbe3b3e46	-0.18285474
255	0xbe36766f	-0.17818616

cell.b_ih f4 [256]
0	0xbde38af1	-0.11110485
1	0xbc1256c6	-0.008931821
2	0xbd006369	-0.031344805
3	0xbda25c40	-0.079277515
4	0xbd6821dc	-0.056672916
5	0xbdc34993	-0.095355175
6	0xbe31821c	-0.17334789
7	0xbe221411	-0.15827967
8	0xbd92088e	-0.07130538
9	0xbe524abf	-0.20536326
10	0xbe289b8a	-0.16465583
11	0xbb06247f	-0.002046853
12	0xbd824d6e	-0.06362425
13	0xbdabb9f5	-0.08385078
14	0xbd95545a	-0.072914794
15	0xbcaf2b25	-0.021382878
16	0xbe3f8bd9	-0.18705691
17	0xbd9cf26c	-0.07663426
18	0xbdd3e20c	-0.103458494
19	0xbd274356	-0.0408357
20	0xbddb1191	-0.1069671
21	0xbcfca32a	-0.030839521
22	0xbdf12243	-0.11774113
23	0xbd51ddda	-0.051236965
24	0xbdd9243c	-0.10602614
25	0xbe8bc5d9	-0.27299383
26	0xbe12b1ab	-0.14325587
27	0xbd87286b	-0.06599506
28	0xbdc992c6	-0.09842448
29	0xbc4adaea	-0.012381295
30	0x3d83d161	0.0643642
31	0xbe13b5f2	-0.14424875
32	0xbda440d6	-0.08020179
33	0xbe7dfcf8	-0.24803531
34	0xbcfc831d	-0.030824238
35	0xbd8b14c7	-0.06791072
36	0xbd977ead	-0.07397208
37	0xbdf3a0a6	-0.11895876
38	0xbd8a04f8	-0.06739229
39	0xbce0c4e6	-0.027437638
40	0xbd659426	-0.05604949
41	0xbdc8a62c	-0.0979732
42	0x3beae2bf	0.0071681435
43	0xbd3316c3	-0.04372288
44	0xbe168112	-0.14697674
45	0xbd2e5f03	-0.04257108
46	0xbd76f522	-0.06029237
47	0x3b113906	0.0022159233
48	0xbe633f21	-0.2219205
49	0xbdd6e483	-0.10492804
50	0xbd4f4a3a	-0.050607897
51	0xbd5e7ac3	-0.054316293
52	0xbe3386f5	-0.17531951
53	0xbd510739	-0.05103228
54	0xbd0e514a	-0.034745492
55	0xbd95b3d6	-0.073096916
56	0xbde9b8f6	-0.114122316
57	0xbd946905	-0.072465934
58	0xbce2e339	-0.027696239
59	0xbe2ea1bf	-0.17053889
60	0xbde9af91	-0.1141044
61	0x3d2e67b7	0.04257938
62	0xbd1dbf0d	-0.03851228
63	0xbd3d4724	-0.046210423
64	0xbe62b70b	-0.22140138
65	0xbe99595a	-0.29950982
66	0x3c8c57ab	0.017131647
67	0xbe8dc335	-0.27687994
68	0xbd7134fe	-0.058888428
69	0xbe048aaa	-0.12943521
70	0xbcdbc47b	-0.026827088
71	0xbea2924f	-0.3175225
72	0xbe6d6155	-0.2318166
73	0xbe9cc388	-0.30617929
74	0xbdd3f2d3	-0.103490494
75	0x3cb7486f	0.022373406
76	0xbdecf141	-0.11569453
77	0xbdd36538	-0.1032204
78	0xbd4c113d	-0.049821127
79	0xbe3bbd82	-0.1833401
80	0xbea19c8a	-0.31564742
81	0xbd07c68d	-0.033148337
82	0x3c8e7d34	0.017393686
83	0xbd96e837	-0.0736851
84	0x3bdbbaf0	0.0067056343
85	0x3c807685	0.015681515
86	0xbd750d86	-0.05982735
87	0xbda9bebb	-0.08288332
88	0xbd9d1024	-0.07669094
89	0xbea02c42	-0.31283766
90	0xbeb927ed	-0.36163273
91	0xbe84e943	-0.25959215
92	0xbdeff7f1	-0.11717213
93	0x3da5f70d	0.08103762
94	0xbe8f6478	-0.2800634
95	0xbd14ee07	-0.036359813
96	0xbe354183	-0.17700772
97	0xbe424bf9	-0.18974294
98	0xbbc7737c	-0.006086765
99	0xbe79bfc6	-0.24389562
100	0xbd6e92eb	-0.05824558
101	0x3d569b18	0.052394003
102	0xbd473e4f	-0.048643406
103	0xbe97b2da	-0.2962864
104	0xbe69722e	-0.22797462
105	0xbc28c703	-0.010301354
106	0xbc551872	-0.0130063165
107	0xbe7b47fc	-0.24539179
108	0xbd102dcc	-0.035199925
109	0xbe108b01	-0.14115526
110	0xbe75b7e3	-0.23995928
111	0xbe66543a	-0.22493067
112	0xbe3f303b	-0.18670742
113	0xbe009508	-0.12556851
114	0xbddd09d5	-0.10792891
115	0x3a3626b4	0.0006948516
116	0xbe2da119	-0.16955985
117	0x3d17f98c	0.03710322
118	0xbd376748	-0.04477623
119	0x3c327c0d	0.010893834
120	0xbd90e251	-0.070744164
121	0x3d91aa0d	0.07112513
122	0xbe26bebf	-0.16283701
123	0xbe69b71b	-0.22823755
124	0xbe9f890d	-0.3115925
125	0x3db1e809	0.08686835
126	0xbdf145a8	-0.11780864
127	0xbdd554f5	-0.10416595
128	0xbd5147eb	-0.051093977
129	0x3c9cafd0	0.019126803
130	0x3db914ff	0.09037208
131	0xbb8d58c8	-0.004313562
132	0xbd58d32e	-0.05293577
133	0xbbb43bfc	-0.0055003148
134	0x3c3a8de6	0.01138637
135	0x3a3e225c	0.0007253045
136	0x3cc4084b	0.023929736
137	0x3d079da8	0.033109337
138	0x3d381e3b	0.044950705
139	0x3df26a6e	0.11836706
140	0xbd3721bd	-0.04470991
141	0x3d0c6911	0.034279887
142	0x3d9e4327	0.07727652
143	0xbd8f523a	-0.06998105
144	0xbce6d1b1	-0.02817616
145	0x3c547774	0.012967933
146	0xbc1c8500	-0.009553194
147	0x3dfb11a0	0.12259221
148	0xbcf02da8	-0.029318646
149	0xbd84912b	-0.06473001
150	0xbb0c91b8	-0.002144916
151	0xbd312d40	-0.043256044
152	0x3d0030a7	0.0312964
153	0xbbe2ec3f	-0.0069251354
154	0x3cc2c627	0.023776127
155	0xbc445dd2	-0.011985259
156	0x3d1aec0d	0.03782277
157	0xbd3db0f9	-0.046311352
158	0x3d2adb9f	0.041713353
159	0x3d0a5b06	0.033778213
160	0x3bb69096	0.005571435
161	0x3aadb616	0.0013253118
162	0x3cb9227b	0.02259945
163	0xbd3d8f64	-0.046279326
164	0x3d883f57	0.06652706
165	0xbc3258da	-0.010885442
166	0xbd57fa86	-0.052729152
167	0xbccc2c2a	-0.024923403
168	0x3c8d57e2	0.01725382
169	0x3cfde95b	0.030995062
170	0x3b3bdca2	0.0028665443
171	0x3d32ab50	0.043620408
172	0x3d6be72d	0.057593513
173	0x3cd4ab66	0.025960635
174	0x3d4163f7	0.047214475
175	0x3da63a8a	0.08116634
176	0xbcc2484a	-0.02371611
177	0x3a8de5ed	0.001082597
178	0x3b5eaaba	0.0033976273
179	0x3cf3b795	0.029750625
180	0xbd015255	-0.03157266
181	0xbd19903e	-0.037491076
182	0x3dd62584	0.10456374
183	0x3c9960a6	0.018722843
184	0x3d53c9bf	0.051706072
185	0xbd2e2fef	-0.04252618
186	0x3d974f56	0.07388179
187	0xbbd08a1c	-0.00636412
188	0x3d2c350d	0.04204278
189	0x3b2cb4d9	0.002635291
190	0xbdb9b345	-0.09067396
191	0x3d44f07b	0.048080903
192	0xbe4f3462	-0.20234826
193	0xbbfe4e70	-0.0077608153
194	0xbdb10103	-0.08642771
195	0xbe5622df	-0.2091174
196	0xbb82028f	-0.00396759
197	0xbdf2041b	-0.11817189
198	0xbe58ec56	-0.21183905
199	0xbdf2bed8	-0.11852807
200	0xbd7c1e1c	-0.061552152
201	0xbe002fde	-0.1251826
202	0xbdd289aa	-0.102801636
203	0x3cf3cee2	0.029761735
204	0xbd757dfc	-0.0599346
205	0xbdb7f5bd	-0.08982418
206	0xbdbca734	-0.09211579
207	0xbcaac7c8	-0.020847216
208	0xbe075681	-0.13216592
209	0xbd131eb6	-0.03591796
210	0xbe5e6a88	-0.21720326
211	0xbd34e1f4	-0.0441608
212	0xbcb0a36b	-0.021562299
213	0x3bb9bbd9	0.005668145
214	0xbdf7271d	-0.12068007
215	0xbe2cdb12	-0.16880444
216	0xbe586aaf	-0.21134447
217	0x3d1ffba7	0.039058354
218	0xbd94504d	-0.07241879
219	0xbd8ac8ad	-0.06776557
220	0xbd9b19aa	-0.075732544
221	0xbdad3445	-0.08457235
222	0xbe1a5f26	-0.15075359
223	0xbd93aff4	-0.07211295
224	0xbdc5dc1e	-0.09661125
225	0xbe5636c7	-0.20919333
226	0xbe736601	-0.2376938
227	0xbe69be05	-0.22826393
228	0xbd76f909	-0.060296092
229	0xbdf459b0	-0.11931169
230	0xbdd88f21	-0.10574175
231	0x3b8b1b93	0.0042452305
232	0xbde5f4e9	-0.112283535
233	0xbe15363a	-0.14571467
234	0xbd9e8ef6	-0.077421114
235	0xbc94c145	-0.018158564
236	0xbd555f40	-0.05209279
237	0xbdd47f1e	-0.10375808
238	0xbde12bae	-0.10994659
239	0xbe847352	-0.25869232
240	0xbe0c4a5b	-0.1370024
241	0xbdfee38d	-0.124457456
242	0xbd997513	-0.07493033
243	0xbd90e471	-0.07074822
244	0xbe69a25d	-0.22815843
245	0x3d1fe2cd	0.039034653
246	0x3c9ee8f5	0.019398192
247	0xbdbdf72c	-0.0927566
248	0xbcc2239e	-0.023698624
249	0xbcddf6d4	-0.027095236
250	0xbdbbd4c0	-0.09171438
251	0xbe074c6d	-0.13212748
252	0xbcf1800b	-0.029480001
253	0xbc065a74	-0.008200277
254	0xbe3b3e46	-0.18285474
255	0xbe36766f	-0.17818616

head.net.0.weight f4 [1, 64]
0	0xbe67928d	-0.22614498
1	0x3e0566cf	0.130275
2	0x3d59ee64	0.053205863
3	0xbeade899	-0.3396652
4	0x3cc870fa	0.024467934
5	0xbb149ba8	-0.0022675786
6	0xbe9a7d99	-0.30173948
7	0x3ef1d475	0.47232404
8	0x3e2e4a7a	0.17020598
9	0xbefe3987	-0.49653265
10	0xbcff0bf8	-0.031133637
11	0x3bc60748	0.0060433485
12	0xbd081d88	-0.03323129
13	0xbda8121c	-0.08206579
14	0x3d23e3fa	0.040012337
15	0xbe6d1eb9	-0.23156251
16	0x3f08f09b	0.53492135
17	0xbc43cfac	-0.011951368
18	0xbdbb5266	-0.09146576
19	0x3cbfe0b2	0.023422573
20	0xbc267bd8	-0.010161363
21	0xbb920de9	-0.0044572246
22	0xbc05719d	-0.008144763
23	0x3d343de2	0.04400433
24	0x3daf9e8f	0.085751645
25	0xbedd970d	-0.43279305
26	0x3ea01a56	0.31270093
27	0x3eafda78	0.34346366
28	0xbc7f6b0b	-0.015589486
29	0xbce10a5b	-0.027470758
30	0x3e8be856	0.27325696
31	0xbc8ed743	-0.01743663
32	0xbe0cf325	-0.13764627
33	0xbea1f20f	-0.3162999
34	0xbe13d591	-0.14436938
35	0xbee1d6da	-0.4410923
36	0xbcc7a04f	-0.024368433
37	0x3d2d7c55	0.0423549
38	0xbcd4e94e	-0.025990155
39	0x3d5bf2f0	0.05369848
40	0xbddd20af	-0.107972495
41	0x3b9ae069	0.004726459
42	0x3d8f094e	0.069841966
43	0xbeb2de4b	-0.3493522
44	0xbca83b84	-0.020536192
45	0xbbd67f57	-0.006545942
46	0x3e4673dc	0.19380134
47	0x3eb0b3fe	0.34512323
48	0x3e245c4d	0.16050835
49	0x3e3bcd58	0.18340051
50	0x3c05ac4b	0.008158754
51	0xbb486e89	-0.0030583462
52	0xbe8bd388	-0.27309823
53	0x3cb2cdbd	0.02182662
54	0x3bb6f755	0.0055836835
55	0xbcfbb040	-0.030723691
56	0xbc0a447a	-0.008439178
57	0xbceda224	-0.029007979
58	0x3dae398a	0.085070685
59	0x3e98cc3f	0.29843327
60	0x3ebc11c6	0.3673231
61	0x3cee9f44	0.029128678
62	0xbe5fc206	-0.21851358
63	0xbd7d0dfe	-0.061780922
