runs/lstm_camels_us_2001_000652/model_epoch001.pt (torch, 80974 bytes, 5 tensors)

cell.w_hh f4 [256, 64]
000000 19 fd 8c 3d 43 6c 95 3d b4 46 17 3d 44 0b ec bd
       0.06884212 0.0729604 0.036932662 -0.11525586
000010 23 15 69 be 05 a1 14 be 6f 09 c3 bd 95 6d 02 3e
       -0.2276197 -0.14514549 -0.09523284 0.12737115
000020 7b ff 0b 3d 8a 4c e8 bd a3 b9 0d 3e d5 95 90 3d
       0.034179192 -0.11342724 0.13840346 0.07059828
000030 5a 1d 24 3e 70 6e 7e 3d 73 91 a3 bd 76 fd 35 3d
       0.16026822 0.06211704 -0.079867266 0.044431172
000040 4f e2 74 3d 30 97 01 3c 5c 36 67 3d 02 ab 28 be
       0.059786137 0.007909581 0.056448326 -0.16471484
000050 ea 4f 78 bd 64 c6 99 3c e6 1e e6 3d 01 a6 90 3d
       -0.060623087 0.018771358 0.11236362 0.07062913
000060 31 8b 04 be 66 99 1b 3e 2d 46 35 3d 0c a1 e4 bd
       -0.12943722 0.15195236 0.044256378 -0.1116353
000070 6e b0 a1 bd da d4 9f 3d 34 2a fa bc fa 1b 73 3e
       -0.078949794 0.0780427 -0.030537702 0.23741141
000080 29 24 5e 3d 9b 1e 76 be 95 e4 00 3e 45 b2 f1 3d
       0.054233704 -0.24035113 0.12587197 0.1180158
000090 a1 a8 09 3e 62 df ed bd 4b f2 68 bd 3f 47 6e bc
       0.13443233 -0.116148725 -0.056871694 -0.014543354
0000a0 81 71 cc bd 9e 51 08 bd f8 27 74 bc af fa 02 be
       -0.09982587 -0.03328096 -0.014902107 -0.1279094
0000b0 2a ba f5 bd 3f 2f cf bd a9 bc 84 bc e3 96 26 3c
       -0.119983986 -0.10116433 -0.016203241 0.01016781
0000c0 ff 14 f4 bc da bf 3f be 0f bb 21 3e 60 ce 49 3e
       -0.029795168 -0.1872553 0.15794013 0.19707632
0000d0 2a b2 72 3c 73 22 10 3e 03 d7 52 3e 62 ee c1 3c
       0.014812985 0.14075641 0.20589833 0.02367324
0000e0 7f f4 d3 bd 6f 50 0e 3d 3c ef 93 bd dc e1 3e 3e
       -0.10349368 0.034744676 -0.07223365 0.18640846
0000f0 97 5e ba bd ed 41 fe 3d 82 41 2e bd 17 46 45 bb
       -0.09100073 0.12414918 -0.042542942 -0.0030101591
000100 95 1d f6 bd c7 64 11 be da 8f a8 bb 30 91 45 be
       -0.12017361 -0.141986 -0.0051441016 -0.19293666
000110 d1 73 d6 3d 6b dc 10 3d e2 4b a3 3d f8 d3 f0 bd
       0.10471309 0.035366457 0.07973458 -0.1175918
000120 d9 28 aa bd 8e ea 01 3e c9 c5 de bd 2e 30 a4 3d
       -0.08308572 0.12687132 -0.10877568 0.08017002
000130 87 f6 5a be 25 7f 48 be 48 4f d6 bc cf 9f 24 3e
       -0.21383105 -0.19579752 -0.026160851 0.16076587
000140 8b f9 a2 3d 6e a7 63 3d 47 23 93 bc b3 2c b5 bb
       0.07957753 0.055579595 -0.017961157 -0.00552901
000150 52 ee 87 bd 77 39 10 3e dd 8e 3d 3b ec 54 d5 3d
       -0.06637253 0.14084421 0.0028924264 0.10416588
000160 03 27 e5 bc 36 d6 94 3d a1 e0 ba bd ed 2b 10 bc
       -0.027972704 0.0726742 -0.09124876 -0.008799535
000170 86 32 a2 3d 05 6a 2d be 09 99 2e be de 83 65 be
       0.07919793 -0.16934974 -0.17050566 -0.22413585
000180 73 1a b2 3c f9 65 36 be 32 cb 8a bd 61 84 09 3e
       0.021741128 -0.17812337 -0.06777038 0.13429405
000190 ff d5 23 3d 24 f7 3b be 9e 2a c5 bd 8c 6a 66 bd
       0.039999004 -0.18355995 -0.09627269 -0.056253955
0001a0 39 f6 05 be ad 97 ff bd 8f 30 36 3e 5d 11 02 3e
       -0.13082208 -0.12480102 0.17791961 0.12701936
0001b0 37 3b 04 bd 15 2e 0e be 2a dc c1 bd 6a 70 57 3d
       -0.032283034 -0.13884766 -0.09465821 0.05259744
0001c0 e1 c0 df 3d 6c 05 a1 3d 79 05 09 be 65 55 03 3d
       0.109254606 0.07862362 -0.13380994 0.03206386
0001d0 0c e2 25 be 4c 2a d6 bd 49 99 1a bc af cd 3c 3d
       -0.16199511 -0.10457286 -0.00943596 0.046094593
0001e0 b8 54 57 be e0 3d f3 bd cb ba 01 3e 33 23 0a 3e
       -0.21028411 -0.11877036 0.12668912 0.1348999
0001f0 d8 58 6e 3e c2 25 02 be 71 7d 2e be 43 46 28 3e
       0.23276079 -0.12709716 -0.1704004 0.16433053
000200 a8 6a 77 be 03 f4 fe 3d de 83 8e bd a7 52 c6 3a
       -0.2416178 0.12448885 -0.069587454 0.0015130833
000210 0e ea 14 bd 6d af 17 3d a3 ec 5c be ec c2 b2 bd
       -0.036356024 0.037032533 -0.21574645 -0.08728585
000220 1e dd 54 be c8 d8 e3 bd 10 e9 7b be a9 b9 dc bc
       -0.20787475 -0.11125332 -0.24600625 -0.026943998
000230 d1 e4 1a 3e 32 eb 71 3d 07 3a f3 3b 42 6b e1 bd
       0.15126349 0.05906219 0.007422689 -0.11006786
000240 af 02 0f bc 86 00 8e 3c 54 12 fe 3d 03 d4 8f 3d
       -0.008728667 0.017334234 0.124058396 0.0702286
000250 a1 7b 6b be 49 eb 9f bc d3 0b 41 be 4f 43 73 3e
       -0.2299638 -0.019521372 -0.18852167 0.23756145
000260 c9 68 66 3e 33 d7 03 be cb 89 9b 3d 60 60 e5 bd
       0.2250091 -0.1287506 0.07594641 -0.11200023
000270 5e df 9b be da c3 75 3d 17 58 cb 3d dd 94 20 3e
       -0.30443853 0.06000123 0.09928911 0.15681787
000280 a8 f1 48 be 81 fd 75 3d cf 48 06 bd 4f af 54 bc
       -0.19623435 0.060056213 -0.03278428 -0.01298125
000290 f1 77 20 be c7 cb 3e 3e eb 2c 3d 3e fd 3a 20 be
       -0.15670754 0.18632422 0.18474166 -0.15647502
0002a0 5c d6 14 be ea 09 61 be b5 84 8c 3e 65 28 8b bd
       -0.14534897 -0.21976438 0.27444997 -0.06794814
0002b0 38 e0 9c bd cf fb 46 bd a4 d5 3a be aa 23 08 bc
       -0.07659954 -0.048579987 -0.1824556 -0.008309284
0002c0 18 8b 94 bc 24 b9 9c bc ad c3 af 3d 38 af 1c be
       -0.018132731 -0.01913125 0.08582244 -0.15301216
0002d0 27 f0 1d be 84 a5 06 bd 9a df 96 bd 11 86 28 3d
       -0.15423642 -0.03287269 -0.07366867 0.04114348
0002e0 ba c0 7e be 10 2b a3 3c 72 55 3a be 38 c8 31 3e
       -0.24878207 0.019917995 -0.18196657 0.17361534
0002f0 71 d0 98 bd 25 1d 61 3d 35 72 18 3d e0 8f d5 3d
       -0.07461632 0.054959435 0.03721829 0.104278326
000300 d9 8f d4 3d 57 46 a2 3d 81 62 e4 bd 87 a9 85 be
       0.10378999 0.079235725 -0.11151601 -0.26105902
000310 3d c9 4c 3d 42 1b 24 3e 6b 11 7b 3d de 08 a6 bc
       0.049996603 0.16026023 0.061295908 -0.0202679
000320 99 42 11 3c 5d b1 23 3d f4 28 92 3d a8 87 ed bd
       0.008865976 0.03996407 0.071367174 -0.1159814
000330 68 13 0e 3e bc 61 00 3b b8 44 76 be f6 00 80 ba
       0.1387459 0.0019589504 -0.24049652 -0.0009765911
000340 b7 8b de 3d 30 07 50 be 79 8e b2 3d 0e cd 4d 3e
       0.10866492 -0.20315242 0.08718581 0.20097753
000350 fd b8 1a be f4 62 c9 3d c9 4c 64 bd d5 a4 bf 3d
       -0.1510963 0.09833327 -0.05573729 0.09357611
000360 a5 bb 2a 3e 59 ae 10 be 3d c6 25 3c 00 37 f9 3d
       0.16673143 -0.14129008 0.0101180645 0.121686935
000370 76 fb e8 3d 48 38 24 3e f8 b6 77 bd 98 b2 08 bd
       0.11376087 0.16037095 -0.060477227 -0.033373445
000380 f4 f3 e9 bd 46 48 4d be b2 c5 74 be 04 e0 4b bc
       -0.114234835 -0.20047101 -0.2390354 -0.012443546
000390 0f d3 d3 3d 8c f4 c9 3d c4 e1 3e 3e e7 4d 66 3e
       0.103429906 0.09861097 0.1864081 0.22490655
0003a0 14 91 cb 3d ba 7e 1b 3e 4f 41 03 3e a9 23 c4 3c
       0.09939781 0.15185061 0.12817882 0.023942785
0003b0 89 df af 3d 01 d7 e6 3d 8c c6 4c 3e b9 9c 13 3e
       0.08587558 0.112714775 0.19997615 0.14415254
0003c0 6d 80 55 3e c6 16 50 3e 2f cb 64 bd 23 36 05 be
       0.20849772 0.20321187 -0.055857833 -0.13008933
0003d0 68 91 8c be d0 ec 26 3d 73 b2 15 bd 9b b8 c9 3d
       -0.27454686 0.040753186 -0.036547136 0.09849664
0003e0 8a 52 12 3e 27 70 90 3d 34 4d e5 3d 5e b4 18 3e
       0.14289299 0.07052641 0.11196366 0.14912555
0003f0 2b c1 84 3d bb 23 18 3e 5f 56 fa bc 5a b4 7a bd
       0.06482156 0.1485738 -0.030558763 -0.061207153

cell.w_ih f4 [256, 10]
000000 07 d6 62 be 4f b7 00 3d 3e 10 35 be 60 5e 54 be
       -0.22151957 0.031424817 -0.17681977 -0.20739126
000010 56 fe 1b be b8 6a 05 be e6 d3 c7 bd f3 46 75 bd
       -0.1523374 -0.13028991 -0.09757213 -0.059882116
000020 df 59 0b bd 11 f2 86 bd 4a 5d d3 bd dd 75 37 be
       -0.034021255 -0.06589139 -0.10320528 -0.17916055
000030 7f a5 02 be ff 31 55 3e 07 f9 00 3e f4 08 23 3d
       -0.12758444 0.20819853 0.12594996 0.03980346
000040 0f 0e b0 3d c6 ef 7b 3e 13 ab 38 3e 4e fe 25 3e
       0.085964315 0.24603185 0.1803401 0.16210291
000050 92 42 a1 bd 8a be 9c 3c 16 4f 58 be 6b 35 d5 3d
       -0.078740254 0.019133825 -0.21123919 0.10410579
000060 a2 a4 18 be 67 00 cf bd 3f 45 82 bc 44 17 89 bd
       -0.14906552 -0.101074986 -0.01590216 -0.06693891
000070 44 89 cd bd 4a c3 12 be 78 d5 a7 3e 09 09 2a 3e
       -0.10035947 -0.1433231 0.3278005 0.16605009
000080 b3 94 af 3d de e4 47 3d ee f9 19 3e 70 78 92 3d
       0.08573284 0.04880225 0.15036747 0.07151878
000090 76 43 b1 bd 16 a7 52 3e b9 52 05 3d 71 80 1d be
       -0.08655445 0.2057155 0.032549594 -0.15381028
0000a0 fe 5a 1a 3e 5d c0 2d be 2b ad 98 bc 96 7d 27 3e
       0.15073773 -0.16967912 -0.01863726 0.16356501
0000b0 ea 4e c7 3b 0d 5c 63 3e a0 4e 1f be 28 59 c2 bd
       0.0060824053 0.22203083 -0.15557337 -0.094896615
0000c0 81 d9 45 be 57 d0 43 3e 1e 0a f4 bd 2a ac 6d 3e
       -0.19321252 0.19122444 -0.11915992 0.23210207
0000d0 77 21 a4 3d 44 a2 6a 3e e6 fb a5 3d 6a d9 a0 3d
       0.080141954 0.22913462 0.081046864 0.078539684
0000e0 90 cb c2 3d 84 ef 26 3e c3 c8 1f 3e ff 61 c4 bd
       0.09511483 0.16302305 0.15603928 -0.09589004
0000f0 31 b2 83 3e a3 92 65 be 8d a5 f7 3c 29 44 96 bd
       0.25721887 -0.22419219 0.030230308 -0.07337219
000100 50 4a 88 3d c4 1a da bd 62 18 fd 3b 63 eb a8 3d
       0.06654799 -0.106496364 0.007723854 0.082480215
000110 d3 6a 12 be 5a f4 18 3e 44 65 88 3e 73 72 1f bd
       -0.14298563 0.14936963 0.2663976 -0.038927507
000120 da f7 45 3e 39 8f 22 3e f5 ff 92 bc 1b c3 b4 3d
       0.19332829 0.15874948 -0.017944315 0.08826276
000130 a4 e0 61 3e 01 7d 9a 3c e8 51 a0 bd d9 e7 04 3d
       0.2205835 0.018858435 -0.078281224 0.03244767
000140 ff b8 0e 3e eb a3 77 be 1c 55 c6 bd dc 0c ae bd
       0.13937758 -0.24183623 -0.09684202 -0.084985465
000150 75 ff b6 bd 1d d2 97 3d 0b 3a 4c be be 67 81 3e
       -0.08935443 0.07413123 -0.19944017 0.25274462
000160 9e bf f1 bd 59 4c 02 bb ed b9 74 3e de 6a 06 3e
       -0.11804126 -0.0019881933 0.2389905 0.13126704
000170 33 7f 3d 3e fb 2c 9c 3d 1f c2 80 3b 03 a5 5d 3b
       0.18505554 0.07625767 0.003929391 0.0033820278
000180 e7 9a a3 bc a8 f6 b8 bc af 54 42 3e df 33 53 3e
       -0.019971324 -0.022578552 0.18977617 0.20625256
000190 20 01 7c 3d de 47 5c bc 4e ba 31 3e f0 fe 6c 3e
       0.06152451 -0.013444869 0.17356226 0.23144126
0001a0 37 e4 a8 3d 71 e5 83 bd 04 d0 2e be db d2 07 bc
       0.082466535 -0.06440247 -0.17071539 -0.008290018
0001b0 8c cc de 3c 4c 95 20 bd be 42 2f be 38 75 03 bc
       0.027197145 -0.03920488 -0.17115304 -0.008023553
0001c0 97 84 25 3e 57 8b 61 3e 3f 88 81 3e f3 ea 30 3e
       0.1616386 0.2202581 0.2529926 0.17277126
0001d0 73 f2 03 3d b6 e8 f4 3d 31 c0 e6 3d b2 cd 33 3e
       0.03221364 0.119584486 0.11267126 0.17558935
0001e0 e1 d2 80 bd 1f 7f 83 3e ef 12 10 bd 09 0d 4a 3e
       -0.06290222 0.25682923 -0.035174306 0.19731535
0001f0 f8 e6 c1 ba 01 e9 7f 3d 6f a0 51 be 69 9d 19 be
       -0.0014793565 0.06247807 -0.20471357 -0.15001453
000200 f3 09 40 3d 8d 88 2d 3e 12 18 0a 3e c1 ad 17 3e
       0.04688449 0.16946621 0.13485745 0.14812376
000210 b9 df d3 3d 9d fa 92 bd 8e 5a 96 3d 2d 2f 2d be
       0.10345406 -0.07176707 0.07341491 -0.16912527
000220 2d a9 ae bc 22 92 ba 3d 9c 11 08 bd 74 e5 44 3e
       -0.021320904 0.09109904 -0.03321992 0.19228154
000230 c0 22 3d bc 7e 4d 5d be 89 80 2a be 87 5a 15 3e
       -0.01154393 -0.21611592 -0.16650595 0.14585315
000240 d0 84 db bd d0 5a f6 3d fe 63 d0 3d ad 27 c2 bd
       -0.10718691 0.1202904 0.10175322 -0.09480224
000250 ed 62 12 be b6 ea 30 3d 13 ee 39 3e da 34 7d bd
       -0.1429555 0.043192588 0.18157224 -0.06181798
000260 a3 8b e1 bd bd 39 17 3e c0 96 ca 3d d9 ec 5b 3e
       -0.11012962 0.14768119 0.098920345 0.21477069
000270 e1 a0 dd 3c b2 88 e7 3d 0b 74 83 3d b9 d9 d4 bc
       0.027054252 0.113053694 0.06418618 -0.025982725
000280 ec 42 9f 3e 36 80 fe 3d 9f fc a0 3e c9 e5 13 bd
       0.31105745 0.12426798 0.31442735 -0.036107812
000290 00 73 8e bd ea 6d 07 3e bf 1b 9d bd c6 44 b7 bc
       -0.06955528 0.13225523 -0.07671308 -0.02237166
0002a0 50 e0 1b bd 98 14 fa 3d 96 6c 86 bd c5 6e 3a bd
       -0.038055718 0.12210959 -0.0656368 -0.045515794
0002b0 ba 60 3c 3e 98 18 ac bd 0f ed 0d 3e 16 d4 d0 bc
       0.18396273 -0.084031284 0.13859962 -0.025491755
0002c0 81 dc 11 be 96 81 8a 3d 97 3c 5b 3e 97 c1 6f bd
       -0.14244272 0.06762998 0.21409832 -0.05853423
0002d0 21 a6 45 be 4b 9e bd 3d 8b f7 d1 bd 83 9b 2f 3e
       -0.19301654 0.092587076 -0.10252293 0.17149167
0002e0 30 21 57 3e 4d 0c 06 be de 14 c0 bd 0a 68 00 bc
       0.21008754 -0.1309063 -0.0937898 -0.007837305
0002f0 eb 06 2b 3c 4a b3 0b be c9 1e 04 3e 12 df 8f bd
       0.010438661 -0.13642612 0.12902369 -0.07024969
000300 a4 53 68 bd 71 6e 09 bd 8f 62 3e 3d 39 02 75 3e
       -0.05672039 -0.03355259 0.04648071 0.23926629
000310 c5 5f 85 3c d4 18 12 3e a5 d1 f7 bd 39 0c 65 be
       0.016281018 0.14267284 -0.121005334 -0.22367944
000320 5e 4a 04 be 5d 4b ae bd 3e 50 28 be 1a 7d 9d be
       -0.12918994 -0.08510468 -0.1643686 -0.30759507
000330 a5 fb be bd a7 ad b5 3d be 0e f2 bd 56 93 21 3e
       -0.09325341 0.08871012 -0.11819218 0.1577886
000340 5a f8 02 3e 29 ed cb bd bc 42 31 3e 7f 04 94 3d
       0.12790051 -0.09957344 0.17310613 0.0722742
000350 39 26 35 3e c0 37 af bd dc a9 e5 3d bc b3 34 be
       0.17690362 -0.08555555 0.11214039 -0.17646688
000360 c1 85 06 be 52 8f 84 3d 3b 4c b1 3b f8 15 81 3e
       -0.1313696 0.06472649 0.0054106987 0.25212073
000370 88 be 66 3a ba 19 0d be f2 92 67 bd dc c6 5c 3e
       0.0008802195 -0.13779345 -0.056536622 0.21560234
000380 ce fa 57 3e b5 ab c2 3d 5d 5c 03 3e fc 01 21 3e
       0.21091768 0.09505407 0.12828203 0.15723413
000390 12 c5 5e bc ea 9d 55 3d 58 69 79 bd 36 cd 70 3e
       -0.01359679 0.05215255 -0.06089148 0.23515782
0003a0 03 d9 1b be 96 a2 f5 bd f7 94 57 3d 1e 0b d8 3d
       -0.15219502 -0.119939014 0.0526323 0.105489954
0003b0 3f 40 6b 3c 7e 93 6a bd e5 cd 51 bc 27 7a a2 3d
       0.014358579 -0.057269566 -0.012805437 0.07933455
0003c0 79 8a b9 bd 06 b2 d0 bd 02 50 b6 bd 29 f4 95 bc
       -0.09059615 -0.10190205 -0.08901979 -0.018304901
0003d0 3f 4d 20 3e 68 c8 39 be 49 35 27 be a8 ba 34 be
       0.15654467 -0.18142855 -0.1632892 -0.17649329
0003e0 e9 28 67 3d 3c ad 8e 3d b1 9e b9 3e bc 09 cc bb
       0.0564355 0.069666356 0.36253884 -0.0062267464
0003f0 9b a0 73 3e 63 87 41 3e 45 ff 32 3b 27 d0 00 be
       0.23791735 0.18899302 0.0027312797 -0.12579404

cell.b_hh f4 [256]
000000 5d bf 66 bd 0e 89 4e bd 68 e9 96 bd ad 53 b9 bd
       -0.056334842 -0.050423674 -0.073687375 -0.09049163
000010 76 f4 1b bd f5 ac 66 bd bb 75 25 bd 29 96 71 3c
       -0.038074933 -0.05631729 -0.04039548 0.014745274
000020 e9 86 64 bd fc f7 bb bd 9b 62 3d bd 03 e5 6e 3c
       -0.055792723 -0.09178159 -0.046236616 0.014580968
000030 1d 09 83 bd 64 2b 49 bd 3e e9 86 bc d3 34 03 bc
       -0.063982226 -0.049113646 -0.01646864 -0.0080082
000040 aa 57 83 bd ea d7 9f 3c 31 8f 85 bd f2 ac 2e bd
       -0.06413205 0.019512136 -0.06521452 -0.042645402
000050 be 34 d9 bc 5e c7 a5 bc 0b b9 80 bd 2e e2 7f bc
       -0.026514407 -0.020236667 -0.06285294 -0.01561789
000060 92 a4 6d bd 7f f2 c9 bd 86 3b 40 bd 59 91 88 3d
       -0.058018275 -0.098607056 -0.046931766 0.06668348
000070 70 0b 87 bd 77 b5 1f bd 9c 76 4a bc 28 65 cb bd
       -0.065939784 -0.038991418 -0.01235738 -0.099314034
000080 1d 47 b2 bc ed c7 fa bd a1 aa f9 bc 9d fc b4 3c
       -0.021762425 -0.12245164 -0.03047687 0.022093112
000090 ee 19 2e bc a9 8c 52 bd 24 62 82 bd 9c 28 4d bc
       -0.010626299 -0.051403675 -0.06366375 -0.012521889
0000a0 9c 99 02 bd cf 83 e4 bc c5 f2 b7 bc 3d c3 91 3d
       -0.031884775 -0.027894882 -0.022454629 0.07117317
0000b0 ad 9a 9a bd 86 63 38 3d 88 3b 2d bd c6 ad 03 bd
       -0.07549033 0.045016788 -0.0422931 -0.032148145
0000c0 0a 94 04 be 69 f7 58 bd 59 29 3b bd 6a 41 cc 3a
       -0.12947097 -0.052970324 -0.04569373 0.001558346
0000d0 6b e5 7d bd 6b 54 1b 3d ea 40 06 bb c2 9e a7 bd
       -0.06198637 0.037922304 -0.002048547 -0.081845775
0000e0 b6 23 92 bd eb c4 76 bd e5 36 eb bc 4e 58 63 bd
       -0.071357176 -0.06024639 -0.0287127 -0.055504136
0000f0 d5 7d b9 3c 88 be 24 bd 02 ed 24 bd 2b 7e cd bc
       0.02264301 -0.040220767 -0.04026509 -0.025084576
000100 09 e2 37 40 19 ed 35 40 54 5b 3f 40 2d ec 32 40
       2.873171 2.8425963 2.9899492 2.795665
000110 bc 4a 3b 40 e4 bf 3a 40 c7 25 3e 40 32 2d 33 40
       2.9264364 2.917962 2.9710557 2.7996335
000120 1b 0a 38 40 8b 26 2f 40 22 3a 3f 40 f4 b6 41 40
       2.8756168 2.7367275 2.9879231 3.0267916
000130 b8 93 3b 40 a7 65 3b 40 32 90 40 40 6a 29 3b 40
       2.930891 2.9280794 3.008801 2.9244027
000140 f0 61 30 40 e1 98 3f 40 71 fd 3f 40 2b d6 39 40
       2.7559776 2.993706 2.9998438 2.9036968
000150 e3 f6 3e 40 2b c5 3e 40 f0 cb 3c 40 d2 16 3d 40
       2.9838188 2.9807842 2.9499474 2.9545178
000160 0c 5f 3e 40 95 11 31 40 d5 6b 36 40 0f eb 33 40
       2.9745512 2.7666981 2.8503315 2.8112218
000170 25 e7 3b 40 1d f5 3d 40 1a 9b 38 40 12 d7 3e 40
       2.935983 2.9680855 2.8844666 2.9818769
000180 a9 26 39 40 b8 78 3a 40 95 50 3d 40 50 63 32 40
       2.8929846 2.913618 2.9580433 2.7873116
000190 4a b0 40 40 e3 60 40 40 48 28 3c 40 66 72 34 40
       3.0107598 3.0059135 2.9399586 2.8194823
0001a0 cc 11 3a 40 85 87 40 40 5f 40 3c 40 e3 27 38 40
       2.9073362 3.0082715 2.941429 2.8774345
0001b0 5e ac 3a 40 bd b6 3c 40 e3 40 3a 40 c0 f2 36 40
       2.9167705 2.9486535 2.9102104 2.8585663
0001c0 be ec 33 40 c5 14 3e 40 ef 4f 3b 40 96 61 3f 40
       2.8113246 2.9700177 2.9267538 2.9903312
0001d0 6c df 39 40 df 7c 43 40 fb 10 3e 40 6c db 3d 40
       2.9042616 3.0544965 2.9697864 2.9665174
0001e0 c0 2c 3d 40 61 bb 40 40 95 ef 3c 40 79 73 36 40
       2.9558563 3.0114367 2.952123 2.850798
0001f0 2e ba 33 40 2e f9 3e 40 e6 b5 40 40 20 f5 3d 40
       2.8082385 2.9839587 3.0111022 2.9680862
000200 0e 5b 30 bd a2 4c 3a bc 74 2f 5f 3d ac 7d ca ba
       -0.043055587 -0.01137081 0.054488614 -0.001544883
000210 9b a5 22 bc a8 cd bb 3b 98 82 ee 3b a1 31 e6 3c
       -0.009927179 0.0057313032 0.0072787516 0.028099837
000220 20 63 90 3c 5a d2 d8 3c e6 34 ae 3c e8 6d 62 3d
       0.017625391 0.026467491 0.021265458 0.055280596
000230 f8 b5 30 bd b1 cd 1a bc cb 47 42 3d f3 c8 c8 bc
       -0.04314229 -0.009448455 0.04743175 -0.024509883
000240 49 ba 7c bc ab 30 83 bc 19 ec c9 bc 56 8a 3a 3d
       -0.015425273 -0.016014418 -0.024648713 0.045542084
000250 05 2c 6f ba 8b 94 36 bd d5 38 e4 bb 6e a6 db bc
       -0.0009123686 -0.044575255 -0.0069647827 -0.026812758
000260 87 ab 82 3c 5c 09 19 bc 0f ca 07 3c da 73 05 bc
       0.015950931 -0.00934061 0.008287921 -0.008145297
000270 93 8b 77 3c 74 c6 39 bd aa d0 8d 3c 10 6d 8c 3c
       0.015108961 -0.045355275 0.017311413 0.017141849
000280 c5 18 53 3b 0f ca 90 bc 2c 95 55 bb a6 26 af bc
       0.0032210809 -0.017674474 -0.0032590134 -0.021380734
000290 91 9e 3b 3c 9d 54 f8 bb 62 cf cc bc 67 2c 9e bb
       0.011451379 -0.007578446 -0.025001232 -0.0048270705
0002a0 44 05 ae 3c 60 1b 8a 3c 77 4b 2b 3c b8 4d 1c 3d
       0.021242745 0.016858757 0.010455004 0.038160056
0002b0 bb 5d f9 3b cc 0d e6 3c 00 44 1a 3d 89 27 30 3d
       0.0076100505 0.02808275 0.037662506 0.043006454
0002c0 cf 11 36 bc 63 34 cf 3c 7e a9 7a bb d2 1c 9a 3c
       -0.011112644 0.025293535 -0.0038247998 0.01881257
0002d0 6a 22 d0 bc d6 14 01 bd b9 a3 d1 3c 59 ba 21 3c
       -0.025407035 -0.03151401 0.025590764 0.009871089
0002e0 e7 d8 cb 3c 2c 67 fd bc da bc 8b 3d 2c 88 2c 3c
       0.0248837 -0.030932985 0.0682313 0.010530513
0002f0 e3 66 0b 3d dc 41 aa 3a 0a e3 11 bd 65 7b e1 3c
       0.034033667 0.0012989598 -0.035616912 0.02752466
000300 db 07 22 bd 8d f7 31 bd 09 12 9f bd 49 f9 8a bd
       -0.039558273 -0.043448973 -0.07767112 -0.067858286
000310 e7 41 c7 bc 71 3f 9f bd 6d 8f 12 bd 5a cb 91 3d
       -0.024323417 -0.07775772 -0.035781313 0.07118864
000320 41 4e 4f bd 41 f5 1e bc f0 88 10 bd 98 49 25 3c
       -0.050611738 -0.009702028 -0.035286844 0.010088347
000330 ac df 48 bd 96 a1 d2 bc 98 5b 77 bd a3 15 72 3c
       -0.049041435 -0.025711816 -0.060390085 0.014775666
000340 02 dc 89 bc 8f fc 82 3a c9 dc 49 bd 66 d7 57 bd
       -0.01682854 0.0009993481 -0.049282823 -0.052695654
000350 f7 4f 9d 3b 59 de af bc 3f 0d 81 bd 4a 5b 3c bd
       0.0048007923 -0.021468328 -0.063013546 -0.045985498
000360 4f c1 e8 bd 7a 5d 98 3d 96 32 f5 bc 08 c1 22 3c
       -0.11364996 0.07439704 -0.029931348 0.009933718
000370 62 91 63 bd bf 46 94 bd 0f 0c 41 bd 29 a5 a5 bd
       -0.05555857 -0.07240056 -0.04713064 -0.080881424
000380 e4 85 0e bc a4 fc a9 bd 3a a3 8b bd f1 3b 97 bd
       -0.008698914 -0.083001405 -0.06818242 -0.0738448
000390 64 b8 15 bd 4e db a8 bd e8 27 ad bd 5e 21 21 3c
       -0.0365528 -0.08244954 -0.08454877 0.0098346155
0003a0 c7 72 58 bd 86 6d 3f bd 0e 3b 52 bc c4 12 82 3d
       -0.052843835 -0.04673531 -0.012831463 0.063512355
0003b0 99 ff 05 bd 85 03 0a bd bc c5 69 bd 3c f4 84 bd
       -0.03271446 -0.033694763 -0.05707334 -0.064918965
0003c0 9c 18 7c 3c f1 54 52 bd 45 5d 72 bd 57 07 90 bb
       0.015386727 -0.051350538 -0.05917098 -0.004395406
0003d0 dd b2 19 bd 08 dc 4d 3d c1 1f 05 bd 04 e9 a4 bd
       -0.037524093 0.050258666 -0.032500986 -0.08052257
0003e0 31 5c 02 bd 02 29 d2 3c e4 8d fa bc 02 9c c4 3c
       -0.0318262 0.02565432 -0.030585237 0.024000172
0003f0 08 4a 70 3d c6 ad b8 bc 3b 12 d5 bd 30 fe a7 bd
       0.05866435 -0.0225438 -0.10403868 -0.08202779

cell.b_ih f4 [256]
000000 5d bf 66 bd 0e 89 4e bd 68 e9 96 bd ad 53 b9 bd
       -0.056334842 -0.050423674 -0.073687375 -0.09049163
000010 76 f4 1b bd f5 ac 66 bd bb 75 25 bd 29 96 71 3c
       -0.038074933 -0.05631729 -0.04039548 0.014745274
000020 e9 86 64 bd fc f7 bb bd 9b 62 3d bd 03 e5 6e 3c
       -0.055792723 -0.09178159 -0.046236616 0.014580968
000030 1d 09 83 bd 64 2b 49 bd 3e e9 86 bc d3 34 03 bc
       -0.063982226 -0.049113646 -0.01646864 -0.0080082
000040 aa 57 83 bd ea d7 9f 3c 31 8f 85 bd f2 ac 2e bd
       -0.06413205 0.019512136 -0.06521452 -0.042645402
000050 be 34 d9 bc 5e c7 a5 bc 0b b9 80 bd 2e e2 7f bc
       -0.026514407 -0.020236667 -0.06285294 -0.01561789
000060 92 a4 6d bd 7f f2 c9 bd 86 3b 40 bd 59 91 88 3d
       -0.058018275 -0.098607056 -0.046931766 0.06668348
000070 70 0b 87 bd 77 b5 1f bd 9c 76 4a bc 28 65 cb bd
       -0.065939784 -0.038991418 -0.01235738 -0.099314034
000080 1d 47 b2 bc ed c7 fa bd a1 aa f9 bc 9d fc b4 3c
       -0.021762425 -0.12245164 -0.03047687 0.022093112
000090 ee 19 2e bc a9 8c 52 bd 24 62 82 bd 9c 28 4d bc
       -0.010626299 -0.051403675 -0.06366375 -0.012521889
0000a0 9c 99 02 bd cf 83 e4 bc c5 f2 b7 bc 3d c3 91 3d
       -0.031884775 -0.027894882 -0.022454629 0.07117317
0000b0 ad 9a 9a bd 86 63 38 3d 88 3b 2d bd c6 ad 03 bd
       -0.07549033 0.045016788 -0.0422931 -0.032148145
0000c0 0a 94 04 be 69 f7 58 bd 59 29 3b bd 6a 41 cc 3a
       -0.12947097 -0.052970324 -0.04569373 0.001558346
0000d0 6b e5 7d bd 6b 54 1b 3d ea 40 06 bb c2 9e a7 bd
       -0.06198637 0.037922304 -0.002048547 -0.081845775
0000e0 b6 23 92 bd eb c4 76 bd e5 36 eb bc 4e 58 63 bd
       -0.071357176 -0.06024639 -0.0287127 -0.055504136
0000f0 d5 7d b9 3c 88 be 24 bd 02 ed 24 bd 2b 7e cd bc
       0.02264301 -0.040220767 -0.04026509 -0.025084576
000100 45 df 01 be cb 2e 21 be 28 a5 24 bc 9a 3d 51 be
       -0.12682827 -0.15740506 -0.010049142 -0.20433655
000110 97 a7 96 bd 3f 01 a8 bd 01 1a ed bc a3 2c 4d be
       -0.07356184 -0.08203363 -0.028943064 -0.20036559
000120 2d bc fe bd ab cb 86 be b8 d4 45 bc 2e 78 db 3c
       -0.124382354 -0.2632726 -0.012074642 0.026790705
000130 b9 88 8d bd 2e 4b 93 bd 1f 38 10 3c 85 d2 9a bd
       -0.069108434 -0.07192074 0.008802443 -0.07559685
000140 82 df 79 be d2 53 ce bb 82 35 28 b9 f0 3d c5 bd
       -0.24401668 -0.0062966133 -0.00016041662 -0.09630954
000150 86 8a 84 bc 4f 79 9d bc 4b 03 4d bd a5 48 3a bd
       -0.016179334 -0.019222884 -0.05005197 -0.045479435
000160 51 83 d0 bc c3 e6 6e be 27 42 19 be 7b 4f 41 be
       -0.025453242 -0.23330216 -0.14966641 -0.18877976
000170 29 1c 83 bd 59 b7 02 bd 38 9c ec bd 3b 77 94 bc
       -0.064018555 -0.031913135 -0.11553234 -0.01812326
000180 10 2a db bd 9c e8 b0 bd ae d9 2b bd 81 ca 59 be
       -0.10701382 -0.08638117 -0.041955642 -0.21268655
000190 d9 3e 30 3c 51 cc c1 3b 51 ec 75 bd 23 d9 38 be
       0.010757172 0.005914249 -0.060039822 -0.18051581
0001a0 c5 c6 bd bd 1d 80 07 3c 76 ea 6f bd ba 04 fb bd
       -0.09266428 0.008270291 -0.05857321 -0.12256761
0001b0 21 74 aa bd 1b 51 52 bd eb e1 b7 bd 7b d5 10 be
       -0.08322931 -0.05134688 -0.08978637 -0.14143936
0001c0 44 34 41 be 72 99 f5 bc 75 03 96 bd 4b 78 1e bc
       -0.18867594 -0.029980395 -0.07324878 -0.009672235
0001d0 3f 14 c4 bd 7f 35 5f 3d 55 80 f7 bc 72 22 09 bd
       -0.09574174 0.054494377 -0.03021256 -0.033480115
0001e0 40 cd 34 bd 6b 50 3b 3c 07 18 44 bd e9 c7 18 be
       -0.044141054 0.011432747 -0.047874477 -0.1492001
0001f0 85 5d 44 be e3 69 83 bc f8 e9 35 3c 57 be 02 bd
       -0.191763 -0.016041702 0.011103146 -0.031919803
000200 0e 5b 30 bd a2 4c 3a bc 74 2f 5f 3d ac 7d ca ba
       -0.043055587 -0.01137081 0.054488614 -0.001544883
000210 9b a5 22 bc a8 cd bb 3b 98 82 ee 3b a1 31 e6 3c
       -0.009927179 0.0057313032 0.0072787516 0.028099837
000220 20 63 90 3c 5a d2 d8 3c e6 34 ae 3c e8 6d 62 3d
       0.017625391 0.026467491 0.021265458 0.055280596
000230 f8 b5 30 bd b1 cd 1a bc cb 47 42 3d f3 c8 c8 bc
       -0.04314229 -0.009448455 0.04743175 -0.024509883
000240 49 ba 7c bc ab 30 83 bc 19 ec c9 bc 56 8a 3a 3d
       -0.015425273 -0.016014418 -0.024648713 0.045542084
000250 05 2c 6f ba 8b 94 36 bd d5 38 e4 bb 6e a6 db bc
       -0.0009123686 -0.044575255 -0.0069647827 -0.026812758
000260 87 ab 82 3c 5c 09 19 bc 0f ca 07 3c da 73 05 bc
       0.015950931 -0.00934061 0.008287921 -0.008145297
000270 93 8b 77 3c 74 c6 39 bd aa d0 8d 3c 10 6d 8c 3c
       0.015108961 -0.045355275 0.017311413 0.017141849
000280 c5 18 53 3b 0f ca 90 bc 2c 95 55 bb a6 26 af bc
       0.0032210809 -0.017674474 -0.0032590134 -0.021380734
000290 91 9e 3b 3c 9d 54 f8 bb 62 cf cc bc 67 2c 9e bb
       0.011451379 -0.007578446 -0.025001232 -0.0048270705
0002a0 44 05 ae 3c 60 1b 8a 3c 77 4b 2b 3c b8 4d 1c 3d
       0.021242745 0.016858757 0.010455004 0.038160056
0002b0 bb 5d f9 3b cc 0d e6 3c 00 44 1a 3d 89 27 30 3d
       0.0076100505 0.02808275 0.037662506 0.043006454
0002c0 cf 11 36 bc 63 34 cf 3c 7e a9 7a bb d2 1c 9a 3c
       -0.011112644 0.025293535 -0.0038247998 0.01881257
0002d0 6a 22 d0 bc d6 14 01 bd b9 a3 d1 3c 59 ba 21 3c
       -0.025407035 -0.03151401 0.025590764 0.009871089
0002e0 e7 d8 cb 3c 2c 67 fd bc da bc 8b 3d 2c 88 2c 3c
       0.0248837 -0.030932985 0.0682313 0.010530513
0002f0 e3 66 0b 3d dc 41 aa 3a 0a e3 11 bd 65 7b e1 3c
       0.034033667 0.0012989598 -0.035616912 0.02752466
000300 db 07 22 bd 8d f7 31 bd 09 12 9f bd 49 f9 8a bd
       -0.039558273 -0.043448973 -0.07767112 -0.067858286
000310 e7 41 c7 bc 71 3f 9f bd 6d 8f 12 bd 5a cb 91 3d
       -0.024323417 -0.07775772 -0.035781313 0.07118864
000320 41 4e 4f bd 41 f5 1e bc f0 88 10 bd 98 49 25 3c
       -0.050611738 -0.009702028 -0.035286844 0.010088347
000330 ac df 48 bd 96 a1 d2 bc 98 5b 77 bd a3 15 72 3c
       -0.049041435 -0.025711816 -0.060390085 0.014775666
000340 02 dc 89 bc 8f fc 82 3a c9 dc 49 bd 66 d7 57 bd
       -0.01682854 0.0009993481 -0.049282823 -0.052695654
000350 f7 4f 9d 3b 59 de af bc 3f 0d 81 bd 4a 5b 3c bd
       0.0048007923 -0.021468328 -0.063013546 -0.045985498
000360 4f c1 e8 bd 7a 5d 98 3d 96 32 f5 bc 08 c1 22 3c
       -0.11364996 0.07439704 -0.029931348 0.009933718
000370 62 91 63 bd bf 46 94 bd 0f 0c 41 bd 29 a5 a5 bd
       -0.05555857 -0.07240056 -0.04713064 -0.080881424
000380 e4 85 0e bc a4 fc a9 bd 3a a3 8b bd f1 3b 97 bd
       -0.008698914 -0.083001405 -0.06818242 -0.0738448
000390 64 b8 15 bd 4e db a8 bd e8 27 ad bd 5e 21 21 3c
       -0.0365528 -0.08244954 -0.08454877 0.0098346155
0003a0 c7 72 58 bd 86 6d 3f bd 0e 3b 52 bc c4 12 82 3d
       -0.052843835 -0.04673531 -0.012831463 0.063512355
0003b0 99 ff 05 bd 85 03 0a bd bc c5 69 bd 3c f4 84 bd
       -0.03271446 -0.033694763 -0.05707334 -0.064918965
0003c0 9c 18 7c 3c f1 54 52 bd 45 5d 72 bd 57 07 90 bb
       0.015386727 -0.051350538 -0.05917098 -0.004395406
0003d0 dd b2 19 bd 08 dc 4d 3d c1 1f 05 bd 04 e9 a4 bd
       -0.037524093 0.050258666 -0.032500986 -0.08052257
0003e0 31 5c 02 bd 02 29 d2 3c e4 8d fa bc 02 9c c4 3c
       -0.0318262 0.02565432 -0.030585237 0.024000172
0003f0 08 4a 70 3d c6 ad b8 bc 3b 12 d5 bd 30 fe a7 bd
       0.05866435 -0.0225438 -0.10403868 -0.08202779

head.net.0.weight f4 [1, 64]
000000 07 6d 80 bd 2a 0b 5d 3d cd b6 5d 3d 4c 03 13 be
       -0.06270795 0.053965725 0.05412941 -0.14356726
000010 77 46 21 3d ec 45 11 3d 29 18 23 be f8 ea 6d 3e
       0.03937384 0.035467073 -0.15927185 0.23234165
000020 ca 6b 99 3d 0b 95 64 be e3 18 a8 bc dc 00 5d bb
       0.07491262 -0.2232248 -0.02051968 -0.0033722436
000030 d3 1c 51 bd 66 e5 af bc f7 94 54 3c e5 05 4a bd
       -0.05105288 -0.02147169 0.012974969 -0.049322028
000040 35 c1 8b 3e 73 7e a3 bc 15 0e 6a bd 95 34 15 bc
       0.27295843 -0.019957757 -0.057142336 -0.009106775
000050 0d 97 64 bc e0 0d 02 bd 31 e7 2c 3b 81 b2 11 3d
       -0.013952029 -0.031751513 0.0026382918 0.035570625
000060 b6 7a 26 3d a6 ea 66 be dd 75 05 3e 9b 1a 0b 3e
       0.04064437 -0.22550449 0.13033243 0.13584368
000070 34 1c 4e 3c d2 f5 af bc 90 69 ee 3d 9f 4a cd bc
       0.012579966 -0.021479521 0.11641228 -0.025059996
000080 1e 04 99 bd b2 6e fe bd eb 7d 10 be 1a 8b 5c be
       -0.074714884 -0.12423457 -0.14110534 -0.21537438
000090 fe 5e c1 bc 5e 2e 98 3c 60 95 ab bc 38 12 f3 3d
       -0.023604866 0.018576797 -0.020945251 0.11868709
0000a0 b9 26 18 bd b6 36 43 3a f0 2f a9 3d 59 07 2d be
       -0.037146304 0.0007446812 0.082610965 -0.16897334
0000b0 6d 7d 64 bd 2c f2 42 3d 60 12 90 3d 81 52 d2 3d
       -0.055783678 0.047594234 0.07034755 0.102696426
0000c0 53 0c 0b 3e 18 35 0f 3e 91 38 bb 3c 12 10 36 3b
       0.1357892 0.13985097 0.022854121 0.0027780575
0000d0 13 b4 e1 bd 18 b2 59 3c c0 a5 8c 3a 25 b9 1a 3d
       -0.110206746 0.01328709 0.001073055 0.037774224
0000e0 39 84 49 bc 81 56 7b bd e1 bd d6 3c bf 56 3d 3e
       -0.012299591 -0.061361793 0.026213588 0.18490122
0000f0 c6 d4 f5 3d 5c ad 77 3c 83 65 75 bd 63 a1 77 bd
       0.12003474 0.015117016 -0.059911262 -0.060456645
